runs/pretrain/2024070703/model.pth (torch, 431456 bytes, 20 tensors)

fc1.weight f4 [256, 17]
000000 ad 53 18 3e 0f ca 60 be 4a fe cd bc 15 a3 0b be
       0.1487567 -0.21952079 -0.025145669 -0.1363643
000010 db 61 12 be 86 f7 e5 bc 33 90 1a be 93 6e 26 3e
       -0.14295141 -0.02807213 -0.1509407 0.16253118
000020 0a 1e f1 3d fa 67 63 bd a1 81 80 3e 67 b6 0f 3e
       0.117733076 -0.05551908 0.250989 0.14034425
000030 4f 79 46 be a3 39 08 3e b7 ca 34 be f1 a0 47 be
       -0.19382213 0.13303237 -0.17655455 -0.19494988
000040 7f 2d 91 bb ca db 1c 3e ec fc 1c be 17 89 02 3e
       -0.0044304724 0.15318218 -0.15330857 0.12747608
000050 87 1e 1b 3e 4b 03 2e 3e c2 f2 fe 3d c9 c9 e9 3d
       0.15148364 0.16993444 0.12448646 0.114154406
000060 f6 85 6e 3e 0f 80 f4 3d cc 9e e7 bb 50 83 5c bc
       0.2329329 0.11938488 -0.0070684906 -0.013459042
000070 07 91 ff bc 3c 38 ba bd 05 ee 21 3b c8 08 3b bd
       -0.031197084 -0.09092757 0.002470852 -0.04566267
000080 ec 67 27 be 88 3a 2c be 78 bc 3c be 98 66 61 3e
       -0.16348237 -0.16819203 -0.1843127 0.22011793
000090 70 ce 57 bd f1 d3 05 be 46 39 e7 3c 2a 89 9c bd
       -0.05268711 -0.1306913 0.028225552 -0.076433495
0000a0 ac 78 69 3e 22 c4 d2 3d 75 ac ed bc fc a9 b1 3c
       0.22799939 0.102913156 -0.029012898 0.0216875
0000b0 86 80 70 bd f0 ca 70 3e b6 d8 62 3e 97 5c 3c be
       -0.05871632 0.23514915 0.22152981 -0.18394695
0000c0 87 93 9f 3d 45 fd 18 be bf 0c 1c 3e 5a b0 e6 3d
       0.077918105 -0.14940365 0.15239237 0.11264105
0000d0 68 b3 54 3e 56 db 39 be 6b 14 5b bc 45 0c 12 3e
       0.20771563 -0.18150076 -0.013371567 0.14262493
0000e0 09 51 ac 3d 0f b5 32 be fe a0 8f 3e b1 e1 4b 3e
       0.08413894 -0.17451881 0.28052515 0.19910313
0000f0 26 9d 10 be 60 e2 45 3d 24 20 35 be 81 a4 01 bd
       -0.14122447 0.04831159 -0.17688042 -0.031651024
000100 cc 28 e1 3d d4 dc 04 be ed 01 32 be 9d 3b d5 3d
       0.109941095 -0.12974864 -0.17383547 0.10411761
000110 da 71 f6 3b f6 b7 31 bd 1d 69 b1 bd da 93 fa bd
       0.0075208964 -0.04338833 -0.08662627 -0.12235232
000120 33 bb 92 bd 55 14 43 3d 88 7d 13 3d b9 12 f2 3d
       -0.07164612 0.047626812 0.036008388 0.11819977
000130 b1 60 5d be 72 97 95 bd 1c 90 06 3e 7d 00 14 be
       -0.21618916 -0.073042765 0.13140911 -0.14453311
000140 ef 5d 51 3e c6 9d f5 3d 97 63 13 be 5d f4 bf 3d
       0.20445989 0.119929835 -0.1439346 0.093727805
000150 8a 9e 12 be 7b be f0 3d af 54 0d 3e e6 d8 0d 3e
       -0.1431829 0.11755081 0.13801835 0.13852271
000160 6a 26 1b be 98 cd 06 3e e8 8c 40 3e 5a b4 62 3d
       -0.15151373 0.13164365 0.18803751 0.055347778
000170 46 06 e0 3d 33 fb 4d be c1 05 7a 3e 14 3a 52 3d
       0.109386966 -0.20115356 0.24416257 0.05132492
000180 f2 0d 48 3e 6d 45 60 be bf de 59 be 1d 1e 78 3e
       0.1953657 -0.21901484 -0.21276377 0.24230237
000190 29 e7 0e be 80 e6 ef 3d 1f 3f e2 3c 8b 6f b7 3c
       -0.13955368 0.11713886 0.02761799 0.022392055
0001a0 e6 50 16 3e 0b 4a 2e 3e c3 20 86 bd 2a 49 30 3e
       0.14679298 0.17020433 -0.065492176 0.1721541
0001b0 4c 81 85 be 94 e5 56 be a6 9b 9b bd 18 0e 0c be
       -0.26075208 -0.20986015 -0.07598047 -0.13677251
0001c0 2f 5d 09 be 20 ec 1a 3e 4b 70 24 bc 43 b8 c0 3c
       -0.13414453 0.15129137 -0.010036538 0.023525363
0001d0 75 2b 21 3e c0 98 b4 3d 1c d9 d3 3d 52 1a 57 3e
       0.15739234 0.08818197 0.10344145 0.21006134
0001e0 c9 80 ae bd 4f 8f 48 3c 40 76 36 3d b7 f4 b0 3d
       -0.085206576 0.012241199 0.044546366 0.08640426
0001f0 d9 27 c5 ba 11 f7 fe bd 95 fd 7e bb 61 cd dd 3c
       -0.0015041783 -0.12449468 -0.003890847 0.027075471
000200 20 7e 45 3d 70 7a 19 be 32 af 07 bb e4 aa 13 be
       0.048215985 -0.14988112 -0.002070379 -0.14420658
000210 08 90 cc bd 58 c8 1a be 27 e1 12 be aa 1a 37 bd
       -0.09988409 -0.15115488 -0.14343701 -0.044703163
000220 b9 36 52 bd ff 38 57 be 2f 29 24 3e 2b 4c d2 3d
       -0.05132172 -0.21017836 0.16031335 0.10268434
000230 43 3a 71 be b5 59 fe 3d cc e5 54 be c0 42 94 3d
       -0.23557381 0.12419454 -0.20790786 0.07239294
000240 9b e9 0d 3c 1a 74 9b 3d 5b 97 6a bc e2 f2 fc 3d
       0.008661653 0.07590504 -0.0143183125 0.12351014
000250 fe f4 63 be 6a 8a 27 3d d2 dd bf 3d 8d 9e 81 3c
       -0.22261426 0.040903486 0.09368481 0.015822673
000260 62 b8 04 3e ea 9f 8f bc 7a 73 3e be 06 af 82 3c
       0.12960961 -0.017532308 -0.18598738 0.015952598
000270 a9 db de bd f8 8d 98 3d 45 5d 50 3e 8e fe 90 bd
       -0.108817406 0.074489534 0.2034808 -0.070798025
000280 f5 8c 66 be 19 9e 22 be fc 1c 25 be 18 56 b8 3d
       -0.22514708 -0.15880622 -0.16124338 0.09000796
000290 ff 9a ec 3b 80 52 1c 3d 4c 25 5c be c0 d6 38 be
       0.0072206254 0.038164616 -0.21498603 -0.1805067
0002a0 29 e2 87 be 83 98 88 be ca 1f 9a bd c6 84 90 bd
       -0.26539734 -0.26678857 -0.075255945 -0.070565745
0002b0 34 e8 d5 bd 12 0a 2f 3e dd 3d 6d 3e b9 19 3d be
       -0.1044468 0.17093685 0.2316813 -0.18466844
0002c0 91 99 25 be 80 f6 e1 3d 31 58 2b be b4 41 0b 3e
       -0.16171862 0.11033344 -0.16732861 0.13599283
0002d0 f7 55 58 3e bb 32 16 3e b7 ac 09 be 38 0f 34 be
       0.21126543 0.1466779 -0.13444792 -0.1758393
0002e0 d3 6c 58 3e ad 99 3a be 4d 22 7f bc a9 94 c9 bd
       0.21135263 -0.18222685 -0.015572143 -0.09842808
0002f0 f6 a5 4a be bc 21 49 be eb 19 54 bd e8 40 00 ba
       -0.19789872 -0.19641775 -0.05178253 -0.0004892484
000300 0b f3 4b bd 55 f8 7c 3d f1 8d aa 3c 14 a4 0c 3e
       -0.04979233 0.061760265 0.020819636 0.13734466
000310 f8 22 4b be 81 88 6f be 07 12 27 3d d3 c2 ae bd
       -0.19837558 -0.23391916 0.040788677 -0.085332535
000320 91 17 5c be f5 8f 31 3d 93 dd 6d 3e 7e 04 29 be
       -0.21493365 0.04335018 0.23229055 -0.1650562
000330 2b 2f 14 3e bf 42 bf bd 2a 4a 24 3e 77 d0 7f 3d
       0.14471118 -0.09338903 0.16043916 0.062454667
000340 69 48 05 3e 08 db 24 bd b4 2d 13 be b8 5d 93 be
       0.13015904 -0.040247947 -0.14372903 -0.2878244
000350 67 b4 8c 3b a6 6f ed 3d f3 20 21 3e e3 7b 37 be
       0.0042939666 0.11593561 0.15735225 -0.17918353
000360 fd 45 94 3c c5 06 fa 3a eb 70 8d 3d d7 6c 6c bd
       0.01809978 0.0019075504 0.06906303 -0.057720985
000370 ef ea f5 bd 58 16 e0 bd 2d 31 1f be c4 bf 1a 3e
       -0.12007701 -0.10941762 -0.15546103 0.15112215
000380 5b ec ca 3d 1e ca 43 be 52 e0 6e be 62 19 4c be
       0.099083625 -0.1912007 -0.23327759 -0.19931558
000390 1f 3a 4b be ff 69 f7 bd cc 67 19 3e 93 40 6b 3e
       -0.1984639 -0.12080764 0.14981002 0.22973852
0003a0 dd e4 d4 3d 49 88 d2 3d da 02 c4 bd ba a6 50 3d
       0.10395215 0.102799006 -0.095708564 0.050940253
0003b0 8b 53 29 3d 0c 00 ae 3d fd 65 02 3e 77 3e 27 3e
       0.04133944 0.08496103 0.12734218 0.16332422
0003c0 e9 62 34 3d ea 57 25 be ba ab 19 be 04 92 e4 bd
       0.04403964 -0.16146818 -0.15006915 -0.11160663
0003d0 f6 0c 02 be 40 e0 72 3e f9 fc fa 3d 04 b3 5a be
       -0.12700257 0.23718357 0.12255282 -0.21357352
0003e0 09 68 05 3d 01 2c 9c bd c6 f6 5b be 08 29 17 3e
       0.03256992 -0.076255806 -0.21480855 0.14761746
0003f0 a5 ea a0 bc c9 ec fc 3c 48 3c ee bc b9 7f 1f 3d
       -0.019643137 0.030874627 -0.029081479 0.038940165

fc1.bias f4 [256]
000000 ec 12 7b bc 02 81 00 be 7d d9 05 be d3 b6 c4 3d
       -0.015324336 -0.12549213 -0.13071246 0.096051835
000010 81 1d c2 bd 40 ac 4c be 6f 6b 1b be 10 29 14 be
       -0.09478284 -0.19987583 -0.15177701 -0.14468789
000020 45 c5 00 3d 5a 1a bc 3d 0a 66 61 bd fe bd 14 3e
       0.03143813 0.09184714 -0.055028953 0.14525601
000030 d4 ea 1a 3c 85 cf 5f be 3f 60 17 bc ac 49 2f bd
       0.009455401 -0.21856506 -0.009239255 -0.04279487
000040 f5 94 48 3e 3f 0c 39 bd 56 32 0f 3e 9f 28 6d 3c
       0.19588073 -0.045177694 0.13984045 0.014475017
000050 00 11 ff bd a6 f0 47 3e 23 ff ee 3d 51 20 3e bd
       -0.12454414 0.19525394 0.11669757 -0.046417538
000060 32 1f 3f be af 77 94 3c 9f 22 c1 3c e7 e4 b1 3c
       -0.18664244 0.018123476 0.023576079 0.021715594
000070 3a c3 24 bd 18 5c b7 3d 39 80 e9 3d 73 3a 44 3e
       -0.040225245 0.08953112 0.1140141 0.19162922
000080 a5 65 81 bd 29 47 6e be 7a 39 78 be d8 a3 91 bd
       -0.06318215 -0.23269333 -0.24240676 -0.07111329
000090 77 8f 86 3d 3e 32 42 3e de 9a a3 bd 46 36 c4 3d
       0.065703325 0.18964478 -0.07988523 0.09580664
0000a0 b3 3f db bd 5a 5b 3a 3e 49 bd 50 be 51 74 d8 3d
       -0.10705509 0.1819891 -0.20384707 0.105690606
0000b0 a5 c8 31 3e 67 c9 90 3d b1 72 7d bd 80 39 23 be
       0.17361696 0.070696644 -0.061876956 -0.15939903
0000c0 02 d0 22 be de c1 36 be e1 a8 09 be f0 95 36 3e
       -0.15899661 -0.17847392 -0.13443328 0.17830634
0000d0 53 85 8e 3d 8d a7 62 3e 41 f2 d5 bd eb 71 56 3e
       0.06959023 0.22134228 -0.10446597 0.20941894
0000e0 4d 51 d4 3d 67 c4 58 3e 36 35 5e 3e dd 3a ac 3d
       0.103670694 0.21168672 0.21699986 0.08409665
0000f0 0b a1 85 3d 3c ef 0f 3e eb 0f 6e 3e 29 b7 6f 3d
       0.06524857 0.14056104 0.2324826 0.058524285
000100 69 b3 1d be 8a 55 35 3e 08 18 19 be b4 ba 0e 3c
       -0.15400471 0.17708412 -0.14950573 0.008711506
000110 1a e8 93 bd f7 fc 31 3e eb 6f 3f be 04 9b 64 be
       -0.07222004 0.17381655 -0.18695037 -0.22324759
000120 d0 e2 ab bd a3 12 2e 3e 7a 14 48 be 50 f4 b8 3d
       -0.083928704 0.16999297 -0.19539061 0.09030974
000130 41 38 75 3d e7 77 ff 3d 82 87 1f 3e d0 c9 0c be
       0.0598681 0.124740414 0.15579036 -0.1374886
000140 75 89 03 3e 6e 66 0f be ae 12 c0 bd a8 f3 c5 bd
       0.12845404 -0.14003918 -0.09378563 -0.09665614
000150 71 fc 7e bd 3c b1 fe 3d f1 ad 89 bd b7 35 07 be
       -0.062252466 0.124361485 -0.0672263 -0.13204084
000160 f5 24 42 3e ac 78 65 bd f0 c5 3d be 68 0b d7 bd
       0.1895941 -0.056023285 -0.18532538 -0.105002224
000170 ce c1 48 3e e6 85 65 be e6 38 bf bc bb 47 19 bd
       0.1960518 -0.2241436 -0.023342561 -0.037421923
000180 d2 32 0d be aa 72 27 be 75 90 02 be 0c 6b 47 be
       -0.13788918 -0.16352335 -0.12750418 -0.19474429
000190 02 3c b0 bd 54 db 8b 3d 1e f0 a7 bc 3f 01 4d be
       -0.086051956 0.06828943 -0.020500239 -0.20020007
0001a0 98 2b 09 3e 8d 16 75 3e a1 8c 63 be 18 e6 95 bc
       0.13395536 0.23934384 -0.22221614 -0.018298194
0001b0 b7 45 00 3e 86 b0 7e 3d dc 5d 56 be 64 70 1a bd
       0.12526594 0.062180065 -0.20934242 -0.03770484
0001c0 4b ea 61 3e 71 dc 73 be f1 39 a0 bd 51 bb d4 bd
       0.22062032 -0.2381456 -0.078235514 -0.1038729
0001d0 1a 57 11 be 73 9a a9 bc ce 35 3a be 35 50 1d be
       -0.14193383 -0.02070353 -0.18184587 -0.15362628
0001e0 cc 0d a2 bd 75 00 79 bd 18 0b f3 3d 0c 9f 84 3d
       -0.07912788 -0.06079145 0.1186735 0.06475648
0001f0 a5 33 27 be 53 a8 04 3d 86 45 5e 3e 43 6f 20 3e
       -0.16328295 0.03238709 0.21706209 0.15667443
000200 54 79 ba 3d a9 96 3f 3e 49 84 75 3e e1 74 32 be
       0.09105173 0.18709816 0.23976244 -0.17427398
000210 b1 4a 73 be 20 11 dd bc 0e 52 34 be df db 77 3e
       -0.23758961 -0.026985705 -0.17609426 0.24204968
000220 53 a0 37 3d 35 0b da bd 5b 84 47 3e 4c a6 e1 3d
       0.04483063 -0.10646669 0.19484083 0.11018047
000230 98 02 c1 bd 53 85 72 bd 2c 80 c4 3d bf 16 68 3b
       -0.09424323 -0.05920918 0.09594759 0.0035413948
000240 eb 0a fc bd 56 fe b2 bd 42 06 43 bd 95 60 0a 3e
       -0.1230677 -0.08739917 -0.04761339 0.13513406
000250 f2 65 16 be 96 96 c8 bd bb 67 c9 3b f1 ec 0d 3e
       -0.14687327 -0.09794347 0.006146399 0.13859917
000260 b4 5b 52 3e 86 fe 12 3e 8b 2d a2 bd 5e b2 0f 3e
       0.20542794 0.14354905 -0.07918843 0.14032885
000270 ec e3 35 be 05 27 e3 3b 37 f5 c8 3d 62 3d f7 3c
       -0.17762727 0.0069321417 0.09812396 0.030180637
000280 05 4b 9f bd 2b f4 62 3e 58 9c 41 bd 1b 65 2a 3e
       -0.07777981 0.22163455 -0.04726824 0.16640131
000290 ed 60 f1 bd a3 ed 11 3e c0 42 83 3d 9b 27 6d 3e
       -0.11786065 0.14250807 0.06409216 0.2315964
0002a0 40 d8 8d 3d e7 1a 2e 3e 46 8a 80 bc 0b 43 67 3e
       0.06926012 0.1700245 -0.015690934 0.22584169
0002b0 32 34 3b be 53 59 99 ba 59 67 a0 bd 48 a3 26 3e
       -0.1828163 -0.0011699594 -0.07832212 0.16273224
0002c0 64 e3 44 3e c8 8b 1e 3e 47 bb 28 3e 34 27 9b bd
       0.19227368 0.1548301 0.1647769 -0.07575837
0002d0 5e 85 ef bd 2a e6 34 be c2 09 d3 3d b2 2f 69 3e
       -0.1169536 -0.17665926 0.103045955 0.227721
0002e0 e2 fb fb 3d da 40 ee bc e7 06 4c be 48 12 89 3d
       0.12303902 -0.029083658 -0.19924508 0.0669294
0002f0 80 a2 4c bd fe ca d3 3d 7f f9 5c bd 6d 66 d2 3d
       -0.04995966 0.10341452 -0.053948876 0.102734424
000300 22 bf 1b be 5b 52 f9 bd 46 be c0 3d 41 5b 06 bc
       -0.1520963 -0.12173911 0.09411292 -0.008200468
000310 c5 67 10 3b 49 5e 37 be 7d 8c 07 3c 97 1b 3c 3e
       0.0022034508 -0.1790706 0.008273241 0.183699
000320 c0 d2 f2 bb ec e7 9c 3d 69 b4 e3 b9 a9 f1 98 3d
       -0.0074103773 0.07661423 -0.0004343123 0.07467968
000330 89 b2 e3 3a 12 77 f3 3d 80 c8 26 3d 65 6b 16 be
       0.0017371933 0.11887945 0.040718555 -0.14689405
000340 dc fa 2b 3e 97 36 2d be bb ad 46 3e e9 64 be 3d
       0.16794914 -0.16915356 0.1940221 0.09296591
000350 71 86 26 bd 0a 7a cd 3c 5a 7f be 3d b3 30 53 be
       -0.040655557 0.025082607 0.09301634 -0.20624046
000360 8f e1 c6 3d be 2d 68 bd e0 d4 aa 3d 4a e5 b3 3d
       0.09710991 -0.05668425 0.08341384 0.08783968
000370 69 1b 4b be f9 87 61 bd 89 7d fa bc 71 c2 3e 3e
       -0.19834675 -0.055061314 -0.030577438 0.18628861
000380 fe 58 e5 3d 06 01 10 3d 5a 49 5e 3e a2 95 5f 3c
       0.111986145 0.035157226 0.21707669 0.013646515
000390 26 28 2a be 17 03 be bb f1 3a c8 3d 7c b3 26 be
       -0.16616878 -0.005798708 0.09776867 -0.16279405
0003a0 6b 7b a6 bd ec 5b 4a 3e 2a 10 93 3c 6c 69 50 3e
       -0.08129009 0.19761628 0.017952044 0.20352715
0003b0 05 8c 02 bd 3f 43 64 3e c3 38 41 3d e7 95 85 3d
       -0.031871814 0.22291277 0.047173273 0.06522732
0003c0 2d 7e 53 3e 5c 8d 77 be 4f b7 26 3c 16 a9 13 3d
       0.20653601 -0.24175018 0.01017554 0.036049925
0003d0 66 2b 75 3e f3 e8 53 3e f4 4f 16 3d a5 7c 17 be
       0.23942336 0.20694332 0.036697343 -0.14793642
0003e0 ec 5e e5 bb 0e ad 2e be 37 f3 5a 3e b4 30 e8 bd
       -0.006999841 -0.17058203 0.21381842 -0.113374144
0003f0 d6 f8 09 3e 9b f0 33 be 33 2d 28 be b3 7a 64 be
       0.1347383 -0.17572252 -0.16423492 -0.22312431

bn1.weight f4 [256]
000000 48 36 82 3f dd 13 7d 3f 7e 5f 7e 3f 27 e5 80 3f
       1.0172815 0.98858434 0.9936446 1.0069932
000010 e0 7e 7f 3f 2a 52 82 3f fe 00 79 3f 21 0b 7d 3f
       0.9980297 1.0181324 0.9726714 0.98845106
000020 f1 44 71 3f 9f e7 7d 3f 48 84 7e 3f 35 e7 7f 3f
       0.9424582 0.9918155 0.99420595 0.9996217
000030 1e fa 7e 3f e9 a9 7e 3f e9 a5 80 3f 04 7e 81 3f
       0.996004 0.9947801 1.0050632 1.0116582
000040 4f 2c 91 3f b3 a4 7d 3f 9c dd 79 3f a0 a0 8c 3f
       1.1341647 0.99079436 0.97603774 1.0986519
000050 6f 56 81 3f ee 74 7e 3f ca 4e 79 3f 66 05 81 3f
       1.0104502 0.9939717 0.9738585 1.0079772
000060 74 d5 80 3f b9 38 81 3f f1 26 7f 3f 2b 1e 7e 3f
       1.0065141 1.0095435 0.99668795 0.9926478
000070 4e af 7d 3f ec 25 7f 3f 5c 97 7f 3f 47 c6 80 3f
       0.9909562 0.9966724 0.9984033 1.006051
000080 cd c0 7f 3f d1 9e 7c 3f 95 71 87 3f 6c ee 78 3f
       0.99903566 0.98679835 1.0581537 0.972388
000090 d6 ea 7f 3f a9 2d 84 3f c6 7c 7f 3f 42 3b 81 3f
       0.99967706 1.0326434 0.99799764 1.0096209
0000a0 79 b7 7f 3f b5 b2 80 3f 68 c0 8a 3f 68 9e 80 3f
       0.9988933 1.0054537 1.0839968 1.0048342
0000b0 6b 38 7d 3f d9 69 80 3f ab 6e 81 3f 6b bb 76 3f
       0.9891421 1.0032302 1.0111898 0.9637973
0000c0 11 0e 7d 3f b2 64 81 3f c1 bf 81 3f 20 2b 80 3f
       0.9884959 1.0108855 1.0136644 1.0013161
0000d0 25 b1 7e 3f bb 7f 80 3f d2 19 82 3f bd 23 81 3f
       0.9948905 1.003898 1.016413 1.0089031
0000e0 c3 00 7f 3f 86 54 80 3f e2 ce 7b 3f fb 30 80 3f
       0.9961054 1.0025795 0.98362553 1.0014948
0000f0 2b 94 80 3f 20 c7 7c 3f 75 eb 81 3f f3 2e 80 3f
       1.0045217 0.9874134 1.0149981 1.0014328
000100 c7 d7 81 3f b4 05 84 3f 55 6f 80 3f 0c c0 7a 3f
       1.0143975 1.031424 1.0033976 0.9794929
000110 0d a8 7e 3f de 25 83 3f 93 2e 7d 3f 2c 02 81 3f
       0.99475175 1.0245931 0.9889919 1.0078788
000120 3d 10 83 3f cc d5 80 3f ff de 7e 3f ea f2 7e 3f
       1.023933 1.0065246 0.99559015 0.9958941
000130 ae da 86 3f 18 eb 82 3f 59 94 81 3f c4 f2 85 3f
       1.0535486 1.0227995 1.0123397 1.0464711
000140 2b c8 7b 3f 9d d6 7f 3f 73 f3 7e 3f 17 2e 81 3f
       0.9835231 0.9993685 0.99590224 1.009219
000150 91 20 82 3f 18 fe 8b 3f 98 6b 75 3f 4a 15 84 3f
       1.0166188 1.0936918 0.958673 1.0318997
000160 5d c8 7a 3f 02 ec 73 3f ff f5 7a 3f 88 98 80 3f
       0.9796198 0.95281994 0.9803161 1.0046549
000170 26 9b 7e 3f 29 3c 7e 3f d7 4b 80 3f 7a ca 7f 3f
       0.9945549 0.9931055 1.0023144 0.9991833
000180 2c 9d 82 3f 4b 6a 7d 3f b2 b0 82 3f 2b 8a 82 3f
       1.0204215 0.98990315 1.0210173 1.0198416
000190 fb 20 7b 3f 38 ca 7f 3f 2a f2 7f 3f 58 2e 7c 3f
       0.980972 0.99917936 0.9997889 0.98508215
0001a0 a4 7c 82 3f 23 7e 81 3f 85 2c 81 3f ab d2 7f 3f
       1.0194287 1.0116619 1.0091711 0.9993083
0001b0 d4 28 80 3f 84 1d 7f 3f a1 33 7e 3f bf 8e 7e 3f
       1.001246 0.9965441 0.9929753 0.99436563
0001c0 db 66 7a 3f f8 17 8c 3f 51 dc 7c 3f 35 89 7c 3f
       0.97813195 1.0944815 0.98773676 0.9864686
0001d0 f1 06 80 3f 41 9e 80 3f d6 b1 83 3f 2f 59 80 3f
       1.0002118 1.0048295 1.0288646 1.0027217
0001e0 9b cf 7a 3f 98 00 7c 3f 13 49 7d 3f 58 09 82 3f
       0.9797303 0.98438406 0.9893963 1.0159101
0001f0 d3 c2 80 3f 0f 66 81 3f 35 11 81 3f 2e 33 87 3f
       1.0059456 1.0109271 1.0083376 1.0562494
000200 fc 32 80 3f 43 8d 78 3f e4 90 7e 3f f1 a9 7e 3f
       1.0015559 0.9709055 0.99439836 0.9947806
000210 ce 93 7b 3f 61 ae 7c 3f a1 36 7c 3f 05 78 7b 3f
       0.9827241 0.9870358 0.9852086 0.9823001
000220 43 d3 7c 3f d4 16 7b 3f eb 7d 80 3f 8a c6 80 3f
       0.9875986 0.9808171 1.0038427 1.0060589
000230 0f 1f 80 3f 9e 94 82 3f 31 ea 7c 3f 48 f9 79 3f
       1.0009478 1.0201604 0.9879485 0.97646
000240 b6 3a 81 3f 7e 15 80 3f 60 67 80 3f ce e8 81 3f
       1.0096042 1.0006559 1.0031548 1.0149171
000250 34 d7 7e 3f fa ac 7e 3f 95 4e 7e 3f 7d b9 81 3f
       0.99547124 0.9948269 0.99338657 1.0134732
000260 0e 72 7c 3f 3f 91 84 3f 36 f6 89 3f db 28 7a 3f
       0.98611534 1.0356826 1.0778263 0.9771859
000270 94 fe 81 3f ca 64 7f 3f c6 57 78 3f 21 77 7c 3f
       1.0155816 0.99763167 0.9700893 0.98619276
000280 d5 a6 81 3f ab 3d 7d 3f e0 2f 7c 3f c5 f0 73 3f
       1.0129038 0.9892222 0.9851055 0.9528926
000290 c3 e8 80 3f 00 48 7d 3f 12 24 80 3f 36 0c 7c 3f
       1.0071033 0.9893799 1.0011008 0.9845613
0002a0 d1 e6 7c 3f 10 d4 81 3f b9 51 7c 3f ce fb 81 3f
       0.987897 1.0142841 0.985622 1.015497
0002b0 74 53 7f 3f e5 71 7e 3f 1f 2a 7f 3f 3b db 7e 3f
       0.99736714 0.9939254 0.99673647 0.9955327
0002c0 e2 e5 84 3f 2c 42 77 3f 77 60 7e 3f 54 d2 7a 3f
       1.0382655 0.96585345 0.99365944 0.97977185
0002d0 5e 3a 7d 3f 3f a4 7f 3f db 6d 7e 3f 85 60 84 3f
       0.98917186 0.99859995 0.99386376 1.0341955
0002e0 7b 0e 80 3f 5d 8b 7c 3f bd 23 83 3f 23 db 7e 3f
       1.0004419 0.9865015 1.0245281 0.99553126
0002f0 99 5e 84 3f 2b 7f 7c 3f 58 42 7f 3f 67 c5 80 3f
       1.0341369 0.9863154 0.9971061 1.0060242
000300 fc 09 7d 3f c7 6b 7e 3f 9e 66 7d 3f 70 99 7d 3f
       0.9884336 0.99383205 0.98984706 0.9906225
000310 9b 5d 7d 3f eb af 83 3f ad 90 7f 3f ae 10 89 3f
       0.98970956 1.0288061 0.9983013 1.0708215
000320 cc 7c 81 3f a0 e1 82 3f ae f6 7b 3f 75 78 7f 3f
       1.011621 1.0225105 0.9842328 0.9979318
000330 52 0d 7f 3f a9 40 7c 3f 0a dc 81 3f 82 b3 7d 3f
       0.996297 0.98536164 1.0145276 0.9910203
000340 00 fb 83 3f 50 25 80 3f 07 52 82 3f 73 df 7b 3f
       1.0310974 1.0011387 1.0181283 0.9838783
000350 e4 24 83 3f 3b 8e 79 3f 06 89 81 3f 19 76 7f 3f
       1.0245633 0.9748265 1.0119941 0.9978958
000360 f8 68 7c 3f a2 0c 82 3f a9 b2 7e 3f 62 3f 7e 3f
       0.9859767 1.0160105 0.99491364 0.99315464
000370 b4 fc 81 3f 71 0b 7b 3f d3 f1 7d 3f 74 06 80 3f
       1.0155244 0.98064333 0.9919712 1.0001969
000380 ee 39 7f 3f b6 3c 79 3f 66 bd 76 3f c2 bf 78 3f
       0.9969777 0.9735826 0.9638275 0.971676
000390 fa cb 7f 3f 57 73 76 3f 94 2a 7d 3f af 5f 79 3f
       0.9992062 0.96269745 0.98893094 0.97411627
0003a0 a3 3a 80 3f 7e 02 7e 3f 67 8e 81 3f 10 d1 83 3f
       1.0017895 0.9922255 1.0121583 1.0298176
0003b0 f1 c6 85 3f 45 d6 7f 3f 99 12 89 3f 3a 99 7e 3f
       1.0451337 0.99936324 1.07088 0.99452555
0003c0 8e 53 80 3f 14 27 88 3f f4 03 74 3f 9e b2 7a 3f
       1.0025499 1.0636926 0.9531853 0.979288
0003d0 03 db 81 3f a6 b1 7a 3f 25 26 80 3f eb b5 82 3f
       1.0144962 0.9792732 1.0011641 1.0211767
0003e0 9c 8b 82 3f 21 bf 9a 3f 81 42 7d 3f 8d 39 82 3f
       1.0198855 1.2089578 0.989296 1.0173813
0003f0 b2 8c 82 3f 9f b2 82 3f 6a 38 7f 3f ae 2a 80 3f
       1.0199187 1.0210761 0.99695456 1.0013025

bn1.bias f4 [256]
000000 3a 21 a1 3c b4 53 2c bc 15 8d 3a 3c f7 25 1c bd
       0.019669164 -0.010518003 0.011386176 -0.038122144
000010 8d 9d e6 ba b7 bc af 3b 88 9a f5 bc 85 e3 7e bc
       -0.0017594561 0.0053630727 -0.029980913 -0.015557175
000020 8d dd 7f bd f9 8c 3d bc 2b e8 41 bc 8f ce 9b bc
       -0.062467147 -0.011569255 -0.011835138 -0.019019393
000030 dc d4 36 3c 4b 59 31 bb a4 06 f0 bb d5 53 33 3c
       0.011159148 -0.002706128 -0.0073250104 0.01094528
000040 06 1b 2e 3d 78 27 4a 3c 04 dd ec bc d3 2c 41 3d
       0.04250624 0.012338512 -0.028913982 0.04716189
000050 2e 3a 25 3d e4 94 59 3c b2 88 04 bd b0 54 05 3c
       0.040338688 0.013280127 -0.032356925 0.008137867
000060 7e 82 14 3c 93 e2 c4 bb a6 f4 83 3c cd 75 36 bb
       0.009064315 -0.006008455 0.016107868 -0.002784121
000070 d7 c7 3a 3b 1a cd 94 bc fb 4b c1 3b 59 1e f3 3c
       0.0028500461 -0.018164206 0.00589895 0.029677557
000080 32 90 c7 bc 96 48 e2 bc e9 93 71 3d 85 f1 dc bc
       -0.02436075 -0.027622502 0.05897895 -0.026970634
000090 92 58 05 bc 1b 01 d5 3c f0 27 24 bb dd 36 a8 3c
       -0.008138793 0.026001504 -0.0025048219 0.020533973
0000a0 c7 3f 57 bb 05 88 69 3c 57 7a 54 3d a9 a3 8b 3b
       -0.003284441 0.014253621 0.051874485 0.004261453
0000b0 e0 3a 41 3c 17 a6 18 3b 24 ab b4 3a d5 e3 60 bd
       0.011793822 0.0023292357 0.0013783914 -0.054904778
0000c0 92 c0 99 3c 91 10 1d b8 20 17 63 3c 7c c9 83 3c
       0.018768582 -3.7447146e-05 0.013860494 0.016087286
0000d0 34 e7 80 3b c5 6b 79 3b 8a d5 16 3d d3 4d 28 bb
       0.0039338116 0.003805862 0.03682474 -0.0025681152
0000e0 4e 07 d4 bc f6 3c b2 3b 10 c6 57 bc 9b 04 73 3b
       -0.02588239 0.005439396 -0.01316978 0.0037081602
0000f0 13 fc e5 ba aa 07 c1 bc 07 79 87 3c a2 17 9b 3c
       -0.0017546437 -0.023563225 0.016537203 0.018932167
000100 62 86 c9 3b 7f 58 85 3d 77 e1 9b 3c 17 65 d6 bc
       0.006150053 0.0651102 0.019028408 -0.02617125
000110 20 f9 f4 bc e0 4f 10 3c b9 2c 0b bc ff f5 8e bb
       -0.029903948 0.008808106 -0.008494549 -0.004362821
000120 cd f3 65 3c 91 af a6 bb 82 7b fd bb a1 75 11 3c
       0.014035177 -0.005086847 -0.0077356705 0.008878143
000130 04 1f 34 3c 1e 8f 4b 3c c8 f8 ff bb 75 ef 05 3d
       0.010993723 0.0124242585 -0.0078116395 0.032699067
000140 2a d9 a3 bc 01 0d b3 bc 40 1a e2 3b e4 41 a2 bc
       -0.020001013 -0.021856787 0.006900102 -0.01980681
000150 27 f9 29 bb 0d d7 43 3b 5c 37 f6 bc 05 f1 97 3c
       -0.002593586 0.002988282 -0.030055694 0.018547544
000160 9a f6 23 bd 90 bb ae bc 7e ad 94 bc 0f e6 92 ba
       -0.0400301 -0.021329671 -0.018149134 -0.0011207479
000170 d4 ac bb bb 80 8d ac bc 18 c0 b3 3b 82 0a 0e bc
       -0.00572739 -0.021063566 0.005485546 -0.008669497
000180 7d c4 24 ba e9 92 98 bc ec a3 a1 3c 56 a7 86 bc
       -0.00062853826 -0.01862474 0.019731484 -0.016437214
000190 c7 4f 04 bd 8d 96 b5 bc 80 43 8f 3c 59 2a 93 bc
       -0.032302644 -0.022166515 0.017488241 -0.017964529
0001a0 08 a0 52 3c 00 65 ae 3c 11 11 22 bc 05 57 30 3d
       0.012855537 0.021288395 -0.009891764 0.04305174
0001b0 87 6c 00 bb 09 00 ae 3c 18 f3 f0 bb e9 a6 90 bc
       -0.0019595937 0.021240251 -0.007353198 -0.017657714
0001c0 a4 51 99 ba 0d 8e a4 3c b4 16 81 bc 14 2f 29 bb
       -0.0011697304 0.020087266 -0.015757896 -0.0025815414
0001d0 c1 7e cf bc f5 d7 21 3c 68 b1 90 3c 87 5d 4f 3c
       -0.025328996 0.009878148 0.017662719 0.012656576
0001e0 4a 43 82 bb d3 8c d8 bc 42 c3 4c 39 68 66 5f 3c
       -0.0039753066 -0.026434338 0.00019527695 0.013635255
0001f0 e0 e0 2f 3c 06 71 55 bc 49 05 40 bb 17 f7 f3 3c
       0.010734767 -0.013027435 -0.0029300025 0.029780908
000200 93 bf 0c bc ce 21 b7 bc f0 eb c5 3b 33 8e 60 bc
       -0.008590597 -0.022354987 0.006040089 -0.013705778
000210 50 07 44 bc b6 de 5e bc 8b de cd 3a d2 46 91 bc
       -0.011964634 -0.013602903 0.0015706582 -0.017733965
000220 e4 e9 85 bc b6 98 4e bc 6b 7f 1f 3c e9 6e 34 b5
       -0.01634688 -0.012609651 0.009734969 -6.721662e-07
000230 03 0b 16 bb 4b 6e a9 3c 2d 4b 8b bc 5d b6 3b bd
       -0.0022894747 0.020682475 -0.01700362 -0.045828212
000240 90 c2 6b 3b 45 d6 ed 3b 10 9a b0 bc 1b d0 e2 bb
       0.0035974123 0.007258209 -0.021557838 -0.0069217808
000250 f9 84 45 bd ab e6 b4 bc 2c ca 91 bc 48 1a a7 bb
       -0.048222516 -0.022082647 -0.017796598 -0.0050995685
000260 8c 4c 12 3d 90 f4 80 3c e9 51 7b 3d a4 54 e1 bc
       0.035717532 0.015741616 0.061357412 -0.02750618
000270 ac db 6a 3c 00 53 48 3c 73 da dd bc d5 9e 98 3b
       0.0143346 0.01222682 -0.027081704 0.004657606
000280 d9 73 83 3c 61 50 b3 bb 50 a6 81 bc e5 b1 d2 bc
       0.016046451 -0.0054722284 -0.015826374 -0.025719592
000290 bb 64 83 3c 33 39 ef bb 2b 14 3d bc 72 69 67 bb
       0.016039243 -0.00730052 -0.011540453 -0.0035310653
0002a0 65 dc 2a ba 3d 4a 58 bc be a0 05 bc d3 ba 2c 3d
       -0.00065178267 -0.013201294 -0.008156 0.042170357
0002b0 c1 88 9a 3b a7 e0 9c 3c b3 3f 9b 3c 08 6b 01 bc
       0.0047160094 0.019150091 0.018951273 -0.007899053
0002c0 db ee b3 3c 47 8f c0 bc 80 64 58 3c da f4 25 bd
       0.021964481 -0.02350582 0.013207555 -0.04051671
0002d0 a5 18 51 bc 19 ef fd bb ed 73 ea bc 8b 6a 00 3d
       -0.012762223 -0.00774945 -0.02861973 0.031351607
0002e0 b1 a1 20 bd d8 78 09 bd 52 18 9e 3c 79 7c 65 3c
       -0.0392167 -0.03356251 0.019298706 0.014006727
0002f0 5b 9c f5 3c 62 92 bb bc 41 c3 00 bd 5e 4f 85 ba
       0.029981783 -0.02289695 -0.03143621 -0.0010170748
000300 f2 6b cd bc 2b b0 96 bb c1 6c 15 bd 94 41 28 3c
       -0.025075886 -0.0045986376 -0.03648067 0.010269541
000310 9a f6 0c bc 05 d4 74 3c af da 73 3c c8 04 cb 3b
       -0.008603716 0.0149431275 0.014883681 0.0061956383
000320 55 0c 4f ba 04 90 3c 3c b7 56 ec bc 47 ba be bc
       -0.0007898261 0.011508945 -0.028849943 -0.023282183
000330 ad 1b ab 3c 7d 7b 97 bc 47 3e 2c 3c a5 14 d6 bc
       0.02088722 -0.018491501 0.010512895 -0.026132891
000340 10 86 e5 3c 5a 95 b5 bc 5b 30 7f bc 2c 43 6e bc
       0.028018028 -0.022165943 -0.015575494 -0.014542382
000350 27 6c 67 3c bd 09 0f bd a8 4e 5f ba 00 f7 60 3c
       0.014124907 -0.034921397 -0.00085184956 0.013730764
000360 bf 4c e8 bc 34 17 3c 3c 92 51 eb 3c 59 4c 9d bc
       -0.028356908 0.011480141 0.02872542 -0.019201444
000370 2a b5 a2 3c 4c 62 13 bd b2 c5 6b ba e1 f5 f4 b9
       0.019861776 -0.035982415 -0.00089939975 -0.000467225
000380 43 9a 88 bc ce b3 86 bc f0 cb 41 bd 17 fd 00 bd
       -0.01667512 -0.01644316 -0.04731363 -0.031491365
000390 5d e8 41 3c 1e 5d a4 bc 68 73 b7 bc a6 f5 2c bc
       0.011835185 -0.020063933 -0.022393897 -0.010556614
0003a0 44 88 a4 3b 3d 8a 9a bc d1 06 d9 3c 0c a7 28 3d
       0.005021127 -0.018864745 0.026492508 0.041174933
0003b0 19 c1 df 3c 54 97 ce bc 00 14 53 3d e6 cd f3 bb
       0.027313756 -0.025218643 0.051532745 -0.0074403165
0003c0 26 17 4f ba 10 6f 37 3d d9 78 c0 bc 82 9b fc bc
       -0.0007899873 0.04478365 -0.023495125 -0.03083587
0003d0 ba 38 09 3c 75 33 0d bc d0 18 7e 3b 9d 71 2c 3c
       0.008375341 -0.008618225 0.0038772114 0.010525134
0003e0 9a bd 0a 3c 31 3c 93 3d 31 d2 96 3b c8 cc f7 3c
       0.008468056 0.07189215 0.0046026935 0.030249014
0003f0 22 5e 6c bb 2a 81 50 bc 0a c6 4e 3d 27 ef 38 3c
       -0.003606685 -0.012726108 0.050481834 0.011287487

bn1.running_mean f4 [256]
000000 ab b2 ea c0 e2 57 4d 41 aa bd 0d 3f fc 0c 0b 40
       -7.33431 12.833956 0.5536753 2.1726675
000010 ce 7f bd c0 cd 2f 79 41 1e 01 b7 40 46 c3 e6 3f
       -5.921851 15.57417 5.7188864 1.8028343
000020 85 89 ca bd 3c 4c 74 c0 27 ef 26 40 b2 f7 08 c1
       -0.09889511 -3.817153 2.6083467 -8.5604725
000030 4c f2 85 40 57 b9 ee c0 27 fd 6e c0 4d f0 96 c0
       4.1858273 -7.4601245 -3.7342012 -4.7168336
000040 ed 9c 91 3f b2 bd 56 c1 2c e6 62 41 6c 22 09 40
       1.1376015 -13.421312 14.181194 2.142726
000050 b9 c8 1c c1 fa 9a 06 c1 cf 0f ef 40 40 b6 cf c0
       -9.799005 -8.412836 7.4706798 -6.4909973
000060 94 a2 1a 41 99 c6 93 40 ac c8 27 c0 79 3b 99 c0
       9.664692 4.617993 -2.621623 -4.78851
000070 71 fa cf bf aa 6d 39 41 3d 82 db bd 91 40 39 c0
       -1.6248304 11.589273 -0.107182 -2.8945658
000080 a4 5d 1d c1 b9 89 26 41 cf 4c 89 40 d9 2a a4 c0
       -9.8353615 10.408624 4.290626 -5.1302304
000090 cf cb e6 3f 37 e8 b4 40 58 c8 40 40 3b c6 e7 40
       1.8030947 5.6533465 3.012228 7.242948
0000a0 0f 07 27 c1 ce f1 b2 40 9b 62 e0 40 eb 1c 45 c1
       -10.439223 5.592017 7.012037 -12.31956
0000b0 14 55 ca c0 0d 09 47 c0 03 ac 31 40 c4 b2 bb c0
       -6.3228855 -3.1099274 2.7761238 -5.865572
0000c0 53 eb 4c c0 d6 47 19 40 9a ae 41 40 c4 9b 82 c1
       -3.201863 2.3950095 3.0262818 -16.326057
0000d0 ad 7b b2 c0 62 d1 1c c1 39 2a 98 3e 66 62 f1 bf
       -5.577597 -9.801119 0.29719713 -1.8858154
0000e0 1d 16 98 bf 27 b0 d6 40 c1 e7 87 c0 a3 51 2a 3f
       -1.1881748 6.709003 -4.2470403 0.6653082
0000f0 20 c6 3b c0 65 3a 80 bf 8a 5d 3a 40 5c 49 ae bf
       -2.9339676 -1.0017821 2.9119592 -1.3616138
000100 86 f9 7b 40 9b 23 4c 3f 3e c6 0a 3f 77 21 1c 41
       3.9371047 0.7974183 0.54208744 9.75817
000110 bf 10 e2 3e 59 75 81 41 08 21 84 bf 1b 24 d7 40
       0.441534 16.182299 -1.032258 6.7231574
000120 00 e0 5d 41 43 40 7f c0 df a0 dc be 21 29 12 bf
       13.8671875 -3.9882972 -0.43091485 -0.5709401
000130 ad ff b2 40 75 5b b6 40 95 f8 1e c0 53 20 c2 40
       5.5937104 5.698664 -2.4839222 6.066446
000140 54 2b e3 40 70 92 85 3f a7 8e 04 c1 17 09 a1 c0
       7.099039 1.0435314 -8.284827 -5.0323596
000150 97 87 cd 3f 02 c6 8a 40 0d 2b 70 40 f2 22 df bf
       1.6057004 4.336671 3.7526276 -1.743254
000160 ff b1 0b c1 e0 09 3d 40 18 ed 8f c0 a1 a9 e1 40
       -8.730956 2.9537277 -4.497692 7.0519567
000170 c1 40 18 c1 a6 30 01 41 85 aa 44 c0 8f 58 36 c0
       -9.515809 8.074377 -3.0729077 -2.8491552
000180 79 6f 93 40 13 41 7e bf c7 bb 47 3f 51 db 75 bf
       4.6073575 -0.99318045 0.780209 -0.96037775
000190 b2 3f 91 c0 52 88 34 c0 aa 53 8d 40 31 c2 7d 40
       -4.5390253 -2.8208203 4.416463 3.9649775
0001a0 4f 97 03 41 3b 44 1b c1 c1 18 e3 3f 39 23 c8 c0
       8.224441 -9.704158 1.7741929 -6.2542996
0001b0 b7 4b 82 41 f0 05 72 3f a4 f5 04 c1 d5 37 00 40
       16.28697 0.9454031 -8.309971 2.0034077
0001c0 90 ad 9c 3f 8e ae 4e c0 b7 2c 05 c1 a5 82 c0 c0
       1.2240467 -3.229404 -8.323417 -6.015948
0001d0 39 3b 81 40 01 9d 8d 41 f4 d8 ce 3f 92 63 c7 c0
       4.0384793 17.701662 1.6159959 -6.2309046
0001e0 79 66 a7 c0 14 ef 18 be 8c 55 1f c0 a7 98 03 c1
       -5.231259 -0.14934951 -2.4895964 -8.224769
0001f0 2e 78 e9 3f 85 23 74 40 f3 f7 f7 3f 4b f0 fd 3f
       1.8239801 3.814668 1.9372543 1.9838957
000200 c1 6e 8d bf e0 5e e5 c0 ce 5f 48 c0 64 73 45 40
       -1.1049424 -7.1678314 -3.1308475 3.085168
000210 e1 0c a8 3f 2b bd c6 3f 42 58 67 c1 1d 52 f3 40
       1.312893 1.552648 -14.459047 7.6037736
000220 20 97 9f c0 8e 50 fc c0 b6 0a a8 40 7e 85 ad 3e
       -4.987198 -7.8848333 5.2513075 0.3389091
000230 7d 24 09 bf fb c8 79 3f ee 88 4a c1 78 13 ec c0
       -0.535713 0.97572297 -12.65843 -7.3773766
000240 83 80 1a 41 59 4c 2c 41 77 a7 35 c0 e2 15 84 c0
       9.656375 10.76864 -2.8383462 -4.1276712
000250 56 02 69 c0 9e 6c 94 40 f1 11 15 c1 af 2c 7a c0
       -3.6407676 4.638259 -9.31688 -3.9089773
000260 d1 2c 34 bf 11 91 8e c0 e7 23 17 41 33 a6 c6 40
       -0.70380884 -4.4552083 9.446265 6.207788
000270 da ed 15 41 2a d5 31 3f 37 40 ba 40 c9 f7 e4 c0
       9.370569 0.6946589 5.8203387 -7.155247
000280 92 a5 85 40 9f 88 70 c0 a8 b3 cc 3f 3d fd b5 40
       4.176461 -3.7583387 1.5992327 5.687163
000290 33 6a 54 c0 35 b6 6c 41 e0 89 a3 c0 9a ad 89 c0
       -3.318982 14.794484 -5.1105804 -4.3024416
0002a0 02 5c a7 bf dc 6d a8 40 da 17 1b c1 79 84 b9 c0
       -1.3074954 5.2634106 -9.693323 -5.797421
0002b0 1c e9 86 c0 85 18 1e c1 13 b7 9a 3e c9 1f 32 3f
       -4.2159557 -9.880986 0.302178 0.6957975
0002c0 eb 3d 9e 3f e7 3f 4f 41 9d de e1 c0 bb a3 82 3a
       1.2362646 12.953101 -7.0584245 0.0009967008
0002d0 b8 c5 02 c1 46 b6 a1 c0 a8 42 b4 c0 d1 a4 8d 40
       -8.173271 -5.0535 -5.6331367 4.426369
0002e0 58 9a b0 c0 f2 dc 03 bd bc 13 9a 3f 93 ac 0c 41
       -5.518841 -0.03219313 1.2037272 8.792132
0002f0 73 f2 1d 40 81 b6 6b 40 1f 37 8c 3f e0 f0 44 40
       2.467923 3.6830142 1.0954322 3.0772018
000300 94 8c b5 40 39 48 01 c1 08 e3 33 c1 94 2f bf bb
       5.6734104 -8.0801325 -11.242928 -0.005834529
000310 1d 9b c5 c0 b8 61 2b bf b3 c9 e1 bf 82 04 51 c0
       -6.1751847 -0.6694598 -1.7639679 -3.2659001
000320 90 29 59 bf 44 22 4d 41 36 22 de c0 29 27 51 c0
       -0.84829044 12.820866 -6.941676 -3.2680151
000330 65 7e 01 bf c7 60 18 c1 cc 98 81 41 3c be 78 bf
       -0.5058349 -9.523627 16.199608 -0.97165275
000340 17 21 9b 40 85 67 5b 40 05 ef cd 3e 66 31 f3 be
       4.8477893 3.4281933 0.4022142 -0.47498626
000350 cf b4 ce c0 f8 0c 6f c1 3e 86 d9 bf 32 e2 4a 41
       -6.4595714 -14.940666 -1.6994092 12.680223
000360 b1 8e ae bf cf db a9 bf 87 c1 bf 40 aa b1 36 40
       -1.3637296 -1.3270205 5.992374 2.8545938
000370 86 b7 e9 40 cb 92 d5 3f e6 76 6a bf e2 07 e7 c0
       7.303653 1.6685423 -0.91587675 -7.2197123
000380 1e 51 25 41 67 00 69 40 d5 b0 81 40 9d 38 b6 3f
       10.332304 3.6406496 4.052836 1.4236027
000390 2e 71 dc 40 1a d3 eb 40 a0 64 22 c0 f9 31 30 41
       6.888816 7.369519 -2.5373917 11.0122
0003a0 4c 8a 63 3e 74 03 9a 40 bd db a5 40 34 a3 8b bf
       0.22220725 4.8129215 5.1830735 -1.0909181
0003b0 05 54 18 40 3c a9 9d 3f c0 62 c8 3f b0 28 04 41
       2.3801281 1.2317271 1.5655136 8.259933
0003c0 ec 98 b2 c0 64 ad d9 40 7a 32 8b 41 ef 85 cb 40
       -5.581167 6.802416 17.399647 6.3600993
0003d0 3d 18 ef c0 7f b8 7a 3f 08 7f ef c0 22 1d e5 3f
       -7.471709 0.9793777 -7.4842567 1.7899516
0003e0 b5 e4 85 bf 8e 0b 97 3f 72 95 93 c1 78 ee a4 c0
       -1.0460421 1.1800401 -18.447971 -5.15411
0003f0 f1 c1 88 be 6d d5 b2 40 7f 0a 8f 41 c3 03 e1 3f
       -0.26710466 5.588553 17.880125 1.7579273

bn1.running_var f4 [256]
000000 5f 00 bf 41 13 0f 0b 42 38 7e 81 41 a7 a0 ca 41
       23.875181 34.76472 16.18663 25.328444
000010 2e 45 c8 41 34 05 c3 42 28 c1 f4 41 79 ca 77 41
       25.03378 97.51016 30.594315 15.486932
000020 e7 4e 0d 41 59 3a cc 41 8c ca 33 42 8d 45 72 41
       8.831763 25.52849 44.9478 15.14198
000030 f4 47 91 40 8d 71 bf 41 72 8e cd 40 27 ba 61 41
       4.5400333 23.930445 6.4236383 14.107947
000040 2e 81 74 40 1c 03 18 41 bb d4 d1 41 56 f1 19 40
       3.8203845 9.500759 26.228872 2.405355
000050 5d 8c 3b 41 8d d9 1c 41 7e f5 16 42 4c 47 8c 41
       11.721768 9.803113 37.73974 17.534813
000060 9d e3 2f 42 ee 95 03 40 c4 6d 05 41 3c 68 4e 41
       43.97228 2.056026 8.339298 12.900448
000070 bc 4c de 41 9f 26 d4 40 b2 40 a1 40 a3 09 8f 41
       27.787468 6.6297145 5.0391474 17.879705
000080 d9 f5 8f 41 f4 ba 8a 41 c0 10 0f 41 3b 4c b8 41
       17.995043 17.341286 8.941589 23.037222
000090 7d f2 78 41 2a ea 23 41 a7 ae 5a 41 ee 7f f3 3f
       15.559201 10.244669 13.66764 1.9023416
0000a0 c8 89 c3 41 ff 65 c7 41 31 e4 e7 40 22 5f 90 42
       24.442276 24.924803 7.2466054 72.18581
0000b0 92 1c 60 42 8b c0 6a 41 f9 1a 0f 41 aa 02 aa 41
       56.0279 14.672008 8.944085 21.2513
0000c0 10 7e a2 41 9f 22 1c 42 ee 37 b2 40 7a 63 4a 42
       20.311554 39.03381 5.5693274 50.597145
0000d0 f0 43 1d 41 9f 96 8e 41 94 6d e2 41 6d 6e 1d 41
       9.829086 17.823545 28.303505 9.839459
0000e0 21 dd ec 41 dc 75 8b 41 f1 2b 65 42 4b 94 af 41
       29.607973 17.432549 57.29291 21.947409
0000f0 21 96 b4 41 4f 03 69 41 c8 85 70 41 82 55 7d 41
       22.573305 14.563308 15.032661 15.833376
000100 39 fa c9 41 e4 35 6e 40 1f 32 8f 41 9f c6 63 42
       25.247179 3.7220392 17.899473 56.943966
000110 84 68 a8 41 23 d1 ee 41 5e 22 77 41 18 19 22 42
       21.051033 29.852118 15.44589 40.524506
000120 e5 bb 83 41 c2 ee 54 40 51 df d9 40 97 3e 07 41
       16.466745 3.3270726 6.8085103 8.452781
000130 d0 60 1d 41 1d 21 48 41 de eb a0 41 cd f3 1a 41
       9.836136 12.508084 20.11517 9.684522
000140 7a b1 97 41 01 5c 19 42 a0 1f 55 41 86 87 58 42
       18.961658 38.339848 13.320221 54.132347
000150 f8 1e 54 40 bc d4 84 40 8d 0c 6f 41 bd ce 2f 41
       3.3143902 4.1509686 14.940564 10.987973
000160 3d de 0a 42 84 c6 29 41 ba 85 0e 42 38 c3 10 41
       34.71703 10.610966 35.630592 9.047661
000170 59 61 0b 42 1f e4 eb 41 88 9e 2f 41 b2 df e1 40
       34.845066 29.486387 10.976204 7.0585566
000180 0e f6 2a 41 69 ac 4d 41 5f ca 4b 41 c5 0e 62 42
       10.685072 12.854592 12.736907 56.514423
000190 67 bd 53 41 90 d5 d8 40 8d 07 00 41 92 d7 d5 41
       13.233741 6.7760696 8.001843 26.730259
0001a0 37 54 fa 40 c7 3a eb 41 9e 5c 78 40 db 74 d7 40
       7.82278 29.4037 3.880653 6.7330146
0001b0 49 fa 47 42 e8 72 f4 41 b2 71 b3 41 ad cb 7f 41
       49.99442 30.556107 22.430515 15.987226
0001c0 a0 98 62 41 e8 e6 a4 40 9f 38 2b 41 fa a9 91 41
       14.162262 5.153187 10.7013235 18.207996
0001d0 47 57 fd 41 fb 3b 61 41 a7 9a 07 41 f5 47 87 41
       31.667616 14.077144 8.475257 16.910135
0001e0 3c 6a 18 41 19 b1 0d 42 c5 ba 68 41 b1 eb f1 40
       9.525936 35.422947 14.545598 7.560021
0001f0 da 7f 7c 40 3e 74 e6 40 a1 b8 49 40 f5 96 31 41
       3.9453034 7.2016897 3.1518939 11.099355
000200 79 e8 ee 40 a2 89 a9 41 db 03 f7 41 f0 07 d7 40
       7.465878 21.192204 30.876883 6.719719
000210 e9 ad bc 41 28 0b 61 41 df 45 12 42 1a 56 0b 41
       23.584917 14.065224 36.568233 8.708521
000220 6a 08 b8 41 d8 90 8d 41 2d 3c 38 41 52 2d ad 41
       23.004108 17.695724 11.514691 21.64713
000230 f2 d2 26 42 bf dd 82 41 fa b8 18 42 cc 38 c8 41
       41.706 16.358274 38.18064 25.027733
000240 f2 25 19 42 9e 8f 94 41 7b 30 f4 41 fb 25 93 41
       38.287056 18.570126 30.523672 18.393545
000250 5c cc 15 41 a6 9e fc 40 bd be 8a 41 88 7e 03 41
       9.362392 7.8943663 17.343134 8.218391
000260 86 25 6a 40 a9 2c 95 40 02 40 a9 41 a9 6b 97 41
       3.6585402 4.6617017 21.156254 18.927568
000270 b7 af 09 41 a9 af 46 41 b9 3d 17 42 64 aa 72 42
       8.605399 12.417886 37.810276 60.666397
000280 17 10 52 41 b9 bf 90 41 a6 8a 72 41 3b 71 4d 41
       13.128928 18.093615 15.15885 12.840144
000290 98 e2 2c 42 99 f7 99 41 de b4 b1 40 4d b4 49 41
       43.221283 19.245897 5.5533285 12.606519
0002a0 4b 02 ac 41 f2 88 1f 42 c1 c5 e1 41 81 b8 07 41
       21.50112 39.883736 28.22156 8.482545
0002b0 ff 9c da 40 85 ae 9f 41 75 66 fc 41 00 4b 6c 41
       6.8316646 19.960215 31.550028 14.768311
0002c0 ff 99 2b 41 df 61 81 41 64 e2 ed 40 64 23 ad 40
       10.725097 16.172789 7.4338856 5.41057
0002d0 8f 3c b2 41 77 d0 78 41 8b a2 ea 41 ac d7 ac 41
       22.27957 15.550895 29.329367 21.605309
0002e0 ef e0 89 41 8a 36 5d 41 cb 79 d4 41 81 ef 55 41
       17.23483 13.825815 26.55947 13.370973
0002f0 a3 de 3e 40 dd 3b e0 40 4e 5b 1c 41 d5 fb 5e 41
       2.9823387 7.0073075 9.772291 13.936482
000300 45 98 c4 40 18 45 64 41 a3 0a bc 41 0a c1 a0 40
       6.1435876 14.266869 23.505194 5.0235643
000310 5e a8 18 41 65 fe 43 41 0e fb 00 42 aa a3 31 40
       9.541105 12.249608 32.24517 2.7756143
000320 00 fd 0e 40 e5 d1 5c 42 1e d1 02 41 1e b6 22 42
       2.234192 55.204975 8.176054 40.67785
000330 44 40 8a 41 a6 8d 66 41 fc 66 47 42 c4 a1 b0 41
       17.28138 14.409582 49.85057 22.078987
000340 ce e7 2e 41 d7 4b 15 42 98 13 9c 40 c8 a0 6b 41
       10.931593 37.324062 4.877392 14.726753
000350 dc e6 7f 40 18 76 c2 41 61 2e 11 41 7c c8 52 41
       3.9984655 24.307663 9.073823 13.173946
000360 30 22 41 41 62 60 dc 40 da a0 cb 40 50 d1 15 41
       12.070847 6.8867655 6.363385 9.363602
000370 46 6f 97 40 ca e4 83 41 9c 20 b1 40 a9 ab 22 41
       4.732333 16.486713 5.5352306 10.166909
000380 b5 2c c0 41 9a d4 4d 42 e3 98 37 41 b2 85 fb 41
       24.02183 51.45762 11.474826 31.44028
000390 ac b3 df 41 76 12 d8 41 eb 97 3f 41 66 ec c3 41
       27.96273 27.009014 11.974589 24.490429
0003a0 b6 79 14 41 12 e0 87 41 ab b7 10 42 93 fa 25 42
       9.279715 16.98441 36.179363 41.4947
0003b0 ef 59 f0 40 04 93 01 41 fa 9d 9d 40 f8 cd 90 41
       7.510978 8.0983925 4.9255342 18.10057
0003c0 49 89 5e 41 64 f8 a4 40 8f df 0e 42 5f 82 fa 41
       13.908517 5.155321 35.71832 31.313658
0003d0 43 24 04 41 fe 00 94 41 31 9a 2a 41 ec 3d 23 40
       8.258853 18.500484 10.662644 2.5506544
0003e0 1c f7 28 40 a6 5a 21 40 d9 a1 17 42 ab 2e c9 40
       2.6400824 2.5211577 37.908054 6.286947
0003f0 2b bc 38 41 9c 6d f6 41 a7 c8 20 42 00 28 94 41
       11.545939 30.80352 40.19595 18.519531

fc2.weight f4 [256, 256]
000000 e0 e6 1f 3d 31 7a 83 3c 4c 69 16 3d ad ab 71 3c
       0.03903854 0.016049476 0.036721513 0.014750403
000010 bb b9 55 3d e6 2e 0b bd 39 61 14 bd 5c b9 5c bd
       0.05217908 -0.033980273 -0.03622553 -0.05388771
000020 9b bb 3b bc c8 93 86 bc 20 5e 20 bc 63 91 6b 3d
       -0.011458303 -0.01642789 -0.009788066 0.0575117
000030 72 fc bb bc a8 2c 88 3d 96 01 fa bc b4 26 8d 3d
       -0.022947524 0.066491425 -0.030518334 0.06892148
000040 f0 e2 65 3c a1 f2 f3 bc 1d 17 ed bc ec 99 5e 3c
       0.014031157 -0.02977878 -0.028941685 0.0135865025
000050 c8 8e 7c 3d b0 75 27 bc f5 07 34 bd d8 ca b2 3d
       0.061659604 -0.01022093 -0.0439529 0.087300956
000060 22 f4 80 3d e3 12 3f bd d4 83 1d bd ac 4a 4f 3d
       0.06296565 -0.04664887 -0.0384558 0.050608322
000070 0d 6c 90 3d fc db 35 bd 08 e5 05 3c 5f 45 d4 3c
       0.07051859 -0.044399247 0.008172281 0.025911985
000080 6e 6c 15 3c e4 d9 c3 3c 6e e7 86 bc e1 38 90 3d
       0.00912009 0.02390761 -0.016467776 0.07042099
000090 e1 6c 0a bc 42 ad 97 bd a6 98 86 3c c4 b4 0d bc
       -0.00844881 -0.07406093 0.01643021 -0.008649055
0000a0 9f e9 a8 3d aa 65 0a bd 94 d8 2b bb a2 06 c7 3c
       0.08247685 -0.03378836 -0.002622162 0.024295155
0000b0 1a a3 52 3d 48 7d 82 bb e0 c3 05 3c 71 36 25 3c
       0.051425077 -0.00398222 0.008164376 0.010083781
0000c0 36 51 22 3d dc 8a 5e bc 26 4f 87 3c cc 04 9c 3c
       0.03962823 -0.013582911 0.016517233 0.019045256
0000d0 3e 9b 4f bc 27 e8 e6 bb df 58 37 bd f5 21 f3 bc
       -0.01267129 -0.0070467177 -0.04476249 -0.029679278
0000e0 c4 d4 d8 3c 4c a6 de bb 5e 65 9d 3c 1f 2f c1 3b
       0.026468642 -0.0067947265 0.019213375 0.00589551
0000f0 90 f5 02 3c 2d 81 cd bc 3d d7 af 3b 6d f2 5c 3c
       0.007993117 -0.02508601 0.0053662346 0.013485533
000100 87 7f 0f 3d 24 af 41 bc d9 93 33 3d ec 91 64 bd
       0.03503373 -0.011821542 0.04384217 -0.055803224
000110 9a c5 ee bc 7b bc 1e bc 23 60 68 bb 40 fc 74 bd
       -0.029146958 -0.009688492 -0.0035457693 -0.059810877
000120 eb 0b 8a bb 19 81 36 3d 7e 90 07 bd cd 13 fd bc
       -0.0042128465 0.04455671 -0.033096783 -0.03089323
000130 d9 48 1f 3d 6f 46 59 bd 07 b6 a6 bc b2 8c f7 3c
       0.038887832 -0.053045686 -0.02035047 0.030218456
000140 e9 fc b5 bc aa 0d 54 3d 7f 27 02 bd a9 f0 84 3d
       -0.022215324 0.051770844 -0.031775948 0.06491215
000150 92 9a 38 3d 26 1a 78 3d 29 59 68 3c 98 10 0a bb
       0.045069285 0.060571812 0.014181414 -0.002106702
000160 fd e2 24 bd 64 60 0e 3d 95 87 e5 ba 15 65 a7 bd
       -0.040255535 0.034759894 -0.001751172 -0.08173577
000170 79 86 f0 3c 96 d9 85 bc 5e b9 01 bd 52 a1 de bb
       0.029360997 -0.016339105 -0.03167092 -0.006794133
000180 ef 3f 13 3d b4 d8 15 bd 63 db d1 3c 85 af 18 bd
       0.035949644 -0.036583617 0.025617307 -0.037276763
000190 07 34 05 bb b2 f6 8f bd 44 93 75 bd 5d dc 57 3d
       -0.00203252 -0.07029475 -0.059954897 0.05270039
0001a0 75 8c 07 3d 1b 2b 22 bd e1 71 21 3d b1 d3 45 3d
       0.033092935 -0.03959189 0.039415244 0.048297588
0001b0 14 91 0a bd 9a af 48 3d e6 3a 43 bb 2a ae 3c 3c
       -0.033829764 0.04899559 -0.0029789745 0.011516133
0001c0 b3 09 db bc f2 99 0f 3d fd 06 2c 3d 6a 92 15 3d
       -0.026738023 0.035058923 0.041998852 0.036516584
0001d0 0d 4b 5c 3b 22 2c 89 b8 30 73 3e 3d bd 45 d2 bc
       0.003361407 -6.5408894e-05 0.04649657 -0.02566802
0001e0 40 96 32 bd e6 97 bc bc c3 9c 66 bc b0 1b 4c 3d
       -0.04360032 -0.02302165 -0.014075461 0.049831092
0001f0 a0 b5 18 3d 5a 4a b9 bc 2e be 11 3d ed 95 d1 3c
       0.037282586 -0.022618461 0.03558176 0.025584185
000200 50 95 3a 3c 2d f4 0c bd 8e f6 eb bc 22 a2 59 bd
       0.011388138 -0.03441255 -0.02880409 -0.053133138
000210 f3 ba d1 3c 1c cf a8 3c e0 2a 74 bc 0a ae 2a bd
       0.02560184 0.02060657 -0.0149028 -0.041669883
000220 f0 9e 0c 3d 6b e7 f4 3c 11 a8 53 3c c8 13 4d 3d
       0.034331262 0.029895505 0.012918488 0.050067693
000230 d1 d1 b7 bc 24 f0 d3 3a 87 bc 4b 3d ff 0d 5f 3c
       -0.022438915 0.001616959 0.04974034 0.013614177
000240 cd a8 33 bd ef ee 55 bd f4 c2 3c bd 4d de 77 3c
       -0.043862153 -0.052229818 -0.04608436 0.015128684
000250 1b c4 1e 3d 15 9e 27 bc 3e a0 4b 3c 04 e1 96 3d
       0.03876124 -0.010230561 0.012428341 0.07367137
000260 96 11 6f 3d 79 2a 9e 3d dc 13 ee bc a4 35 47 bd
       0.05836638 0.07722945 -0.029062204 -0.04863514
000270 7f 22 f8 bb a4 24 14 3d 72 94 5d 3c e2 a5 94 3d
       -0.0075724716 0.036167756 0.013524162 0.07258202
000280 e9 c6 9a bb fd 57 23 bc 56 0e 9f bd 00 26 c4 3b
       -0.004723419 -0.0099697085 -0.07766406 0.0059859753
000290 45 f8 19 3c e3 a0 72 bd 34 e0 0f bd ba 57 a0 3c
       0.009397571 -0.059235465 -0.035125926 0.019573081
0002a0 e7 83 8e bd 8f 98 52 bd b3 b9 02 3c 75 0c e4 bc
       -0.06958752 -0.051415022 0.007978844 -0.027837971
0002b0 db 63 59 3d 97 95 5f bb 31 cb 18 3d e8 d4 9a bc
       0.053073745 -0.0034116262 0.037303153 -0.01890035
0002c0 f8 24 6b bd 9c 76 09 3d 09 b0 94 3c 8d c6 a1 3c
       -0.057408303 0.03356038 0.018150346 0.019747997
0002d0 c6 14 4f 3d 56 af 6b 3d 86 c5 0f bd 0c ae 6b 3d
       0.05055692 0.05754026 -0.035100482 0.05753903
0002e0 c7 43 27 bd 8b bf 50 bd 09 fc 41 3d d8 8d 87 bd
       -0.040836122 -0.05096392 0.0473595 -0.066188514
0002f0 63 05 0b 3d ed a4 8d bd 4e 80 d3 3c 6f 5c 97 3c
       0.033940684 -0.06916223 0.025818016 0.018476693
000300 17 cc 92 bc 59 11 7e 3c b6 1c 83 3d fe aa 2b 3b
       -0.017919583 0.015507066 0.064019606 0.0026194449
000310 b2 8c ae bb c7 2a f5 bc ee f1 0d bd af bc d3 bc
       -0.005326831 -0.029927624 -0.03465455 -0.025846807
000320 13 b1 97 3d 99 b5 d3 bc 10 cd 00 3d 8b f9 2a 3c
       0.07406821 -0.025843428 0.031445563 0.010435472
000330 51 47 79 bd d2 d6 e8 3c 0c 96 ff bb a8 81 35 bc
       -0.06085903 0.028422747 -0.0077998694 -0.011078276
000340 2e ad 99 3c 39 16 2b bd 6e 58 59 3b 46 f1 26 bc
       0.018759336 -0.04176924 0.003316428 -0.01018936
000350 48 ee 37 3d 35 97 91 bb c7 5b 27 bb da 4a 1b bb
       0.044904977 -0.004443074 -0.0025536881 -0.0023695738
000360 e2 a1 1b bd 56 f4 03 3d 06 e8 1e 3d b0 ec 39 bd
       -0.03799618 0.03221544 0.038795494 -0.04539174
000370 e0 36 48 3b 1c 0e 7f bd 28 d5 dd 3c b5 62 38 bc
       0.0030550286 -0.062269315 0.02707918 -0.011254002
000380 65 f0 01 bc b2 41 0a bc fa e6 3c bd fd cc 49 3d
       -0.00793085 -0.008438515 -0.046118714 0.049267758
000390 58 4e e0 bc 79 ee 6a bc c8 0e d5 bc ac 9d a0 bd
       -0.027381107 -0.014339083 -0.026008025 -0.078425735
0003a0 ff e1 6b bc 84 16 04 bc 8a 93 58 3d 25 3d d5 bc
       -0.014397143 -0.008062009 0.05287508 -0.026030133
0003b0 22 8d 33 bc c1 2c 97 bd af e3 54 ba 19 21 9b bd
       -0.010958942 -0.07381583 -0.00081210857 -0.07574672
0003c0 07 bd ba 3d 17 51 50 3d c0 e4 43 bd a1 c4 82 bc
       0.09118085 0.050858583 -0.047825575 -0.0159629
0003d0 34 e6 e0 3c 16 65 38 bd d2 a7 48 3c fa 2f 5e bd
       0.02745352 -0.045018278 0.012247043 -0.054244973
0003e0 00 0b 19 bd 4f 72 a4 bd c9 4a d1 ba d0 b9 06 bd
       -0.037364006 -0.08029615 -0.0015967722 -0.03289205
0003f0 e3 17 49 3d f2 c7 e6 3c d4 80 0f bd 7d 97 50 bd
       0.049095046 0.028171513 -0.03503497 -0.05092572
