runs/2024070201/model.pth (torch, 425056 bytes, 20 tensors)

fc1.weight f4 [256, 11]
0.2235801 -0.05248148 -0.08184507 0.2756778 -0.030167406 0.12778582 -0.20854302 0.031070223
-0.2716147 -0.22240828 0.30246514 -0.14317639 -0.27693477 0.133845 -0.14774224 0.07058613
0.285885 -0.038437087 -0.2792097 0.30091432 -0.20510775 -0.2556504 0.26747024 -0.1322224
0.13634752 0.11630891 0.12307253 0.1110849 0.043509446 0.07153939 -0.0283409 0.04043646
0.18479875 0.18443033 0.2792972 0.26633278 -0.10185805 0.1952639 -0.0067161215 0.17843243
-0.15853293 0.273127 -0.21540114 0.113390595 0.018277735 -0.015428197 -0.24072611 -0.26152077
0.27618766 -0.040917523 0.02835982 0.0013857128 -0.19525397 0.07120629 0.20728514 0.24986212
0.14425407 0.21172889 -0.11470401 -0.17718749 0.1282859 -0.21051481 0.18304786 0.06376993
0.2662817 0.035515882 -0.052469496 -0.13998307 -0.027815446 -0.13150588 -0.17437328 -0.090159684
-0.116014466 -0.25017786 -0.24787824 0.17548634 -0.009520461 -0.099030934 -0.13781826 0.11986416
0.25242913 0.039917335 -0.060473807 0.22800738 0.11652882 -0.23174348 0.16134967 -0.19570051
0.2610403 0.052497204 0.25243327 0.22018528 0.10071789 0.15006702 0.043274026 0.091563545
0.275234 -0.04732985 0.20341893 0.21965449 -0.11270182 0.05504901 0.25189525 0.15554851
0.04911105 -0.28664356 -0.10269997 0.27911592 -0.29130176 -0.092000365 0.22907317 -0.13702768
0.120750844 -0.20390153 -0.13653922 -0.07383414 -0.23376879 -0.14783202 0.07526806 -0.26815692
-0.121507116 -0.09870787 -0.26390162 -0.12233716 -0.070586 0.27262744 -0.14598595 -0.19444805
0.2922827 0.08306061 0.13200675 0.061910745 -0.07992493 0.08318611 0.13748191 -0.16042618
0.19094945 -0.17285635 0.26785162 -0.25981414 0.06499211 0.028500685 0.18078873 -0.26397762
-0.0039531933 -0.14336234 0.22286837 0.02027987 0.060391225 -0.16071735 -0.2351099 0.23922051
-0.053329565 0.16757946 0.21921888 -0.1329464 0.26867568 0.16179495 -0.10294282 -0.093546614
0.033018492 -0.11014195 0.22583899 -0.006060112 -0.26230764 -0.2940201 -0.04416491 -0.10850973
0.046028074 0.18577588 -0.25410905 -0.18200292 -0.3029056 -0.12769413 -0.2346596 0.10740893
0.063824624 -0.22966231 -0.008934779 0.08380383 -0.1954593 -0.064746976 -0.29202253 -0.0069327797
0.0435279 0.2989296 0.011095659 0.21425065 -0.2763802 0.09780744 -0.07133842 -0.24803314
0.122105144 0.30495903 -0.08848879 0.038150318 0.20340036 0.010329719 -0.021170601 0.10434685
0.074192986 -0.08199 0.12230308 -0.16996871 -0.07348679 0.13113791 -0.25047058 0.18020833
-0.0036627885 -0.25375852 0.28558877 -0.23974098 -0.17434694 0.1263796 0.057927217 0.15456487
-0.23695573 -0.10677524 -0.24372707 0.2571375 0.13378961 -0.04450543 -0.016337283 0.28894845
-0.19295928 -0.09589671 0.12578583 -0.024145909 0.11864011 -0.059993494 0.14373107 -0.21882498
-0.056685664 0.16179116 0.11364346 -0.15213007 0.28894404 -0.10332725 -0.097778074 0.076443925
-0.1365231 -0.14721698 0.14340685 0.14794886 0.22393562 -0.211112 0.13263728 0.3037551
0.09555018 0.1986115 0.29326534 0.095040955 -0.18647456 -0.19311285 -0.2988979 0.12884146
00000000: 2ff2 643e d2f6 56bd 639e a7bd a425 8d3e
00000010: a321 f7bc 49da 023e 4d8c 55be fb86 fe3c
00000020: 1511 8bbe ffbe 63be b6dc 9a3e d59c 12be
00000030: 65ca 8dbe aa0e 093e be49 17be 768f 903d
00000040: 855f 923e 3570 1dbd 93f4 8ebe 7111 9a3e
00000050: c407 52be 9ce4 82be dcf1 883e 4f65 07be
00000060: af9e 0b3e 5e33 ee3d 730d fc3d 7b80 e33d
00000070: f636 323d 3e83 923d 2d2b e8bc b4a0 253d
00000080: e23b 3d3e 4edb 3c3e 0b00 8f3e c55c 883e
00000090: f49a d0bd 43f3 473e e912 dcbb feb6 363e
000000a0: 7556 22be 4dd7 8b3e 1e92 5cbe 5439 e83d
000000b0: 30bb 953c 8cc6 7cbc e880 76be 0de6 85be
000000c0: 7868 8d3e 2299 27bd da52 e83c cea0 b53a
000000d0: a8f0 47be 9ad4 913d 8e42 543e dbdb 7f3e
000000e0: 57b7 133e 75cf 583e f0e9 eabd a370 35be
000000f0: 615d 033e 3291 57be e670 3b3e cf99 823d
00000100: 1356 883e 1a79 113d 41ea 56bd b957 0fbe
00000110: 38dd e3bc 7aa9 06be e98e 32be a4a5 b8bd
00000120: fe98 edbd 5017 80be cbd3 7dbe b1b2 333e
00000130: b5fb 1bbc bbd0 cabd 3b20 0dbe 577b f53d
00000140: 643e 813e 5c80 233d 62b3 77bd c47a 693e
00000150: a9a6 ee3d 2a4e 6dbe d938 253e b765 48be
00000160: 13a7 853e 4f07 573d ef3e 813e 4078 613e
00000170: 2e45 ce3d 2bab 193e 1b40 313d ab85 bb3d
00000180: 79eb 8c3e f2dc 41bd 0d4d 503e 1bed 603e
00000190: 36d0 e6bd 127b 613d 6af8 803e 1c48 1f3e
000001a0: ab28 493d f2c2 92be 5d54 d2bd 48e8 8e3e
000001b0: 8125 95be b06a bcbd 2892 6a3e fc50 0cbe
000001c0: 384c f73d 90cb 50be f0d0 0bbe 5b36 97bd
000001d0: 1661 6fbe 4761 17be 2426 9a3d dd4b 89be
000001e0: b9d8 f8bd 5a27 cabd 1d1e 87be e88b fabd
000001f0: 658f 90bd d395 8b3e 577d 15be 641d 47be
00000200: 14a6 953e ae1b aa3d c72c 073e 1f96 7d3d
00000210: afaf a3bd 7b5d aa3d 0fc8 0c3e c346 24be
00000220: 4188 433e 4101 31be d923 893e 5c06 85be
00000230: 951a 853d 457a e93c ae20 393e 1328 87be
00000240: ca89 81bb 94cd 12be 9b37 643e f821 a63c
00000250: ca5c 773d 1793 24be a6c0 70be 39f6 743e
00000260: 1a70 5abd f399 2b3e ea7a 603e 1a23 08be
00000270: dc8f 893e 93ad 253e afd3 d2bd 5e95 bfbd
00000280: 663e 073d 1a92 e1bd 5642 673e e793 c6bb
00000290: 304d 86be cd89 96be 44e6 34bd 593a debd
000002a0: ef87 3c3d 083c 3e3e 951a 82be f95e 3abe
000002b0: 7116 9bbe 40c2 02be 9b4a 70be 37f9 db3d
000002c0: 7cb6 823d 992c 6bbe 2e63 12bc 58a1 ab3d
000002d0: 7c26 48be 109a 84bd fa83 95be 5f2c e3bb
000002e0: 504a 323d 4d0d 993e 91ca 353c 8664 5b3e
000002f0: b581 8dbe 444f c83d e119 92bd 66fc 7dbe
00000300: 4312 fa3d 9723 9c3e 9c39 b5bd 8243 1c3d
00000310: 2f48 503e fb3d 293c f86d adbc cdb3 d53d
00000320: 7ef2 973d 60ea a7bd 0a7a fa3d 470c 2ebe
00000330: 3e80 96bd 0449 063e ae3d 80be 8888 383e
00000340: 650b 70bb a3ec 81be b138 923e a97e 75be
00000350: 0188 32be a769 013e 1745 6d3d 4146 1e3e
00000360: 86a4 72be faac dabd 9793 79be 87a7 833e
00000370: 2500 093e 534b 36bd c4d5 85bc 0df1 933e
00000380: 1e97 45be 7f65 c4bd 00ce 003e a4cd c5bc
00000390: 96f9 f23d bdbb 75bd 3d2e 133e a813 60be
000003a0: 3a2f 68bd 95ac 253e e7bd e83d fcc7 1bbe
000003b0: 79f0 933e 3d9d d3bd df3f c8bd a28e 9c3d
000003c0: b6cc 0bbe 0cc0 16be 3fd9 123e e87f 173e
000003d0: 614f 653e be2d 58be 11d2 073e ca85 9b3e
000003e0: d0af c33d d060 4b3e e026 963e d5a4 c23d
000003f0: 30f3 3ebe 60bf 45be 2509 99be 04ef 033e

fc1.bias f4 [256]
-0.21938168 -0.21633205 -0.19831714 -0.23561478 -0.22304553 0.21986699 0.20415099 -0.20259854
-0.0959459 0.06771596 -0.012243495 -0.06401327 0.2922623 0.013770794 -0.044332728 -0.05585137
0.108629204 0.11305618 0.025254218 0.058894698 -0.18362105 -0.00978644 0.23881775 -0.11590561
-0.29263136 0.2391552 -0.25574425 -0.25936654 -0.18254092 0.01454112 0.09239193 0.07021662
-0.12218408 -0.16999729 -0.12996766 -0.11938657 0.21493883 0.10610025 0.26831126 0.08166208
0.029619835 0.1643308 -0.14084311 -0.21643277 0.05762902 0.26103938 -0.2552261 -0.07761658
-0.011803424 0.29463425 -0.261138 -0.19782563 0.18330075 0.08549478 0.18040647 0.06534396
0.22055942 -0.24195878 0.049068812 -0.1792132 -0.16896622 -0.084412545 -0.19897912 0.070744276
-0.027082743 0.014998559 -0.22258472 -0.14801913 -0.15362328 0.09219906 0.08552134 0.012814074
0.051989578 -0.11145535 0.28730616 -0.25484756 0.27281603 -0.18222396 -0.22732024 -0.1503262
0.23345098 -0.021022422 0.06970705 -0.1462408 -0.06506843 -0.16984823 0.04053966 -0.2112964
-0.11891398 -0.042644933 0.12721749 0.22623189 -0.15314911 -0.25962842 -0.14647558 -0.24114397
0.10593636 -0.098856285 -0.16911851 -0.29007554 -0.07903308 0.10564615 -0.034726836 0.29961133
0.122105196 0.032648318 -0.049011383 -0.21984471 0.29936516 0.15390454 -0.23187166 -0.1992052
-0.27084374 -0.00066515664 0.048367795 0.1474305 0.1662885 0.17910269 -0.27801824 0.18779014
0.049270485 -0.166633 0.17801979 0.16633949 0.1062569 -0.06377733 -0.16145478 -0.18411326
-0.12962551 -0.29191077 -0.2755242 -0.15068643 -0.21001168 0.26450065 -0.26724592 0.21887101
0.04214965 0.24938545 -0.13332312 0.20352007 0.019648856 0.1916367 0.1267273 -0.049406517
-0.119621426 0.2046361 -0.09970657 0.07586645 -0.049046915 0.19412333 0.038007203 0.17965053
0.21759239 -0.17708896 -0.12669891 0.23229542 0.17641906 0.09367319 -0.044452734 -0.09625665
-0.06276563 -0.028537294 0.08032224 -0.13189673 0.2700316 -0.2551978 0.27878588 0.29757822
0.17342275 -0.049438674 -0.23001108 -0.12582687 -0.023893012 0.13590947 -0.2357287 0.11049528
0.02542311 0.20752794 -0.06695391 -0.18133931 -0.10763763 -0.26675588 0.07777938 0.12776232
-0.06118106 0.029480087 0.1304548 0.24112122 -0.28135625 -0.29022652 0.12895404 0.13155231
-0.18936771 -0.17594744 -0.25948843 -0.1817216 -0.063450225 -0.26153278 0.102308646 0.026370753
-0.1914989 -0.06564337 -0.2523335 -0.21399546 0.04560342 -0.025815727 -0.072592296 0.021508805
0.06300838 0.2551871 0.23620848 -0.27433416 -0.083180435 0.017703662 0.2670052 -0.24894018
0.2521209 0.05787284 -0.09775497 0.17049903 -0.015542819 -0.2733222 -0.14049184 -0.038864955
-0.05678123 0.22363563 0.25848076 -0.0469589 -0.2904129 0.04663642 0.29850665 0.0042028325
0.19195005 0.1880144 0.12313746 -0.13270433 -0.29870856 0.20442119 0.22585501 -0.29394206
-0.003526405 0.021579186 -0.2609968 -0.21170565 0.22098011 -0.21123664 -0.13081038 0.0060692355
0.15892339 -0.15605742 -0.23110217 0.15072279 -0.18603764 0.012877716 0.13669066 -0.048438214
00000000: 97a5 60be 2686 5dbe a613 4bbe 0045 71be
00000010: 0c66 64be d024 613e f50c 513e fe75 4fbe
00000020: 497f c4bd aaae 8a3d f198 48bc 6419 83bd
00000030: 67a3 953e e59e 613c 3c96 35bd 68c4 64bd
00000040: fd78 de3d 008a e73d efe1 ce3c 913b 713d
00000050: 2807 3cbe 4e57 20bc a48c 743e ec5f edbd
00000060: c7d3 95be 1ae5 743e e9f0 82be b1cb 84be
00000070: 02ec 3abe e13d 6e3c fb37 bd3d bbcd 8f3d
00000080: a63b fabd c513 2ebe 3e16 05be f280 f4bd
00000090: ed18 5c3e 164b d93d 1860 893e 733e a73d
000000a0: 4ca5 f23c 5546 283e 2d39 10be 8da0 5dbe
000000b0: 680c 6c3d f4a6 853e ffac 82be 71f5 9ebd
000000c0: 2663 41bc 4dda 963e e1b3 85be cd92 4abe
000000d0: 31b3 3b3e e317 af3d 79bc 383e 0ed3 853d
000000e0: 54da 613e 0bc4 77be 61fc 483d aa83 37be
000000f0: 7b05 2dbe 7ce0 acbd 2fc1 4bbe 60e2 903d
00000100: a1dc ddbc 84bc 753c 40ed 63be 5492 17be
00000110: 6c4f 1dbe dcd2 bc3d d025 af3d 1ff2 513c
00000120: 06f3 543d b442 e4bd cb19 933e 617b 82be
00000130: 8bae 8b3e eb98 3abe a3c6 68be 1def 19be
00000140: c60d 6f3e 3737 acbc 92c2 8e3d 26c0 15be
00000150: 9942 85bd b2ec 2dbe ea0c 263d 155e 58be
00000160: 2c89 f3bd 74ac 2ebd 4d45 023e 55a9 673e
00000170: 1fd3 1cbe 04ee 84be b2fd 15be 72ee 76be
00000180: 2af5 d83d 2a75 cabd 672d 2dbe c884 94be
00000190: 18dc a1bd 025d d83d ba3d 0ebd a866 993e
000001a0: 4a12 fa3d 3eba 053d 29c0 48bd f91e 61be
000001b0: 6446 993e 2799 1d3e c46f 6dbe 73fc 4bbe
000001c0: 08ac 8abe e85d 2eba 4f1d 463d 05f8 163e
000001d0: 8847 2a3e b266 373e 6858 8ebe 0f4c 403e
000001e0: d9cf 493d d7a1 2abe d24a 363e e654 2a3e
000001f0: 389d d93d b09d 82bd 6754 25be 3088 3cbe
00000200: 8dbc 04be 5475 95be 8211 8dbe 8b4d 1abe
00000210: 4d0d 57be a16c 873e 75d4 88be b91f 603e
00000220: 1da5 2c3d e65e 7f3e db85 08be 9167 503e
00000230: a3f6 a03c 693c 443e cdc4 013e 7d5e 4abd
00000240: 14fc f4bd 208c 513e f532 ccbd df5f 9b3d
00000250: 6be5 48bd 44c8 463e 71ad 1b3d 4ff6 373e
00000260: 8ad0 5e3e cf56 35be 5cbd 01be dade 6d3e
00000270: 33a7 343e bbd7 bf3d 1214 36bd 3522 c5bd
00000280: 448b 80bd 0bc7 e9bc fd7f a43d f00f 07be
00000290: 9541 8a3e 49a9 82be 06bd 8e3e 2c5c 983e
000002a0: bc95 313e 3580 4abd 0688 6bbe c2d8 00be
000002b0: 47bb c3bc da2b 0b3e dd62 71be 594b e23d
000002c0: 2044 d03c 3482 543e 221f 89bd 03b1 39be
000002d0: 1e71 dcbd 3a94 88be cc4a 9f3d 20d4 023e
000002e0: fe98 7abd 3980 f13c f195 053e 7be8 763e
000002f0: ed0d 90be 9298 94be 870c 043e a6b5 063e
00000300: 9ce9 41be 912b 34be abdb 84be 3a15 3abe
00000310: 31f2 81bd a0e7 85be 3287 d13d 7a07 d83c
00000320: 4a18 44be 0870 86bd db31 81be a021 5bbe
00000330: a7ca 3a3d 817b d3bc 45ab 94bd 3c33 b03c
00000340: 8a0a 813d e2a7 823e a3e0 713e 8775 8cbe
00000350: 815a aabd 4507 913c e8b4 883e 2dea 7ebe
00000360: fe15 813e 120c 6d3d c233 c8bd 4c97 2e3e
00000370: 4fa7 7ebc e3f0 8bbe 18dd 0fbe dc30 1fbd
00000380: 6f93 68bd bd00 653e 9757 843e fa57 40bd
00000390: 00b1 94be d505 3f3d ddd5 983e eab7 893b
000003a0: 8e8e 443e d986 403e 7e2f fc3d a5e3 07be
000003b0: 54f0 98be ca53 513e 8946 673e 937f 96be
000003c0: 421b 67bb d5c6 b03c 5fa1 85be 5ec9 58be
000003d0: 9c48 623e 6b4e 58be 28f3 05be 70e0 c63b
000003e0: d0bc 223e 84cd 1fbe 0ca6 6cbe 1357 1a3e
000003f0: a780 3ebe 0efd 523c a3f8 0b3e 2667 46bd

bn1.weight f4 [256]
1.0054479 1.0030656 0.99085945 0.9982561 1.0051235 1.0107732 0.995197 1.0155379
0.9948496 1.0004529 1.0100042 0.9980818 0.9984252 1.0111834 1.0037246 1.006919
1.0165727 1.0108762 1.0050737 1.0187559 1.007608 1.0103874 1.0097997 1.0248837
1.0135349 0.99655414 0.9980049 1.002351 0.9898395 0.9928667 1.0146396 1.0277028
1.0273788 1.0335072 0.9875497 1.0171976 0.9874555 0.9940365 0.996482 1.024816
1.0106245 0.996929 1.0002738 0.9938697 1.0024431 0.9970121 1.0032859 0.992797
1.0118911 0.99461365 0.991453 0.9970668 0.9978136 0.99505895 0.996528 0.995362
1.0070264 1.0099136 1.0078257 1.0083449 1.010732 0.9900425 0.99481064 1.0065677
0.9930267 1.0026118 1.0002414 1.0036519 0.99795526 1.0148537 1.0016129 0.99845207
1.0180262 1.0067753 1.019933 1.0096556 0.99069864 1.001982 1.0064116 1.0184276
1.0012512 0.9927208 1.0144972 0.9905983 1.0035907 0.98418283 1.0020279 1.0186626
0.979609 1.0112412 0.9834496 0.9875612 0.99243397 1.01146 0.9993667 0.9881773
0.99336636 1.0254841 1.0104727 0.9892942 1.0312179 1.0097008 0.99234515 0.99708784
1.0009209 1.000959 0.99297416 1.0014333 0.9977329 0.99938905 0.9914697 0.9968425
1.0093367 1.0139408 1.0055811 0.99270684 0.9958765 1.0059394 1.0117726 0.978842
1.0063001 0.9773493 0.99271935 0.98310304 0.99402505 1.0043752 0.9881542 0.99904156
1.0153857 1.0046849 1.0123689 1.0067956 1.0034839 1.0294112 1.0142591 0.99579376
1.0052437 0.9813735 1.0022979 1.0258284 0.99899215 0.98876935 0.99576956 0.9912313
1.0101337 1.0198745 0.9988886 1.0316453 1.0226593 1.0046396 1.0013534 1.0226647
1.0107746 1.0354519 1.0160518 0.9974121 1.0050255 1.0225589 1.0066303 0.9920706
0.9883065 1.0088767 1.0019222 1.0003283 0.9996158 1.0178919 0.99761146 0.9907173
1.0232463 0.99028045 1.0166658 1.0052484 1.0328791 1.0006405 1.0135866 1.0222539
1.0091308 0.99698186 1.013123 1.0115675 0.99264276 1.0011008 0.9940652 1.0106802
1.0063396 1.0105277 1.032626 1.0277188 0.992779 1.0008126 1.0078105 0.9765242
1.0226855 1.0025188 1.0285159 0.99342424 1.009881 0.99974245 1.024325 0.98609567
0.9978087 0.9888496 1.0012281 0.9966842 1.0029072 1.0119905 1.001691 0.9995568
1.0013903 1.0170588 0.99836046 1.0160713 0.9976445 0.98669034 0.98612976 1.0091186
0.9895216 0.9951508 1.0120986 0.9997753 0.98803115 0.99836695 1.0128075 1.0010551
0.9950257 0.9925188 0.9950497 1.0025661 1.0010937 1.0034406 0.98432344 1.0212729
1.0058888 0.98599964 1.0044973 0.99912995 1.0035028 1.0301591 1.0004292 1.0187126
0.9919359 0.99469733 1.0015862 0.9952098 1.0084457 1.0169005 1.0106193 1.0234637
1.0024695 1.0159926 1.0100064 1.0291274 0.9886378 1.0014763 1.0075501 1.0074527
00000000: 84b2 803f 7464 803f f7a8 7d3f b68d 7f3f
00000010: e3a7 803f 0461 813f 3bc5 7e3f 25fd 813f
00000020: 77ae 7e3f d70e 803f d147 813f 4a82 7f3f
00000030: cb98 7f3f 756e 813f 0c7a 803f b9e2 803f
00000040: 0e1f 823f 6464 813f 41a6 803f 9866 823f
00000050: 4df9 803f 6054 813f 1e41 813f 642f 833f
00000060: 83bb 813f 2c1e 7f3f 407d 7f3f 0a4d 803f
00000070: 1f66 7d3f 832c 7e3f b6df 813f c48b 833f
00000080: 2681 833f f749 843f 0fd0 7c3f 8833 823f
00000090: e2c9 7c3f 2d79 7e3f 7219 7f3f 2c2d 833f
000000a0: 255c 813f bd36 7f3f f908 803f 3f6e 7e3f
000000b0: 0e50 803f 2f3c 7f3f ac6b 803f f227 7e3f
000000c0: a685 813f 009f 7e3f ddcf 7d3f c53f 7f3f
000000d0: b670 7f3f 2fbc 7e3f 761c 7f3f 0bd0 7e3f
000000e0: 3ee6 803f d944 813f 6f00 813f 7211 813f
000000f0: ab5f 813f 6d73 7d3f e9ab 7e3f 36d7 803f
00000100: ff36 7e3f 9555 803f e907 803f aa77 803f
00000110: ff79 7f3f bae6 813f da34 803f 8e9a 7f3f
00000120: af4e 823f 03de 803f 2a8d 823f 653c 813f
00000130: 6d9e 7d3f f240 803f 18d2 803f d65b 823f
00000140: 0029 803f f322 7e3f 0bdb 813f da97 7d3f
00000150: a975 803f 68f3 7b3f 7342 803f 8963 823f
00000160: a8c7 7a3f 5a70 813f 5ac3 7b3f d0d0 7c3f
00000170: 2710 7e3f 8577 813f 7fd6 7f3f 30f9 7c3f
00000180: 424d 7e3f 1043 833f 2b57 813f 6242 7d3f
00000190: f3fe 833f e03d 813f 550a 7e3f 2641 7f3f
000001a0: 2d1e 803f 6d1f 803f 8e33 7e3f f72e 803f
000001b0: 6c6b 7f3f f6d7 7f3f f5d0 7d3f 1231 7f3f
000001c0: f231 813f d0c8 813f e2b6 803f 0922 7e3f
000001d0: c3f1 7e3f 9fc2 803f c481 813f 6495 7a3f
000001e0: 71ce 803f 9033 7a3f db22 7e3f a4ac 7b3f
000001f0: 6d78 7e3f 5e8f 803f acf7 7c3f 30c1 7f3f
00000200: 29f8 813f 8499 803f 4e95 813f aede 803f
00000210: 2972 803f bfc3 833f 3ed3 813f 57ec 7e3f
00000220: d3ab 803f 4b3b 7b3f 4c4b 803f 584e 833f
00000230: f3bd 7f3f fd1f 7d3f c1ea 7e3f 56c1 7d3f
00000240: 104c 813f 3f8b 823f 2ab7 7f3f f40c 843f
00000250: 80e6 823f 0898 803f 592c 803f ade6 823f
00000260: 1061 813f b089 843f fc0d 823f 6656 7f3f
00000270: ada4 803f 36e3 823f 43d9 803f 57f8 7d3f
00000280: a801 7d3f df22 813f fd3e 803f c20a 803f
00000290: d2e6 7f3f 484a 823f 7763 7f3f a69f 7d3f
000002a0: bcf9 823f 0583 7d3f 1b22 823f fbab 803f
000002b0: 6235 843f fd14 803f 35bd 813f 37d9 823f
000002c0: 332b 813f 343a 7f3f 04ae 813f 0b7b 813f
000002d0: d61d 7e3f 1224 803f 0f7b 7e3f f85d 813f
000002e0: bccf 803f f958 813f 172d 843f 4a8c 833f
000002f0: c426 7e3f a11a 803f efff 803f 7dfd 793f
00000300: 5ce7 823f 8952 803f 69a6 833f 0d51 7e3f
00000310: c843 813f 1fef 7f3f 151d 833f c470 7c3f
00000320: 6470 7f3f 3f25 7d3f 3e28 803f b226 7f3f
00000330: 435f 803f e888 813f 6937 803f f4e2 7f3f
00000340: 8f2d 803f fc2e 823f 8d94 7f3f a00e 823f
00000350: a165 7f3f bd97 7c3f 0073 7c3f cc2a 813f
00000360: 4a51 7d3f 34c2 7e3f 728c 813f 46f1 7f3f
00000370: 9cef 7c3f fa94 7f3f ada3 813f 9322 803f
00000380: 01ba 7e3f b615 7e3f 94bb 7e3f 1654 803f
00000390: d723 803f be70 803f 9ffc 7b3f 12b9 823f
000003a0: f7c0 803f 796a 7c3f 5e93 803f fbc6 7f3f
000003b0: c872 803f 41dc 833f 100e 803f 2d65 823f
000003c0: 83ef 7d3f 7ca4 7e3f fa33 803f 12c6 7e3f
000003d0: c014 813f cc29 823f f95b 813f dc00 833f
000003e0: ec50 803f 0c0c 823f e447 813f 72ba 833f
000003f0: 5e17 7d3f 6030 803f 67f7 803f 36f4 803f

bn1.bias f4 [256]
0.004798045 0.0096650375 0.011885691 0.012193053 0.003399147 0.014008924 -0.00579663 0.035762075
0.0031285442 -0.0018941105 0.0031070618 -0.0031733005 0.010400738 0.0031847067 -0.0042145373 -0.0076205875
0.020549634 0.017530194 0.01143944 0.0040557887 -0.0012276777 0.00658336 0.025802756 0.020742808
0.004304917 -0.00035871856 0.027725836 0.019673029 -0.011012486 -0.011549973 0.030104749 0.032652937
0.015138347 0.024453219 -0.003297091 0.012158823 -0.017880501 -0.019292783 -0.007938538 -0.002476136
0.016913332 -0.020858465 -0.00049080997 -0.0046312325 0.008610526 -0.024320401 0.014553387 0.0012734395
0.0029974678 0.004643612 0.007605787 -0.011298279 -0.017968083 -0.010769244 0.015474517 -0.007214616
0.014724941 0.009021183 0.0120923305 0.014423019 0.013301264 -0.021452952 -0.015341376 0.0053762174
-0.008563241 0.008335398 0.0025101686 0.007197777 -9.4208444e-05 0.015703011 0.023422176 0.001126172
0.011802766 -0.0010759317 0.014355316 0.0047537875 -0.015170395 -0.00169999 0.0033753538 0.0074604186
0.012736089 -0.009202889 0.011440481 0.003568837 0.011868618 -0.007595569 0.0039387527 0.01385784
-0.01738505 0.012240418 -0.012197372 -0.016328463 2.4957644e-06 -0.00028429698 -0.0038136179 -0.00961095
-0.0065954337 0.02370227 0.007976472 -0.0012682495 0.0014279033 0.012223267 -0.009739056 -0.0040098713
-0.0030159461 -0.008572728 -0.00700449 0.0072859097 -0.0040365467 0.004010571 -0.004870313 -0.010006522
-0.006150325 -0.004372401 0.00457039 -0.0075179767 -0.003988648 0.0035638371 0.011734427 -0.015640182
0.00064877066 -0.013612375 -0.013675679 -0.026645219 -0.0024701029 0.016282754 -0.006550885 0.0007673353
0.02324513 -0.0020457134 -0.0018269301 -0.014661233 0.015600806 0.011056457 0.019037284 -0.005753369
0.0028885775 -0.020671636 -0.0038286292 0.019673387 0.0032906716 -0.013326632 -0.004069581 -0.0042910953
0.0114335995 0.012214214 -0.008027741 0.013448194 0.028653558 0.0038108474 0.027147315 0.0012713462
-0.00017548201 0.034053635 0.019415546 0.0047991383 -0.0062487684 0.012231044 0.0021685527 0.0014988802
-0.005950976 0.0068040583 0.0064966045 -0.008195389 0.0021001745 0.031277332 0.008063881 -0.0280308
0.05268249 0.008427987 0.031542927 0.0129674645 0.019966176 0.005399237 -0.006663923 0.01410931
0.00025121492 0.0046294522 -0.00059187657 0.010278684 0.0069556083 -0.0067022624 -0.008027721 0.016011195
0.013090376 0.004462419 -0.009594555 0.016372846 -0.0017948786 -0.0066171363 -0.008469076 0.0022405745
0.025246684 -0.00012192225 0.01784691 -0.013540961 0.017388692 0.020387156 0.025872888 -0.00017268465
-0.009020207 0.0022827927 -0.009799113 0.00014015846 0.0050245407 0.019309195 0.0062635187 -0.0007657805
0.0020551053 0.015470639 -0.005732144 -0.0004607126 0.008597209 -0.014274484 -0.021915046 -0.0004507054
-0.034757473 0.029882198 -0.0019602291 0.00012259782 0.005862803 0.018095253 0.0065053874 9.4294e-05
-0.006753356 -0.006436283 -0.0017095772 -0.014417633 -0.00011373124 0.0070085884 -0.015390188 0.013115366
0.00060100167 -0.01596925 -0.0035485423 -0.0075616934 0.0013500769 0.027601464 -0.015568598 0.019567052
-0.026682187 1.19453725e-05 0.015993126 -0.01919776 0.017047832 0.0050833286 0.023125973 0.017123533
0.0014726003 0.013896848 -0.0069470475 0.015723499 -7.59779e-05 0.008489399 0.006912194 0.015394439
00000000: eb38 9d3b 1b5a 1e3c 34bc 423c 5fc5 473c
00000010: 39c4 5e3b b085 653c a8f1 bdbb 417b 123d
00000020: 4308 4d3b cd43 f8ba d99f 4b3b 26f7 4fbb
00000030: db67 2a3c 83b6 503b 1a1a 8abb 1fb6 f9bb
00000040: b557 a83c 7b9b 8f3c 7d6c 3b3c 6ce6 843b
00000050: 07ea a0ba 3ab9 d73b 4d60 d33c d2ec a93c
00000060: 4310 8d3b 6412 bcb9 4b21 e33c 5529 a13c
00000070: b76d 34bc 193c 3dbc 3c9e f63c 16bf 053d
00000080: d406 783c 1e52 c83c 0214 58bb cd35 473c
00000090: 217a 92bc e60b 9ebc a410 02bc ab46 22bb
000000a0: d48d 8a3c 5fdf aabc b3a9 00ba 98c1 97bb
000000b0: 2a13 0d3c 943b c7bc 5471 6e3c 8ae9 a63a
000000c0: 2a71 443b 7129 983b f739 f93b 6b1c 39bc
000000d0: cd31 93bc 7c71 30bc d488 7d3c 9668 ecbb
000000e0: e140 713c 95cd 133c e91e 463c 874e 6c3c
000000f0: 8bed 593c 1abe afbc 655a 7bbc fb2a b03b
00000100: d64c 0cbc 3191 083c a481 243b 54db eb3b
00000110: c691 c5b8 9aa3 803c dddf bf3c 109c 933a
00000120: 6360 413c 4706 8dba 8f32 6b3c a9c5 9b3b
00000130: 408d 78bc 33d2 deba 0a35 5d3b 8776 f43b
00000140: 07ab 503c b7c7 16bc db70 3b3c 26e3 693b
00000150: 9874 423c 40e4 f8bb a710 813b fe0b 633c
00000160: 186b 8ebc 098c 483c 7cd7 47bc 45c3 85bc
00000170: e87c 2736 b20d 95b9 e4ed 79bb 3f77 1dbc
00000180: 821e d8bb 432b c23c c0af 023c 643b a6ba
00000190: 7c28 bb3a 1944 483c 9090 1fbc 3d65 83bb
000001a0: 2ea7 45bb a174 0cbc ec85 e5bb a4be ee3b
000001b0: 0245 84bb 1c6b 833b 2697 9fbb 65f2 23bc
000001c0: aa88 c9bb 5c46 8fbb 36c3 953b 5c59 f6bb
000001d0: 34b3 82bb 448f 693b c141 403c d71f 80bc
000001e0: 4312 2a3a 7006 5fbc f50f 60bc 1347 dabc
000001f0: 73e1 21bb 6963 853c cea8 d6bb 0027 493a
00000200: 926c be3c 6011 06bb 9a75 efba ab35 70bc
00000210: 869a 7f3c 2426 353c 14f4 9b3c c286 bcbb
00000220: 4a4e 3d3b 9057 a9bc bde9 7abb 152a a13c
00000230: 4fa8 573b f257 5abc 1f5a 85bb 519c 8cbb
00000240: fe53 3b3c 201e 483c c986 03bc d055 5c3c
00000250: deba ea3c 69bf 793b 0c64 de3c 4da3 a63a
00000260: 9801 38b9 d37b 0b3d 5a0d 9f3c 1742 9d3b
00000270: 78c2 ccbb b764 483c 471e 0e3b 1376 c43a
00000280: 6800 c3bb 94f4 de3b 78e1 d43b f445 06bc
00000290: 15a3 093b a91c 003d 5e1e 043c d9a0 e5bc
000002a0: 98c9 573d 8a15 0a3c 2833 013d 7d75 543c
000002b0: 1b90 a33c 15ec b03b 0a5d dabb bc2a 673c
000002c0: 7fb5 8339 a9b2 973b 2a28 1bba ed67 283c
000002d0: dfeb e33b a79e dbbb b486 03bc e929 833c
000002e0: 0479 563c 7c39 923b 7b32 1dbc 5920 863c
000002f0: 2242 ebba 90d4 d8bb e1c1 0abc 9ad6 123b
00000300: 22d2 ce3c 82b0 ffb8 af33 923c e8da 5dbc
00000310: bb72 8e3c f702 a73c 61f3 d33c af12 35b9
00000320: 7ec9 13bc e89a 153b 758c 20bc 80f7 1239
00000330: e7a4 a43b 512e 9e3c 343e cd3b a9be 48ba
00000340: f2ae 063b 9078 7d3c b6d4 bbbb cc8b f1b9
00000350: 4fdb 0c3c 86df 69bc 2f87 b3bc a84c ecb9
00000360: da5d 0ebd 83cb f43c 3077 00bb 9a8d 0039
00000370: c21c c03b 7f3c 943c 252b d53b b5bf c538
00000380: 424b ddbb 74e7 d2bb e413 e0ba f037 6cbc
00000390: ff82 eeb8 4da8 e53b 2127 7cbc d5e1 563c
000003a0: 8a8c 1d3a f2d1 82bc a98e 68bb 15c8 f7bb
000003b0: 10f5 b03a 771c e23c 6f13 7fbc 154b a03c
000003c0: 9a94 dabc fc68 4837 0404 833c 9f44 9dbc
000003d0: e5a7 8b3c 0d92 a63b ae72 bd3c a746 8c3c
000003e0: 4404 c13a 9baf 633c 0fa4 e3bb 91ce 803c
000003f0: 5356 9fb8 1f17 0b3c b07f e23b f538 7c3c

bn1.running_mean f4 [256]
7.8559446 -1.855603 12.5857115 13.817671 -5.5971055 9.934479 -11.369336 2.1097157
20.381407 10.159096 -4.327995 -7.14528 -0.22036721 -2.5244908 6.3458757 -11.926493
-4.6829605 0.89052236 -0.63632625 -5.7174783 2.6362123 2.1237664 14.986748 -5.195494
2.1556864 11.96299 -10.048712 -5.23334 -6.971697 -5.0881414 8.127264 -6.5590663
1.9547231 -17.611786 3.3365998 11.292471 7.7132087 -13.70684 -10.480986 14.918877
-8.164039 13.880549 -2.66217 4.016275 -16.815714 -5.1975803 -8.124491 1.2620335
-8.55658 8.183072 8.356584 4.3762283 -7.3935966 -9.694387 1.1853501 6.229737
-1.4433699 -3.888264 -1.1621711 0.580515 -3.4748452 -0.1296442 -15.063789 -3.7232761
7.526379 -10.226081 -4.932307 1.1817352 7.281465 1.6919672 13.473109 1.9092577
-7.679125 6.4401016 5.78284 -5.6470194 15.358244 3.20872 8.5462265 -4.854317
5.9484406 -0.526975 -8.719052 8.654166 5.4299927 -3.5547168 -8.819857 9.263023
3.0613463 0.7301767 -6.937082 -4.0520844 6.3018923 5.007386 16.415995 -2.8281214
2.5583916 6.653035 -14.981028 15.647214 0.8170863 10.855999 7.6325502 3.1302927
-9.017334 -0.6431261 1.1340028 -6.971714 -1.6631019 -7.074252 6.2585263 10.166096
2.190955 4.513708 1.1079895 5.25213 3.9474165 -1.8729953 -12.833311 -2.6353686
-0.6980663 5.8265057 -7.6910305 -1.1750375 5.165911 -0.615507 -3.2214427 2.0354261
14.392527 -11.568681 9.363075 -4.341245 -5.127637 -10.065602 0.55698717 -0.30600208
1.7901852 4.3210845 -8.836218 -9.658355 -1.6445533 12.4267 -6.0814824 -3.886141
-7.326053 -6.337616 -3.0841193 3.5130408 2.641116 10.906366 9.671912 1.105367
-1.7207568 -11.6446 9.25594 -4.582797 3.4965115 0.6408345 7.747776 6.510986
-1.8736534 6.0905294 -11.404734 2.1087856 -0.3630133 11.07597 7.1402054 2.9318936
5.937845 2.3416464 3.26147 6.3521643 -15.182043 2.0661852 -20.846127 1.1902152
-12.043854 4.8830833 -4.094722 -17.91132 1.1546624 -3.8599393 2.7823129 -12.616853
5.565843 -7.283878 -9.635934 0.07390594 4.4185495 5.412416 -3.0317988 5.6163425
-13.765232 -12.375716 3.7489028 -7.9175925 10.167291 2.8545227 10.484365 -11.913587
-0.9101494 10.574619 2.977725 5.255579 -5.1648717 -0.5408209 -2.6189394 6.9514537
5.640701 -13.08803 1.221816 -13.335235 9.772128 -0.7038518 -0.67781097 -7.3349514
0.4073962 11.868564 -8.370273 -2.5125363 0.88367856 -5.190337 -12.747079 -0.9989617
-1.2687246 1.2527215 2.6615632 -3.3204446 -7.1745853 -13.541835 8.945896 -2.661142
6.050354 7.4509945 3.0251122 4.445959 -12.034553 -7.3355384 6.5041704 -14.33803
3.5633075 -5.8144255 -1.3441107 -7.514975 7.793118 9.421916 -7.6812563 -12.757147
14.52607 -10.282065 -5.140315 6.3004026 -9.8448 19.027567 1.965491 5.441799
00000000: e663 fb40 6684 edbf 135f 4941 2e15 5d41
00000010: 7d1b b3c0 a0f3 1e41 cde8 35c1 9505 0740
00000020: 1f0d a341 a88b 2241 ef7e 8ac0 22a6 e4c0
00000030: f1a7 61be 4291 21c0 6a11 cb40 ead2 3ec1
00000040: d0da 95c0 46f9 633f 47e6 22bf 95f5 b6c0
00000050: b4b7 2840 caeb 0740 b8c9 6f41 7d41 a6c0
00000060: c4f6 0940 6868 3f41 86c7 20c1 8577 a7c0
00000070: 2418 dfc0 0ed2 a2c0 4609 0241 dfe3 d1c0
00000080: 5e34 fa3f f0e4 8cc1 da8a 5540 f6ad 3441
00000090: 9bd2 f640 374f 5bc1 1eb2 27c1 b8b3 6e41
000000a0: e79f 02c1 bb16 5e41 fe60 2ac0 5385 8040
000000b0: 9586 86c1 9452 a6c0 eafd 01c1 508a a13f
000000c0: c0e7 08c1 dded 0241 91b4 0541 100a 8c40
000000d0: 5898 ecc0 361c 1bc1 8db9 973f 015a c740
000000e0: 58c0 b8bf 51d9 78c0 06c2 94bf a29c 143f
000000f0: dd63 5ec0 73c1 04be 4805 71c1 284a 6ec0
00000100: 19d8 f040 079e 23c1 75d5 9dc0 1943 973f
00000110: c301 e940 6292 d83f db91 5741 8e62 f43f
00000120: 64bb f5c0 5015 ce40 060d b940 62b4 b4c0
00000130: 5ebb 7541 ab5b 4d40 58bd 0841 9156 9bc0
00000140: a059 be40 d5e7 06bf 3d81 0bc1 7777 0a41
00000150: 80c2 ad40 7b80 63c0 221e 0dc1 5835 1441
00000160: 19ed 4340 dcec 3a3f 93fc ddc0 adaa 81c0
00000170: 1aa9 c940 823c a040 f553 8341 f1ff 34c0
00000180: b0bc 2340 aae5 d440 4ab2 6fc1 fd5a 7a41
00000190: 912c 513f 2cb2 2d41 da3d f440 b756 4840
000001a0: 0047 10c1 e9a3 24bf 0127 913f 4818 dfc0
000001b0: 86e0 d4bf 4660 e2c0 d945 c840 54a8 2241
000001c0: 9b38 0c40 4c70 9040 9ad2 8d3f 7311 a840
000001d0: 79a2 7c40 4fbe efbf 3e55 4dc1 e1a9 28c0
000001e0: 79b4 32bf bc72 ba40 ec1c f6c0 a167 96bf
000001f0: 254f a540 de91 1dbf 1e2c 4ec0 6c44 0240
00000200: ca47 6641 5119 39c1 28cf 1541 7beb 8ac0
00000210: 9a15 a4c0 b50c 21c1 b696 0e3f 4eac 9cbe
00000220: ca24 e53f 5346 8a40 2661 0dc1 9f88 1ac1
00000230: b980 d2bf c3d3 4641 819b c2c0 89b6 78c0
00000240: 076f eac0 c0cd cac0 3662 45c0 a9d5 6040
00000250: 0b08 2940 7a80 2e41 27c0 1a41 aa7c 8d3f
00000260: c241 dcbf 4850 3ac1 5518 1441 46a6 92c0
00000270: d8c6 5f40 bb0d 243f c8ed f740 ff59 d040
00000280: e0d3 efbf 9ee5 c240 ca79 36c1 58f6 0640
00000290: e1dc b9be 2c37 3141 907c e440 25a4 3b40
000002a0: d402 be40 89dd 1540 edbb 5040 ee44 cb40
000002b0: a6e9 72c1 613c 0440 dec4 a6c1 f958 983f
000002c0: a0b3 40c1 3842 9c40 f607 83c0 624a 8fc1
000002d0: facb 933f 3f09 77c0 6a11 3240 a1de 49c1
000002e0: 631b b240 8715 e9c0 c92c 1ac1 ff5b 973d
000002f0: c264 8d40 8332 ad40 fe08 42c0 14b9 b340
00000300: 643e 5cc1 ef02 46c1 06ee 6f40 eb5c fdc0
00000310: 39ad 2241 80b0 3640 f6bf 2741 0d9e 3ec1
00000320: 8dff 68bf a431 2941 0c93 3e40 b42d a840
00000330: a146 a5c0 3d73 0abf b49c 27c0 4f72 de40
00000340: 9f80 b440 9268 51c1 7764 9c3f 1f5d 55c1
00000350: a35a 1c41 a22f 34bf 0585 2dbf ecb7 eac0
00000360: 3c96 d03e a3e5 3d41 a3ec 05c1 65cd 20c0
00000370: c238 623f 3e17 a6c0 09f4 4bc1 f4bb 7fbf
00000380: 9165 a2bf 2e59 a03f 0d57 2a40 2a82 54c0
00000390: 3496 e5c0 5bab 58c1 6422 0f41 2750 2ac0
000003a0: 809c c140 8c6e ee40 709b 4140 4c45 8e40
000003b0: 878d 40c1 bbbc eac0 2a22 d040 9268 65c1
000003c0: 3b0d 6440 c60f bac0 d20b acbf ad7a f0c0
000003d0: 3961 f940 2bc0 1641 dacc f5c0 461d 4cc1
000003e0: c86a 6841 5783 24c1 767d a4c0 e69c c940
000003f0: 4d84 1dc1 7538 9841 3695 fb3f 3823 ae40

bn1.running_var f4 [256]
1.087694 4.299434 1.7071245 5.9660363 2.5001392 2.2810502 5.8541875 0.2761471
5.8404827 1.4181554 8.093576 2.6490505 2.8966591 1.155712 1.4485716 3.500629
2.8144104 5.2278333 0.95179516 2.2004776 1.2205294 2.69109 4.59941 3.7192733
1.9275266 3.6760955 0.6929007 1.3951883 3.4818192 1.5009272 2.574988 6.1177807
2.513875 3.757631 3.5884204 1.2510067 5.5615125 11.021186 2.7373188 1.3264083
4.0342913 5.896779 2.4872255 2.921515 2.4927561 13.535468 2.7670155 1.9899122
1.2836173 5.0556006 14.774033 1.4806476 1.4550447 1.6660213 3.0385804 0.32577497
3.2359228 3.1150465 5.2344995 1.9054024 3.6714745 4.6384645 3.381543 0.74597
3.8170652 2.4502916 1.3234056 0.9971431 3.4657032 1.4975414 6.788432 3.1538706
3.2290897 0.8540224 1.6348554 1.1318872 4.3300366 3.5393345 1.240614 3.0967233
1.1718577 3.3095212 0.74750435 6.7003775 2.2851794 1.3365681 5.6228685 1.3858835
0.9576064 0.4698602 2.6614108 0.5581065 1.8062924 1.012817 3.333343 5.4430647
2.0203073 1.9877363 10.956268 4.9658675 0.4402954 4.8242598 2.6000679 5.3576183
2.8184354 0.6817697 2.0158908 1.8485981 3.7201142 0.9518182 1.3890281 3.7363222
2.7972505 3.4625685 5.6869736 4.09359 3.3517473 2.3892462 6.199743 1.669049
3.5143185 2.5090463 1.3621968 2.2396412 0.8456869 2.1854734 8.039215 3.419754
3.269527 6.758975 0.4216207 2.2397 2.304836 2.0260532 1.7731066 1.0180917
2.6496668 2.6592224 6.3215427 2.4721634 1.6626365 4.5477924 6.5793467 1.7361411
1.7327514 2.47505 2.0173542 1.0204856 2.2507992 0.4864496 0.75656635 2.6978629
0.7354762 3.5693738 4.333303 4.0809445 0.5987485 1.9383384 0.82369286 3.3592813
2.3795106 1.1047804 3.6846282 1.6394583 3.0906093 0.916622 2.7591777 0.6885395
0.9438548 1.8229758 3.3333323 2.2594674 1.7489209 1.0873694 10.476244 3.717492
0.4942938 2.2512698 3.7018697 8.568504 0.8588977 1.8484043 3.078497 1.0475538
5.3512774 3.70705 0.5668529 1.2751186 5.309928 1.7227442 2.6139996 2.1145098
5.327695 4.43432 0.94688135 5.238874 3.059404 0.94308233 2.2186878 1.0795074
2.278461 3.479391 2.4283383 3.253272 4.8710465 1.4384834 1.8137316 2.279242
1.6866798 1.3245904 2.722921 5.0843406 2.56805 8.074595 1.3585579 1.5349259
2.098588 3.134045 1.9778925 2.037766 1.6059257 2.383364 2.932552 1.201699
5.1533465 1.0725877 2.344264 6.8179874 2.0946438 1.1207685 4.918145 5.891665
5.7447853 0.26970518 2.9376729 1.3212205 4.944523 5.4504604 2.9935358 5.901385
3.228066 3.9571812 2.3514674 5.4482837 3.6367493 3.4011734 1.3545154 0.67724025
4.6194124 2.309568 1.7721968 0.9378562 2.0286803 2.2173822 5.0100074 3.3829331
00000000: 8f39 8b3f f794 8940 0e83 da3f c5e9 be40
00000010: 4802 2040 bafc 1140 8155 bb40 2763 8d3e
00000020: 3ce5 ba40 1e86 b53f 4a7f 0141 0b8a 2940
00000030: dd62 3940 5fee 933f cb6a b93f 4e0a 6040
00000040: 4d1f 3440 694a a740 d9a8 733f a0d4 0c40
00000050: 4f3a 9c3f d23a 2c40 5e2e 9340 9308 6e40
00000060: 31b9 f63f 2645 6b40 f161 313f 8895 b23f
00000070: 20d6 5e40 621e c03f 9acc 2440 dcc4 c340
00000080: 54e3 2040 077d 7040 aea8 6540 fd20 a03f
00000090: e9f7 b140 c756 3041 3b30 2f40 bfc7 a93f
000000a0: ea18 8140 6ab2 bc40 b42e 1f40 1afa 3a40
000000b0: 5189 1f40 4791 5841 c816 3140 71b5 fe3f
000000c0: 924d a43f 7bc7 a140 7062 6c41 dc85 bd3f
000000d0: e83e ba3f 3040 d53f 1a78 4240 facb a63e
000000e0: 5c19 4f40 ec5c 4740 0581 a740 3ae4 f33f
000000f0: 70f9 6a40 4d6e 9440 336b 5840 e4f7 3e3f
00000100: cc4a 7440 94d1 1c40 5b65 a93f c544 7f3f
00000110: 15ce 5d40 70af bf3f d63a d940 04d9 4940
00000120: 68a9 4e40 36a1 5a3f f142 d13f aee1 903f
00000130: a98f 8a40 7584 6240 71cc 9e3f b730 4640
00000140: 6fff 953f 32cf 5340 725c 3f3f 7e69 d640
00000150: 6140 1240 aa14 ab3f 8aee b340 a164 b13f
00000160: b125 753f 8491 f03e 8e54 2a40 11e0 0e3f
00000170: 9734 e73f fda3 813f 7e55 5540 962d ae40
00000180: b74c 0140 256e fe3f e04c 2f41 63e8 9e40
00000190: 666e e13e 5660 9a40 8367 2640 9c71 ab40
000001a0: 3f61 3440 7688 2e3f 5b04 0140 dd9e ec3f
000001b0: 5a16 6e40 5caa 733f accb b13f e71f 6f40
000001c0: 2706 3340 b99a 5d40 b0fb b540 b0fe 8240
000001d0: 0783 5640 69e9 1840 4b64 c640 66a3 d53f
000001e0: 98ea 6040 3794 2040 775c ae3f 4856 0f40
000001f0: f07e 583f ccde 0b40 a0a0 0041 40dd 5a40
00000200: ee3f 5140 8649 d840 abde d73e 3f57 0f40
00000210: 6f82 1340 dbaa 0140 28f5 e23f d450 823f
00000220: 2494 2940 b330 2a40 144a ca40 ed37 1e40
00000230: 46d1 d43f 8487 9140 028a d240 df39 de3f
00000240: ccca dd3f 3867 1e40 551c 0140 469f 823f
00000250: 180d 1040 ec0f f93e 55ae 413f c9a9 2c40
00000260: 2b48 3c3f 9f70 6440 6baa 8a40 1997 8240
00000270: 9547 193f 791b f83f 89dd 523f 77fe 5640
00000280: e749 1840 7269 8d3f f3d0 6b40 c5d9 d13f
00000290: 8bcc 4540 bda7 6a3f 5e96 3040 2044 303f
000002a0: 78a0 713f 4557 e93f 5155 5540 1d9b 1040
000002b0: a4dc df3f ec2e 8b3f b29e 2741 64eb 6d40
000002c0: 1414 fd3e ce14 1040 6feb 6c40 9818 0941
000002d0: b8e0 5b3f 8398 ec3f 1806 4540 3e16 863f
000002e0: aa3d ab40 4f40 6d40 461d 113f 1637 a33f
000002f0: eeea a940 e282 dc3f c54b 2740 2154 0740
00000300: 7a7c aa40 f3e5 8d40 d166 723f dba4 a740
00000310: 46cd 4340 d86d 713f fbfe 0d40 4c2d 8a3f
00000320: 4ed2 1140 58ae 5e40 e569 1b40 9c35 5040
00000330: 9ddf 9b40 3920 b83f 5b28 e83f 1adf 1140
00000340: 20e5 d73f 2e8c a93f 5644 2e40 ebb2 a240
00000350: ee5a 2440 8b31 0141 3ae5 ad3f 7478 c43f
00000360: 444f 0640 3194 4840 952b fd3f c26a 0240
00000370: f98e cd3f 0989 1840 efae 3b40 46d1 993f
00000380: 37e8 a440 8e4a 893f 6c08 1640 f42c da40
00000390: a50e 0640 5875 8f3f 7261 9d40 8588 bc40
000003a0: 48d5 b740 cc16 8a3e d502 3c40 c11d a93f
000003b0: 8839 9e40 2c6a ae40 1796 3f40 25d8 bc40
000003c0: a298 4e40 7542 7d40 717e 1640 5758 ae40
000003d0: 80c0 6840 d3ac 5940 c360 ad3f 9e5f 2d3f
000003e0: 3ad2 9340 f6cf 1340 58d7 e23f 5817 703f
000003f0: e6d5 0140 97e9 0d40 fb51 a040 fa81 5840

fc2.weight f4 [256, 256]
0.0498799 -0.058901027 0.061081562 -0.04178555 -0.04418533 -0.015632065 -0.054356247 -0.05192671
0.049754262 -0.03187505 -0.00065618585 -0.028740859 -0.013161881 -0.03923986 -0.039563414 -0.013314425
0.056938212 -0.029297682 0.039966654 0.030657098 -0.049981248 -0.013651349 0.028110519 0.007146773
-0.04200482 -0.06850204 -0.03197408 -0.03865656 0.03723407 0.064419694 0.012677241 -0.028975008
0.020529062 -0.016852617 0.034623284 0.011470117 -0.02123389 -0.0033848565 -0.0015324857 -0.06242636
-0.024428703 -0.03324636 0.006803673 -0.049343962 -0.064502865 -0.053116094 0.067612275 0.0018700853
-0.01748443 -0.0119072525 0.06746379 0.052532893 -0.007651948 -0.018602747 -0.017053962 0.01699327
0.050444596 -0.05474884 -0.043096308 0.024206376 -0.038727075 -0.059628196 -0.068201564 0.056209095
-0.011867188 -0.022539265 0.023968412 0.009941714 0.03829101 -0.06363429 0.059981957 0.02617216
-0.045874447 0.056691382 0.060562827 -0.028501622 -0.02789298 0.07660258 -0.013970353 0.0032943273
-0.036593627 -0.048464607 -8.7730994e-05 -0.03214534 -0.038954385 -0.02813548 -0.049715944 -0.043619882
-0.017494211 0.02844414 -0.03867216 -0.059967473 -0.005220845 -0.018998386 -0.012490407 0.010828854
-0.06316311 -0.026977217 0.039389394 0.042784076 -0.03544242 -0.047235098 0.06157082 0.03283401
0.05274642 0.02737146 0.017160019 0.013541556 0.026769513 -0.04107645 -0.01979153 -0.0018653625
0.03810427 0.0022892738 0.016711416 0.037612468 -0.07053884 -0.017926233 0.058105484 0.07380271
-0.04017425 -0.04018235 0.05988557 -0.028745528 -0.05409524 -0.04080524 -0.0020787704 -0.01245998
0.01477876 0.056545455 -0.008055484 0.03370209 0.020036211 -0.03802497 -0.0064319186 0.026009377
0.03357442 0.037134863 -0.0443232 0.045053825 -0.009272934 -0.048531014 0.061196342 0.0014663913
-0.042603474 0.0319925 0.039040767 -0.0038124237 -0.036794342 -0.030031415 0.023214012 0.02937266
-0.00687927 0.014393321 0.01982939 -0.015151746 0.03169759 -0.043250374 -0.050722487 -0.046172533
0.032268632 -0.008276677 0.013172181 -0.010496361 0.055553205 -0.004628041 -0.0738495 0.00848069
0.029480755 0.042700913 -0.0504899 -0.050734088 -0.04867618 -0.029391194 0.021125512 -0.03909158
-0.013950545 -0.02024814 0.047819525 -0.024191137 0.062833965 -0.05544166 -0.038510326 0.013651272
-0.035120074 -0.008465026 -0.007046023 -0.021373795 0.016069273 -0.07190036 0.047608852 -0.053390052
-0.009260463 -0.047112282 -0.023854319 -0.023290692 -0.06716912 0.026626207 -0.015484423 -0.031381346
-0.055837795 -0.04602712 -0.061559364 0.03728065 -0.0570334 0.05897762 0.027644873 -0.013976236
-0.0030170255 -0.0076300013 0.044451386 -0.03460371 0.018440232 0.0526471 0.022910496 0.0022510646
0.009863191 -0.061458666 -0.053300515 0.04539109 0.015223591 -0.063133776 0.08008139 0.040967815
0.037853386 -0.06503199 0.0049990444 -0.021865783 -0.018930959 -0.062401384 0.005070785 -0.04628972
0.024170833 -0.04179066 0.017795464 -0.001315768 0.017439744 -0.023075981 0.060530312 -0.052740242
0.033903185 -0.01776151 -0.049017858 0.015588325 -0.047941633 0.0014377839 -0.019491099 -0.056414973
0.019397289 -0.008594436 -0.049055085 0.05652833 -0.034167957 0.022328487 0.017926827 -0.020762848
00000000: de4e 4c3d 3442 71bd a930 7a3d 5327 2bbd
00000010: adfb 34bd d10e 80bc a8a4 5ebd 1ab1 54bd
00000020: 20cb 4b3d 6a8f 02bd e303 2cba f371 ebbc
00000030: eea4 57bc fab9 20bd 3f0d 22bd bf24 5abc
00000040: 0b38 693d b101 f0bc 13b4 233d 9824 fb3c
00000050: 23b9 4cbd e8a9 5fbc 0848 e63c 7a2f ea3b
00000060: 3f0d 2cbd cc4a 8cbd 41f7 02bd 5756 1ebd
00000070: c182 183d 79ee 833d 34b4 4f3c ff5c edbc
00000080: 902c a83c 800e 8abc 25d1 0d3d 28ed 3b3c
00000090: b2f2 adbc 78d4 5dbb b0dd c8ba c8b2 7fbd
000000a0: b41e c8bc 562d 08bd 59f1 de3b e51c 4abd
000000b0: 141a 84bd 4390 59bd 4e78 8a3d a61d f53a
000000c0: 823b 8fbc a316 43bc 752a 8a3d bb2c 573d
000000d0: 31bd fabb ca64 98bc c0b4 8bbc 7835 8b3c
000000e0: fe9e 4e3d 5240 60bd c185 30bd 734c c63c
000000f0: 48a0 1ebd b23c 74bd 43ad 8bbd 823b 663d
00000100: 986e 42bc 44a4 b8bc 6759 c43c 92e2 223c
00000110: 09d7 1c3d b252 82bd a4af 753d ff66 d63c
00000120: d8e6 3bbd 3935 683d ba10 783d 3c7c e9bc
00000130: d27f e4bc d0e1 9c3d e8e3 64bc a4e5 573b
00000140: 33e3 15bd d382 46bd 38fc b7b8 d5aa 03bd
00000150: a28e 1fbd 617c e6bc f2a2 4bbd c3aa 32bd
00000160: 0550 8fbc af03 e93c b366 1ebd 74a0 75bd
00000170: 9f13 abbb 81a2 9bbc 90a4 4cbc 816b 313c
00000180: a95b 81bd 53ff dcbc c656 213d 5b3e 2f3d
00000190: 122c 11bd 9779 41bd af31 7c3d f47c 063d
000001a0: a10c 583d 1d3a e03c 2b93 8c3c 67dd 5d3c
000001b0: bd4b db3c c83f 28bd d921 a2bc 2e7f f4ba
000001c0: 3913 1c3d a407 163b 61e6 883c 880f 1a3d
000001d0: ab76 90bd 09da 92bc 0400 6e3d e025 973d
000001e0: c18d 24bd 3f96 24bd 924a 753d be7b ebbc
000001f0: f892 5dbd 6523 27bd fb3b 08bb f224 4cbc
00000200: 9d22 723c 359c 673d 26fb 03bc 340b 0a3d
00000210: fb22 a43c 12c0 1bbd d8c2 d2bb 9e11 d53c
00000220: 5585 093d ba1a 183d 3e8c 35bd 5c8a 383d
00000230: 81ed 17bc 75c8 46bd 04a9 7a3d ed33 c03a
00000240: fb80 2ebd 910a 033d 36e9 1f3d dbd9 79bb
00000250: aab5 16bd 7104 f6bc 502b be3c ef9e f03c
00000260: 806b e1bb f7d1 6b3c 3f71 a23c 073f 78bc
00000270: 55d5 013d 4e27 31bd 62c2 4fbd 691f 3dbd
00000280: 1d2c 043d e69a 07bc 22d0 573c eef8 2bbc
00000290: c28b 633d d2a6 97bb 683e 97bd 98f2 0a3c
000002a0: a081 f13c 27e7 2e3d 7fce 4ebd 8cce 4fbd
000002b0: ad60 47bd cdc5 f0bc 690f ad3c 7e1e 20bd
000002c0: d490 64bc 6ddf a5bc 68de 433d 7e2c c6bc
000002d0: 18af 803d cb16 63bd 01bd 1dbd 96a9 5f3c
000002e0: 11da 0fbd e4b0 0abc 53e2 e6bb 1918 afbc
000002f0: b5a3 833c 7f40 93bd 8001 433d 87af 5abd
00000300: 32b9 17bc cff8 40bd 226a c3bc 1fcc bebc
00000310: f78f 89bd 341f da3c 61b2 7dbc ba89 00bd
00000320: 2cb6 64bd ef86 3cbd ac25 7cbd 98b3 183d
00000330: db9b 69bd 8492 713d 8077 e23c 95fc 64bc
00000340: 4ab9 45bb 1705 fabb a812 363d 9fbc 0dbd
00000350: f80f 973c 7ca4 573d cbae bb3c 9986 133b
00000360: 3999 213c 15bc 7bbd a451 5abd 02ec 393d
00000370: 5e6c 793c 484c 81bd b601 a43d decd 273d
00000380: 270c 1b3d 7e2f 85bd 06cf a33b df1f b3bc
00000390: 1915 9bbc 9898 7fbd d428 a63b 4a9a 3dbd
000003a0: e901 c63c af2c 2bbd cbc7 913c d975 acba
000003b0: cbdd 8e3c d709 bdbc a2ee 773d 2706 58bd
000003c0: 11de 0a3d 9680 91bc f3c6 48bd 2d66 7f3c
000003d0: 725e 44bd 0674 bc3a ccab 9fbc 6313 67bd
000003e0: 10e7 9e3c adcf 0cbc fced 48bd 408a 673d
000003f0: b3f3 0bbd 3bea b63c 48db 923c d916 aabc

fc2.bias f4 [256]
0.021995764 -0.00057417667 0.053042438 0.015021513 -0.029679576 0.051050264 0.03732743 -0.0070792884
-0.038428962 -0.03478218 0.03508078 -0.019910967 0.03971735 0.06051715 0.031232128 -0.047423206
-0.02773028 -0.04414344 0.025383282 -0.036819663 -0.035624336 0.055279076 -0.0015740731 -0.024654811
-0.009630571 -0.042745996 0.019233651 0.013928484 -0.013751383 -0.060733747 -0.023703415 -0.0028013338
-0.05532456 -0.047063496 0.041290097 -0.0043756394 0.05146555 0.05221513 0.0046159932 -0.013809297
0.02907042 0.024995368 -0.014349379 -0.03253544 -0.004220105 -0.0037366867 0.0077494197 0.019937439
-0.049721226 0.024929203 0.055315472 0.027327357 -0.0010610159 -0.015652474 0.033359073 -0.030859742
0.032840297 -0.053606596 0.006587765 0.032543555 -0.05572835 0.017015414 -0.0471978 -0.013592135
-0.057442654 -0.03242396 0.010592889 0.05498543 0.0070463177 0.053974375 0.025556432 0.00074307877
-0.024467822 -0.04474503 -0.045324143 0.042977184 0.0007457523 -0.013860251 -0.055726167 0.040971912
0.03032415 -0.019636013 -0.015469647 -0.043959133 0.015816966 -0.00011503542 -0.037734788 -0.014991934
0.04191746 0.0052387826 0.0026003935 -0.04317546 0.04393892 0.05388301 0.052483745 -0.026445119
-0.022805633 0.03124112 -0.033369087 0.01958007 -0.006698927 0.053304434 -0.0069901426 -0.01431907
-0.027503047 0.057131857 -0.023501279 0.001994556 0.03104931 0.0054960507 0.045593996 0.035173662
0.004008686 0.030436428 -0.04108813 0.00400491 -0.024091864 -0.041388776 0.023958916 0.05999442
-0.040750604 0.023076877 0.062266983 -0.03533955 0.05551079 0.0117710205 0.0018145969 -0.009999054
-0.054052994 -0.02641254 -0.04436286 -0.05649429 0.05736698 -0.041288257 -0.0413841 -0.030550618
-0.043776326 -0.03724605 0.007032189 -0.044424824 -0.04747002 0.039296813 0.053604413 -0.052882697
0.002241402 -0.014784994 0.049150597 0.0074486854 -0.0425865 0.055466194 0.010704446 -0.026903244
-0.008289991 -0.050692894 -0.011823386 0.009488661 0.058462843 -0.028413031 0.04756126 0.06295166
0.0032088682 -0.012727816 -0.013491605 -0.04129292 0.013616925 -0.057183634 -0.019345256 -0.029913122
-0.05235418 -0.032998975 -0.05723269 0.04355066 -0.02369137 -0.053151682 -0.022467138 0.021351222
0.046154622 -0.05155081 -0.053048823 -0.013330545 0.05969694 0.0071094665 -0.0014063081 0.04684791
-0.01999181 0.052419696 -0.006898225 0.00033508203 -0.009131398 -0.05719944 0.043129615 0.029589757
-0.0059946063 0.05021712 -0.014115715 -0.027424505 0.05468183 0.00022419439 -0.024088515 -0.0029246649
0.0024381075 0.056775756 -0.0074885283 -0.011767099 -0.03889459 -0.028774263 -0.00593211 0.024161328
-0.041078717 -0.053169526 0.058644578 -0.05796302 -0.060357805 -0.006724412 0.033625238 -0.0015832753
0.06195977 0.051603496 -0.053779256 0.026724847 0.04713474 -0.0062722582 -0.014757634 0.014759077
0.00358926 0.009898018 0.050331756 -0.036494464 0.026033469 0.0003060223 -0.0045734923 0.036020577
0.03464623 -0.041634314 -0.03640753 -0.0034199243 -0.05594381 -0.029803447 -0.038832624 -0.0019759135
0.027458087 0.023713345 -0.04860516 0.043912273 0.015118603 0.021006642 -0.024505887 0.052765153
0.016328111 -0.03498543 -0.042803492 0.0053147688 -0.053411275 0.01134633 0.029866066 0.022605041
00000000: 7630 b43c 5884 16ba 0743 593d cb1c 763c
00000010: 9522 f3bc 151a 513d a6e4 183d 60f9 e7bb
00000020: b067 1dbd c277 0ebd ddb0 0f3d 531c a3bc
00000030: a9ae 223d d5e0 773d 85da ff3c d63e 42bd
00000040: 9d2a e3bc c0cf 34bd 9af0 cf3c 37d0 16bd
00000050: d3ea 11bd 506c 623d 2151 ceba e3f8 c9bc
00000060: 8bc9 1dbc 6d16 2fbd e48f 9d3c 4c34 643c
00000070: 7b4d 61bc f3c3 78bd aa2d c2bc 9596 37bb
00000080: 019c 62bd a7c5 40bd ce1f 293d 8661 8fbb
00000090: 8acd 523d 88df 553d c241 973b 6440 62bc
000000a0: 1725 ee3c 16c3 cc3c a819 6bbc e243 05bd
000000b0: ce48 8abb 33e3 74bb d8ee fd3b d753 a33c
000000c0: 7ca8 4bbd 5438 cc3c 7a92 623d 9fdd df3c
000000d0: c911 8bba 9e39 80bc 86a3 083d 92cd fcbc
000000e0: 8c83 063d 9792 5bbd 2ede d73b 644c 053d
000000f0: 6943 64bd e963 8b3c 7b52 41bd 8cb1 5ebc
00000100: fd48 6bbd fcce 04bd cc8d 2d3c 6738 613d
00000110: cce4 e63b 3c14 5d3d b95b d13c 2ccb 423a
00000120: be70 c8bc 9146 37bd cfa5 39bd d808 303d
00000130: 977e 433a 1b16 63bc 1f41 64bd 2ad2 273d
00000140: 5a6a f83c b4db a0bc 6774 7dbc 7e0e 34bd
00000150: 9592 813c 2c3f f1b8 cb8f 1abd bba0 75bc
00000160: a4b1 2b3d 18aa ab3b 5d6b 2a3b c0d8 30bd
00000170: 4cf9 333d 6eb4 5c3d 32f9 563d 6fa3 d8bc
00000180: e1d2 babc 61ed ff3c 06ae 08bd 6266 a03c
00000190: ac82 dbbb c055 5a3d 910d e5bb 889a 6abc
000001a0: 124e e1bc 1803 6a3d c185 c0bc 19b7 023b
000001b0: 1f5b fe3c 3718 b43b c5c0 3a3d 4212 103d
000001c0: 4c5b 833b d155 f93c 074c 28bd 9f3b 833b
000001d0: 4d5c c5bc 4787 29bd 7d45 c43c b5bc 753d
000001e0: 1bea 26bd b80b bd3c aa0b 7f3d 34c0 10bd
000001f0: 485f 633d 3ddb 403c c5d7 ed3a 12d3 23bc
00000200: ac66 5dbd 1c5f d8bc d5b5 35bd 8e66 67bd
00000210: a3f9 6a3d e01d 29bd 6082 29bd 4a45 fabc
00000220: ce4e 33bd 508f 18bd 476e e63b cef6 35bd
00000230: ec6f 42bd b2f5 203d 4d90 5b3d 879b 58bd
00000240: 7ce4 123b c23c 72bc 2352 493d 1a14 f43b
00000250: 2f6f 2ebd 8530 633d b361 2f3c 3164 dcbc
00000260: bed2 07bc 5aa3 4fbd e0b6 41bc 5476 1b3c
00000270: bc76 6f3d 72c2 e8bc 99cf 423d cdec 803d
00000280: e04b 523b 5488 50bc e50b 5dbc c422 29bd
00000290: 8619 5f3c 6339 6abd f179 9ebc 5d0c f5bc
000002a0: 5671 56bd ef29 07bd d36c 6abd 2d62 323d
000002b0: 6714 c2bc 94b5 59bd 010d b8bc c2e8 ae3c
000002c0: a10c 3d3d f126 53bd b949 59bd 5c68 5abc
000002d0: c784 743d 87f6 e83b df53 b8ba 98e3 3f3d
000002e0: ddc5 a3bc 09b6 563d 810a e2bb f3ad af39
000002f0: dc9b 15bc f649 6abd aea8 303d 3866 f23c
00000300: 676e c4bb 78b0 4d3d 9a45 67bc 5ba9 e0bc
00000310: 0efa 5f3d b915 6b39 4755 c5bc bcab 3fbb
00000320: a8c8 1f3b b28d 683d 5462 f5bb caca 40bc
00000330: ef4f 1fbd 01b8 ebbc 2562 c2bb faed c53c
00000340: 2842 28bd 4ac8 59bd 4c35 703d a26a 6dbd
00000350: bf39 77bd 7558 dcbb 9eba 093d e785 cfba
00000360: 87c9 7d3d 305e 533d a347 5cbd 11ee da3c
00000370: 5b10 413d 8487 cdbb 01ca 71bc 0ed0 713c
00000380: ca39 6b3b 4c2b 223c ac28 4e3d 387b 15bd
00000390: 2444 d53c 9e71 a039 3cdd 95bb 508a 133d
000003a0: 35e9 0d3d be88 2abd 1020 15bd cf20 60bb
000003b0: 5625 65bd 5c26 f4bc f50e 1fbd 547e 01bb
000003c0: c8ef e03c 7d42 c23c 3416 47bd 5bdd 333d
000003d0: 04b4 773c 1f16 ac3c 92c0 c8bc 4620 583d
000003e0: 88c2 853c e24c 0fbd b752 2fbd 8327 ae3b
000003f0: c8c5 5abd f5e5 393c aea9 f43c 352e b93c
