execute/runs/2024070101/model.pth (torch, 75543 bytes, 6 tensors)

fc1.weight f4 [128, 11]
00000000: e089 903c 40f2 df3c 90a8 2dbd b0d6 483d
00000010: aec2 2e3e a0d6 84bc 75bc 0cbe 2071 653c
00000020: 2643 c1bd 80fc 3fbe dca0 2c3e 7b8d 8fbe
00000030: 2437 d3bd 8049 8b3d 7b79 18be 4c49 3b3e
00000040: 704e dc3c b059 fcbd c090 463d 8049 89bd
00000050: bca2 193e c028 d13b 6e88 45be a499 893d
00000060: 8132 96be 3af3 99bd 10d2 fdbc d2ba 8e3e
00000070: 242b 963e f839 763e 540a 903e c80f a63d
00000080: 6cd3 733e 6cf9 8f3d 90a1 4fbd 20c3 22bd
00000090: dc51 923d 3059 d6bc b403 7f3e b60a 89be
000000a0: 50aa 5c3e d0b9 8a3e 780e 273d 0c2c 8d3e
000000b0: e0b1 ed3c 7048 09bd d8ed 6c3d e03a 423e
000000c0: 9d28 4abe 30bc 68bd b68b 0c3e 667a 65be
000000d0: cc21 863e 531f 5dbe f0ef 8e3c 8f25 01be
000000e0: 3e7d 3c3e 386b c3bd 2423 4abe 3482 923e
000000f0: 80f9 80be 2442 623e a063 453e 58ab 423e
00000100: 0898 473e 3d1f 9abe c0c0 41bd a410 913e
00000110: ee71 dabd c21c 8dbe bfc5 2cbe d096 f9bd
00000120: 4ab7 71be 7854 7ebd 3413 d2bd 7289 59be
00000130: 7078 233e a4a6 3f3e 44b8 4c3e 4661 4cbe
00000140: 81a0 08be 684d 6e3e cce3 6f3e 04e7 87bd
00000150: 98e3 26be e2ce a5bd 0004 7cba 70b5 4b3e
00000160: 5032 45bd d8ec 88be 788b 5a3e b6b7 483e
00000170: 9894 793d 689f 2dbd 080b 5b3e cb45 74be
00000180: c422 273e f06c 96bd 8add 843e 0877 953e
00000190: ee60 a9bd ab6c 92be e00b 503e 20c0 0e3d
000001a0: 3aac d4bd 7cfd 30be 00da 0cbc 78a2 3b3e
000001b0: 92dc d9bd c4cd 23be a02d 13bd a083 b53d
000001c0: 242d 98be 4c92 c53d 206c 1a3d d433 823d
000001d0: 3596 2abe 069d 44be 6067 57be 0094 febd
000001e0: 2e11 883e 5020 903c a413 e6bd ec6f cabd
000001f0: 40ab 053c 7ee3 dcbd 94a0 973e 9de2 90be
00000200: 00ab bdba 848b 8e3d fa05 90be 0040 3b38
00000210: 40db d3bc 5c4c 4d3e 2cd0 f63d 007a 693b
00000220: 8c8a 3e3e 4079 02bd d003 f0bd 2326 59be
00000230: 1d47 79be 88da fa3d 70a9 55bd 7090 35bd
00000240: 7ac3 06be 3412 13be b03c 89bc 7456 573e
00000250: 547d c3bd 380d 6c3d 780c 883e b9ac 85be
00000260: 18d2 72be c0b9 de3c 40cc cc3b 56b3 65be
00000270: c09d 043d be8c 0bbe d713 11be 5454 743e
00000280: d487 6b3e 9189 80be 0075 c3bc 228e 85be
00000290: b4fc 77be b496 d4bd a76f 5bbe e036 6bbd
000002a0: 5327 09be a91b 9abe f825 413d 4014 653c
000002b0: 702f 75be 9844 ad3d 048d 773e 18ad d5bd
000002c0: e4a1 f13d 2adf 05be 3417 823e 8068 82bb
000002d0: c692 8bbe aa56 963e 02af 1c3e 90a9 8b3d
000002e0: bcad 3f3e e0ad 963e 90eb 2ebd f819 883e
000002f0: 9f19 90be c86b 4d3e bcc9 2ebe 00a1 573e
00000300: 08b5 19bd b225 5bbe bfde 41be d431 d4bd
00000310: 027a 983e 00aa a93b c4b4 923e 0836 733e
00000320: 7cd1 7c3e 2872 653d 3cc6 57be e086 ddbd
00000330: 302a f9bc 58ec 3b3e 3f0d 26be 0cfd 903e
00000340: 6290 8c3e a44b bc3d 70bd 8c3d e048 88bd
00000350: 182c 793e 6cd3 8bbe 20cf 3dbd a886 283d
00000360: d2c6 81bd d06f 773e 8e20 a7bd de07 363e
00000370: d028 02bd f09d de3c a58a 24be 33ae 81be
00000380: 1ee7 c1bd a46c 4e3e b406 fb3d 1587 2ebe
00000390: c037 c83c 11f6 96be f038 43bd 56f2 b2bd
000003a0: e01a b6bd c006 5a3e 529d 33be 0cef 963e
000003b0: 5038 293e a016 35bc d2b3 91bd 7954 8dbe
000003c0: 4b65 83be f60d 94be d26b 82bd 6051 9e3c
000003d0: 6a65 8abe 1c24 6e3e a04d 52bc 16cd 023e
000003e0: 6401 e2bd b2f3 903e ced3 82bd a813 ddbd
000003f0: 88ce 193d 88a8 8b3e e70f 98be 1eb2 0abe
0.017643869 0.027337193 -0.04239708 0.049032867 0.17066452 -0.016215622 -0.13743766 0.014004022
-0.09436636 -0.18748665 0.16858238 -0.2803763 -0.103132516 0.068011284 -0.14890091 0.1828968
0.02689287 -0.12321794 0.048477888 -0.06703472 0.15003484 0.0063830316 -0.19290325 0.06718758
-0.29335406 -0.07517095 -0.030983955 0.27876908 0.2932979 0.24045551 0.2813288 0.08108479
0.2381112 0.07029995 -0.050691187 -0.039736867 0.0714452 -0.026165575 0.24903756 -0.26765984
0.21549344 0.2709489 0.040785283 0.27572668 0.029015481 -0.033516347 0.057844013 0.18967772
-0.19742055 -0.056820095 0.1372517 -0.22409973 0.2619766 -0.2159398 0.017448395 -0.12611984
0.18407151 -0.09541935 -0.19739968 0.28614962 -0.25190353 0.22095543 0.19276285 0.19010675
0.19491589 -0.30101958 -0.04730296 0.28333008 -0.106662616 -0.27561003 -0.16872309 -0.12186968
-0.23605075 -0.062092274 -0.10257569 -0.21243837 0.15963912 0.18715912 0.19992167 -0.19958982
-0.13342477 0.23271716 0.23426741 -0.066358596 -0.16297758 -0.080961004 -0.0009613633 0.19893432
-0.048143685 -0.26743197 0.21342266 0.1960133 0.060932726 -0.04238835 0.21390927 -0.23854749
0.16321856 -0.07344997 0.2595027 0.29192376 -0.08270441 -0.28598532 0.2031703 0.034851193
-0.10384412 -0.17284197 -0.008596897 0.18323696 -0.106377736 -0.15996462 -0.035932183 0.08862996
-0.2972194 0.096470445 0.037700772 0.06357542 -0.16658862 -0.19200525 -0.21035528 -0.124305725
0.26575607 0.017593533 -0.11234215 -0.09884629 0.008158505 -0.10785578 0.296147 -0.28297892
-0.0014470518 0.06960204 -0.2812956 4.464388e-05 -0.025861382 0.2004866 0.120514244 0.0035625696
0.18607539 -0.031853914 -0.11719477 -0.21205954 -0.24343534 0.12248713 -0.05216354 -0.0443272
-0.13160506 -0.14362413 -0.01675257 0.21029073 -0.09545389 0.057629794 0.26572013 -0.2610834
-0.23712957 0.027188182 0.0062499344 -0.22431692 0.032377005 -0.13627908 -0.14167725 0.23860294
0.23001033 -0.25104955 -0.0238595 -0.26085 -0.24217492 -0.10380307 -0.2142931 -0.05742538
-0.13393907 -0.30099228 0.04715535 0.013981879 -0.23943877 0.08460349 0.24174887 -0.10433406
0.11798456 -0.13073412 0.25408328 -0.0039797425 -0.27260417 0.29362994 0.15301135 0.06819451
0.18718618 0.2942953 -0.04270512 0.26582313 -0.28144547 0.20060647 -0.17069143 0.2105751
-0.03752616 -0.21401098 -0.18932627 -0.103610665 0.29780585 0.0051777363 0.28653538 0.2375108
0.24689287 0.05601707 -0.21071714 -0.10816741 -0.030415624 0.18351877 -0.1621599 0.2831806
0.27453905 0.09194115 0.0687207 -0.06654525 0.24333227 -0.2730974 -0.046340108 0.041144043
-0.0633675 0.24163747 -0.08160506 0.17776439 -0.031777203 0.02717492 -0.16068514 -0.25328216
-0.0946791 0.2015863 0.12257138 -0.17043717 0.024440646 -0.2948461 -0.04766172 -0.08737628
-0.08891845 0.21291637 -0.17540482 0.29479253 0.16525388 -0.0110527575 -0.07114376 -0.2760351
-0.25663218 -0.289169 -0.06368221 0.019325912 -0.27030498 0.23255962 -0.01283589 0.12773547
-0.110354215 0.28310925 -0.06388055 -0.10794765 0.03755048 0.27277017 -0.29699633 -0.13544509

fc1.bias f4 [128]
00000000: fc10 183e d0e3 863c 08f6 0abe f0ed 463e
00000010: 58dd 15bd d462 d93d 9813 abbd 3850 27bd
00000020: 5608 1a3e 2000 573e 0012 1eba 8ccc 5b3e
00000030: a079 9abd f89f 44bd 74d4 65be 884f babd
00000040: 64da 9a3d 423f 90be 2820 8d3e 740a d0bd
00000050: e84d 8d3e 686c 653e e4df 3fbe 114b 60be
00000060: 843a f83d d42d 973e 6a8d 96be bccc 8abe
00000070: b63e 95be 389e 803e 422b f4bd 1cc3 7d3e
00000080: 4ce2 ba3d ecb9 4d3e d5bb 34be 7012 143e
00000090: 2605 823e 40b5 89be 021c 84be 3058 a5bc
000000a0: a649 8b3e 606b 6d3c 20be 02bc b948 0cbe
000000b0: 906a d93d 587d 72bd c892 533d 0c32 513e
000000c0: c8d4 3d3d 4003 fdbb 0c23 873d 2a27 53be
000000d0: 609d 823c 1602 54be c8b5 623e dc43 26be
000000e0: 6834 8d3e c1d8 29be 420e 833e 101b 7d3e
000000f0: 4075 ef3c 5647 f3bd e5a0 52be a895 373e
00000100: d023 76be 9a7a 6ebe 3ac6 98bd 0080 7038
00000110: 7a09 413e 80b4 a43b 611a 1bbe 7cd0 553e
00000120: 0046 13bc 4c5a 523e 801f 693c 0209 8a3e
00000130: a8a0 d6bd e85a 5e3e 2050 6a3c c41d bbbd
00000140: 7876 0e3d 09ac 93be bb28 68be 22bd 9dbd
00000150: c004 483e ee58 1abe 36cc 78be e9ed 95be
00000160: 44af 8e3d dfb4 99be a415 953d 6e68 083e
00000170: be30 52be ba93 89bd ac70 a93d 7023 4bbd
00000180: eeda 873e 60f4 59bd 813a 8bbe d868 333e
00000190: e085 fabd c06e 063c 8cd4 cf3d 242d eb3d
000001a0: a647 283e 9efe 3bbe 0842 b43d 6ae6 813e
000001b0: e08b 7dbe e2e0 8c3e a8fd 7dbe 913f 15be
000001c0: 6a62 8abe 046e 9f3d 389f 8c3d 700f 883e
000001d0: 2e47 463e 504b 733d 63dd 49be c0ad debb
000001e0: 1402 943d c657 983e e497 76be 14b3 e5bd
000001f0: 108e 393d e4ca 92be a287 57be 200b edbc
0.14850229 0.016466051 -0.13570416 0.19426703 -0.036588043 0.10614553 -0.083533466 -0.040847987
0.15042242 0.20996141 -0.0006029904 0.21464747 -0.075427294 -0.04800412 -0.22444326 -0.09097201
0.07561186 -0.28173262 0.27563596 -0.10158244 0.275985 0.22404635 -0.18737751 -0.21903636
0.12120536 0.29527152 -0.29404765 -0.27109325 -0.29149407 0.2512071 -0.11922313 0.2478146
0.09125194 0.20090455 -0.17649777 0.14460158 0.25394553 -0.26896095 -0.25802618 -0.020183653
0.27204627 0.014490932 -0.0079799 -0.13699616 0.10616028 -0.05920157 0.051653653 0.20429248
0.046345502 -0.0077213347 0.065984815 -0.20620409 0.015944183 -0.2070392 0.22139657 -0.16236824
0.27579045 -0.16586591 0.25596815 0.24717355 0.029230714 -0.118788406 -0.20569189 0.17928183
-0.24037099 -0.23288956 -0.07459684 5.733967e-05 0.18851271 0.0050264 -0.15146782 0.20880312
-0.008988857 0.20542258 0.014228702 0.26959997 -0.104798615 0.21714365 0.01430133 -0.09136537
0.03478095 -0.2884219 -0.22671787 -0.0770209 0.19533062 -0.15072986 -0.2429665 -0.29283074
0.06967023 -0.30020806 0.07279518 0.13321087 -0.20526406 -0.0671763 0.082734436 -0.049594343
0.26534218 -0.05321157 -0.27193072 0.17520463 -0.12232566 0.008205116 0.10147962 0.11483219
0.16433582 -0.18358847 0.08801657 0.25371104 -0.2476039 0.27515322 -0.24803793 -0.1457503
-0.2702821 0.07784656 0.06866306 0.26574278 0.1936309 0.059397995 -0.19713359 -0.006795615
0.07226959 0.29754466 -0.24081379 -0.11215797 0.045301497 -0.28670418 -0.21047834 -0.028935969

fc2.weight f4 [128, 128]
00000000: 9a19 11bd a1a9 a5bd 802d f7bb 0fb4 873d
00000010: d5cf 9f3d d0d8 97bd c072 2bbc d117 acbd
00000020: baf4 463d 6f76 8e3d 878c 48bd b050 8fbb
00000030: 2429 dd3c 2100 94bd 5ec5 293d 60c4 753c
00000040: ee6b 6f3d 44aa bd3c c4a0 86bd 1b5f b13d
00000050: 78fc 31bc 6ef1 94bd 2a83 16bd 7d5a 76bd
00000060: 29e7 8a3d e498 acbd 5089 78bd f03b bc3c
00000070: cb09 2ebd f0a2 db3b 8461 91bd 74e8 ae3c
00000080: ab6e 9b3d 9bd7 8a3d 6edf 703d 1c91 033d
00000090: 6312 9abd 18a6 a6bd 2e58 6d3d 0071 72ba
000000a0: 9ef0 04bd 6b7f 8a3d dca9 c23c 4450 85bd
000000b0: 0a21 47bd 066d 7dbd 4d29 13bd bc07 bd3c
000000c0: e684 0cbd 48b2 f03c 90e2 3dbd 1979 92bd
000000d0: fcbf 12bd 0a5c 2f3d ae7d 343d 27d7 9e3d
000000e0: 0622 313d 10cc f43b 5ae3 81bd eeda 8cbd
000000f0: c900 8dbd 2055 083c 5037 b83b bbcf 993d
00000100: f888 bbbc 1551 10bd 1cc7 8fbd 8090 bd3c
00000110: 5bea 893d 2cb6 49bd 07dd 883d 9269 8dbd
00000120: 3068 f43b bb87 8bbd 60ab 32bb bf6b 37bd
00000130: 9143 34bd 9e5e 84bd 0f4f 853d f7e2 9e3d
00000140: 708d b4bb 6a99 8dbd ec9d bfbc 2039 b13c
00000150: eaee 503d e6a7 753d 5229 7dbd e019 5bbd
00000160: 664b 593d 1093 adbd 7e81 3e3d 1ac8 343d
00000170: 3abc b0bd f94b b13d a662 4bbd a88d 6f3c
00000180: 28e8 54bd 62c2 a3bd 2b5c 8c3d 4082 893b
00000190: 07c4 0abd cc2a cabc 2e5c 503d 7b85 a03d
000001a0: b07c 513c 6371 993d 80ea dc3b a1de 9c3d
000001b0: ffa2 a93d 38e3 dc3c 40fd cfbc 29a7 49bd
000001c0: b905 8cbd 0842 e23c 962d 643d b4b8 a2bc
000001d0: 7c35 bbbc b3f8 10bd e8d6 20bd f48c 90bc
000001e0: b365 a93d 56a5 7d3d 6372 a03d 2048 81bd
000001f0: de28 233d b94b 893d ec77 0a3d ea85 313d
00000200: d6fc 7b3d 5bb6 89bd 669c 3d3d 0693 673d
00000210: de7f 7e3d 6095 dbbb fc40 d33c 0a7f 8abd
00000220: 8ee5 7e3d f03d 0fbc 8ee8 86bd 398a 75bd
00000230: 9a85 6e3d fac5 b0bd 9e88 43bd 80ea b6ba
00000240: f7a5 58bd b968 953d efac 7ebd 9652 323d
00000250: 8afb 623d 2484 b23c f8b0 2cbd faab 6a3d
00000260: c215 7d3d 5619 edbc 0aed 703d 6cc9 5ebd
00000270: 4864 77bd b198 48bd 38ee 9a3c de1e 263d
00000280: 2e91 673d 6038 c53b 204f 6abd a52f 34bd
00000290: 80ad ec3a e0fc 12bb 8815 103d dd4d 923d
000002a0: d046 a1bb 3a85 3a3d 888f 70bc 5610 723d
000002b0: 3f6d 9dbd b69d 583d ccc5 0abd 5463 b43c
000002c0: 7071 f73b 8ac8 a9bd 8cc9 80bd 10b9 6d3c
000002d0: f217 473d 1e4a 87bd 8a4a 463d 208f 05bc
000002e0: a284 10bd a064 91bd 80a1 203c bc28 96bd
000002f0: 6e9a 663d 5fbb 903d 122f 353d 8a4b 8fbd
00000300: 4e2d 5e3d f490 ca3c 5cc2 ff3c 65bc 853d
00000310: b445 b23c 4094 87bc 1bd5 4abd f630 5d3d
00000320: 5894 3c3c 92b7 023d a0e7 d2bc 66e7 213d
00000330: bec6 a6bd 8f3a b33d 5e87 65bd 9bc9 8d3d
00000340: 2c3c fd3c 6302 823d 546d cb3c eb2c 993d
00000350: 4065 e4bb 7a51 403d 3e59 313d ba56 acbd
00000360: ff15 9cbd 644c a3bc acc9 083d b751 b3bd
00000370: 7b04 823d d017 6dbd c08a 0d3b e925 9d3d
00000380: 66bb 60bd e6a0 613d c43b 84bd d9d4 923d
00000390: a515 46bd bbfb 22bd 0b0f 923d 7d00 56bd
000003a0: 502e adbd d02a f43b 2ef9 95bd 7093 fe3b
000003b0: 712c 1dbd 8789 47bd 779d 9a3d 0231 7c3d
000003c0: a8e0 84bd 9cf6 da3c 7e06 94bd b2d9 0ebd
000003d0: 9e5b 353d 6ef5 533d 9003 70bc d18f 873d
000003e0: ecbf 853c 482b a0bd ff0f 51bd b667 363d
000003f0: 8ef8 acbd ce42 5cbd 2bad a43d 009f 18bb
-0.035424806 -0.08088995 -0.007543266 0.0662614 0.07803313 -0.074144006 -0.01046437 -0.0840298
0.048573233 0.06956183 -0.048962142 -0.0043736324 0.026997156 -0.07226587 0.04144799 0.015000433
0.05845254 0.023152478 -0.06573632 0.08660718 -0.010863416 -0.072726116 -0.03674618 -0.06014489
0.067823716 -0.08427599 -0.060677826 0.0229778 -0.042489808 0.0067027733 -0.07098678 0.021351077
0.075894676 0.06779405 0.05880683 0.03212081 -0.07523038 -0.081371486 0.057945423 -0.00092484057
-0.032456033 0.06762584 0.023762636 -0.0650945 -0.048615493 -0.06187155 -0.03592806 0.023074977
-0.03430643 0.029381886 -0.046358645 -0.07152004 -0.03582762 0.042812385 0.04406517 0.07755881
0.043245338 0.007470615 -0.06342192 -0.06877695 -0.068849154 0.008321077 0.005621828 0.075103246
-0.02289246 -0.035233576 -0.07020399 0.023140192 0.06734153 -0.049246 0.066827826 -0.069049016
0.007458709 -0.06812998 -0.0027262792 -0.04478049 -0.04400975 -0.06463359 0.0650922 0.07758134
-0.0055100247 -0.06914027 -0.023390733 0.021633685 0.051009096 0.059974574 -0.061806984 -0.053491473
0.05305042 -0.084753156 0.046510212 0.044136144 -0.08629651 0.08657069 -0.049654625 0.014621176
-0.051979214 -0.0799606 0.06853517 0.004196435 -0.033878352 -0.02467861 0.05086916 0.078379594
0.0127860755 0.0749233 0.0067418218 0.076596506 0.08283042 0.026963815 -0.025389314 -0.049231682
-0.06837029 0.027619377 0.055707537 -0.019863464 -0.022852652 -0.035393428 -0.03926745 -0.017645337
0.08271351 0.061925255 0.078343175 -0.06312585 0.039833896 0.06703896 0.033805773 0.0433406
0.06152042 -0.06724235 0.04629173 0.056536697 0.062133662 -0.0067011565 0.025787823 -0.06762512
0.06223064 -0.008742794 -0.06587325 -0.059946273 0.05823288 -0.08631511 -0.04773771 -0.0013955384
-0.05289265 0.07295365 -0.06217664 0.04353579 0.055415668 0.021791525 -0.042160958 0.057292916
0.061788328 -0.028942745 0.058819808 -0.05439131 -0.06039837 -0.048973743 0.01891242 0.04055678
0.05653494 0.0060186833 -0.057204366 -0.04399075 0.0018057078 -0.0022428557 0.035176784 0.071437575
-0.0049217716 0.04553721 -0.014682658 0.05909761 -0.07686853 0.05288478 -0.03388004 0.02202002
0.0075513646 -0.08290203 -0.06288442 0.014509454 0.04860682 -0.066059336 0.04841093 -0.008151799
-0.03528274 -0.07099271 0.00980413 -0.07331988 0.05629962 0.07066988 0.044234343 -0.0699683
0.054242425 0.024727322 0.031220607 0.06530074 0.021761753 -0.016550183 -0.04951964 0.05400177
0.011509977 0.031913348 -0.025745213 0.03952732 -0.08143376 0.087514035 -0.0560373 0.06923219
0.030912481 0.063481115 0.024832405 0.074792705 -0.0069700778 0.046952702 0.043298 -0.08414979
-0.07621383 -0.019933887 0.033395454 -0.0875582 0.06348511 -0.057884037 0.0021597594 0.076732464
-0.054866217 0.055085085 -0.06456712 0.07169504 -0.048360486 -0.03979085 0.071317755 -0.05224656
-0.08456099 0.0074513927 -0.07322918 0.0077690408 -0.03837246 -0.04871514 0.07549565 0.061570175
-0.06488162 0.02672892 -0.07227801 -0.03487558 0.044276826 0.051747732 -0.014649287 0.06619228
0.016326867 -0.07820755 -0.051040646 0.0445325 -0.084458455 -0.053774647 0.08040842 -0.002328813

fc2.bias f4 [128]
00000000: bed2 683d 6055 c03b 138e 26bd c8ff b2bc
00000010: 51ac 983d 9cba b3bd 42ef 82bd f738 a0bd
00000020: 8b53 38bd 765b b4bd 480f 9fbd eb9c 53bd
00000030: c85e 59bc a824 72bd b9d6 45bd fa00 96bd
00000040: 801d 83bd 667e 513d d5ce ae3d 98eb 30bc
00000050: e422 143d 7e7a 6e3d 9e0e 253d 90e8 67bc
00000060: 4400 e33c 9878 5bbc f896 4a3c 62f1 1a3d
00000070: 1149 ae3d 2ef6 603d 8cc9 92bc 9f28 12bd
00000080: e855 b3bc 32e3 9fbd cdea ad3d b5b6 7bbd
00000090: 382b 61bc f7f0 03bd 6613 573d 60ba 70bd
000000a0: acb1 fe3c 44e1 7fbd 38b8 91bd 487d 76bc
000000b0: bd2c 883d 6014 693c a583 a6bd 6aad 7d3d
000000c0: 62b1 603d 6007 8bbd 7a81 0bbd 2bd9 abbd
000000d0: f9f7 953d ce3b 98bd 5649 8ebd b3a3 9f3d
000000e0: d947 a1bd c472 babc 2ea4 afbd 78bc 90bc
000000f0: 5809 773c 4097 6a3c 6019 ab3c 8184 6cbd
00000100: 68a4 69bc 5911 b03d e688 743d c6cc 253d
00000110: a859 c8bc 9e94 1e3d 371d acbd dc2e ad3c
00000120: 5f29 1bbd ac5d f0bc 7138 ae3d 5be0 9abd
00000130: c4e2 1dbd ff03 4fbd 3b3d 973d 7dce 26bd
00000140: 36b1 a8bd 10ac 7a3c 52c4 773d 2c17 d1bc
00000150: e0cf 923c 63c0 853d dbff 9dbd 2e88 653d
00000160: c0df 80bd fc2e f03c aad4 723d 26cf b2bd
00000170: c395 86bd f89c 6c3c a5f0 2bbd 6441 8ebc
00000180: d982 00bd 4ef8 ecbc ea7c 5a3d 1099 f53c
00000190: c227 463d 6157 64bd 575d 11bd 0080 c1b7
000001a0: 8007 203c b4bf f13c 0044 683a 6888 f03c
000001b0: 5170 ad3d b024 31bc 585c 96bd 2a23 a3bd
000001c0: 6491 d43c c029 02bb 6cdd fc3c aedd 00bd
000001d0: 9c77 f43c fcc5 cbbc d83c 96bc 105f a13b
000001e0: 0a1a 70bd 7032 8fbd fe73 503d 5e1c d7bc
000001f0: c2fc 7abd 0086 0e3b a017 d4bb d3c7 b43d
0.056841604 0.0058695525 -0.040662836 -0.021850482 0.07454742 -0.08775827 -0.06393291 -0.07823365
-0.045001548 -0.08806507 -0.077665865 -0.05166332 -0.0132672265 -0.05911699 -0.04830048 -0.07324405
-0.06402111 0.051145934 0.08535544 -0.010798357 0.036166087 0.058222286 0.040297143 -0.014154568
0.027710088 -0.013395451 0.012365095 0.037827857 0.0851003 0.054922275 -0.01791837 -0.03568327
-0.02189155 -0.07807006 0.0849205 -0.06145354 -0.013743214 -0.032212224 0.052508734 -0.05877149
0.03109058 -0.06247069 -0.07115215 -0.015044518 0.06649158 0.014226049 -0.08130578 0.06193296
0.054856665 -0.06788516 -0.034059025 -0.08391031 0.07322688 -0.07433282 -0.069475815 0.07794895
-0.07875032 -0.022759803 -0.08576237 -0.017667994 0.015077911 0.014318287 0.020886123 -0.057743553
-0.014260389 0.08597059 0.05970087 0.04047849 -0.024456814 0.03871595 -0.0840401 0.021140508
-0.03788125 -0.029341541 0.08506859 -0.07562324 -0.03854634 -0.05054092 0.07384726 -0.040724266
-0.08236925 0.015299812 0.06048996 -0.025523745 0.017921388 0.065308355 -0.07714816 0.056038074
-0.06292677 0.029319279 0.059284844 -0.08730917 -0.065715335 0.014441721 -0.041977543 -0.017365165
-0.031374786 -0.028926995 0.053341784 0.029980212 0.04837776 -0.055747394 -0.035489406 -2.3066998e-05
0.009767413 0.029510356 0.00088602304 0.029361919 0.08468688 -0.01081197 -0.07341832 -0.079656914
0.025948234 -0.001986131 0.0308673 -0.03146141 0.02984219 -0.02487468 -0.01833956 0.0049246624
-0.058618583 -0.06992042 0.05089187 -0.026258644 -0.061276205 0.002174735 -0.006472543 0.08827176

fc3.weight f4 [3, 128]
00000000: 6051 95bb 17de 9f3d b61d 74bd 8c47 bfbc
00000010: 0516 ad3d 9424 103d c6d4 353d a0bd 3a3c
00000020: 1a8f 353d c9fb 9b3d a0c4 52bc e4b6 45bd
00000030: c1ad 873d d53c 9e3d 6e97 89bd b652 553d
00000040: f736 813d 479d 06bd 4307 2abd fefc aebd
00000050: 4e2e 6b3d f071 f63c 5a3f 7b3d 18c5 0bbc
00000060: 98a8 91bd 20e4 2d3c 0bf4 99bd 3ead 2e3d
00000070: 2f07 a03d 3bd5 8ebd e922 a6bd b0e2 7bbd
00000080: aa9c 2b3d e445 d0bc b977 39bd c67b 4a3d
00000090: 4231 6f3d 1a94 773d 8a1c 313d 0771 923d
000000a0: 90e5 0e3c 5327 ad3d 8967 b4bd 631c 49bd
000000b0: 403c b1bd e4bd c8bc 9c14 83bd 0020 0db8
000000c0: 005c 6fba a25c 393d 4ab1 08bd 8a75 5f3d
000000d0: a8e3 06bc a275 4cbd ac39 943c cc69 b7bc
000000e0: e174 afbd 130e 963d 093b 8d3d 481a d9bc
000000f0: 013e 07bd f4fb adbc 5d6d 803d 422f 243d
00000100: 50e9 eabc 0559 993d be8f a2bd 8bf4 a03d
00000110: 4821 c13c 60f9 dbbb f0b5 78bc 644a 133d
00000120: 9101 a43d 22b2 773d f0be 3b3c 5517 2bbd
00000130: a0ca 6e3b 5d2f a93d 8062 32bc 580b d13c
00000140: becd 3c3d 0af9 543d 1216 533d c6ef 253d
00000150: 2477 fd3c 8346 a3bd 0d6a 64bd b8e5 82bd
00000160: 1433 c9bc 9021 91bc 4c3a 7cbd f666 afbd
00000170: 0e0d 613d aa25 763d ec86 a9bc 2824 77bc
00000180: ca33 313d a020 b23b a8bc ccbc ead0 173d
00000190: 68b4 703c 0fdd aa3d fab0 1c3d b0b1 53bc
000001a0: 058e 8fbd 94c5 46bd 187e 7cbc 22f4 58bd
000001b0: 4993 44bd db6a a3bd ccc9 eebc e883 86bd
000001c0: 80e3 433b 5402 75bd 4276 633d a5d3 a33d
000001d0: b7d2 27bd 8418 11bd 48ab af3c ddc6 a03d
000001e0: 90a6 7f3c 6836 b83c b803 4bbd c5b1 913d
000001f0: 8eaf a4bd c837 26bc dca8 aebc 3000 9d3c
00000200: db8d 923d cb16 9ebd ec1b 96bc 3469 90bc
00000210: b1bd 35bd 22bf 77bd 40a6 a63a 5521 46bd
00000220: 50f5 17bc 1200 7cbd 0056 78b9 85a3 4abd
00000230: 541b 9cbd 8523 973d e76f a6bd 6eb9 04bd
00000240: f673 0e3d b45b ebbc 3d6b 9c3d adf1 a8bd
00000250: ac9d eb3c d880 403c e75e 8e3d 8e05 543d
00000260: 0918 b03d 4031 f43c e0ad 173c 5978 ac3d
00000270: b5a5 8dbd 3069 bdbc c602 303d 308f 87bb
00000280: e09e a5bc acb6 873c 1a17 1b3d 1807 4cbc
00000290: 90b7 c9bc 2e37 83bd 3831 3e3c 3a7b adbd
000002a0: 2895 903c e0aa 4bbb 0f16 8c3d 4091 d13b
000002b0: 7aa3 023d af62 07bd 28eb b1bc d472 8ebc
000002c0: 6436 1abd 850a 9f3d a5cf 943d 00e1 f33b
000002d0: e7a9 ac3d a866 a1bd 36b5 393d 00c6 803b
000002e0: e121 43bd 2977 11bd c1c4 3bbd aea6 023d
000002f0: 9e68 59bd 3f7f af3d e6f3 663d 7037 943c
00000300: 00d8 7238 ca7d 1a3d f4c8 d53c 6131 7cbd
00000310: a207 313d be1e 473d 7e95 66bd 8810 873c
00000320: ec06 a2bd 3a69 013d 5ca6 9dbc a815 653c
00000330: 61f8 adbd 4d8e 8fbd 1b49 b4bd c49a c63c
00000340: 0dec b13d 6c1c 94bd d81d 3dbc bb17 85bd
00000350: 8856 fc3c e6ed 4f3d 3cf7 f63c f16d 1abd
00000360: fc4c a43c 688a a4bd 84b1 c8bc 009b a7bb
00000370: dc7c ee3c 801d 3cba 375c 02bd 8d2c 32bd
00000380: 3e10 653d 9df8 57bd 14ae 9bbc d1c4 a0bd
00000390: e589 893d 0dbf 923d 75f0 9e3d 9fd7 57bd
000003a0: 10d7 583c 7c68 cbbc 6e78 76bd 2a0b 723d
000003b0: 342c b23c 3228 84bd 4180 8f3d c8e6 3f3c
000003c0: 9217 243d 6673 7d3d 1ee2 193d f973 8fbd
000003d0: aca7 a8bc 0d3b 843d 43a9 98bd c851 b4bc
000003e0: 543a b73c 8070 a03c 85a3 17bd ba54 a2bd
000003f0: 11e3 aa3d 60e5 f53b 14c2 043d f0b9 213c
-0.00455682 0.07806032 -0.059598647 -0.023349546 0.084514655 0.035191134 0.04439237 0.011397749
0.044325925 0.076163836 -0.012864262 -0.04827012 0.06624938 0.077264465 -0.06718336 0.052080832
0.06309312 -0.032864835 -0.04151083 -0.08544348 0.057417206 0.030083627 0.061339714 -0.0085308775
-0.07112235 0.010613471 -0.075172506 0.042645685 0.0781387 -0.06974264 -0.08112127 -0.061495483
0.041897453 -0.025423951 -0.045280192 0.049434446 0.058396585 0.060443975 0.043240108 0.071504645
0.008721724 0.08454766 -0.0880881 -0.049099337 -0.0865407 -0.02450461 -0.06400415 -3.3646822e-05
-0.00091308355 0.045254357 -0.0333722 0.054555453 -0.008232988 -0.04991687 0.018093906 -0.022389315
-0.08567215 0.07326903 0.06896026 -0.02650179 -0.033018116 -0.021238305 0.062708594 0.04008413
-0.028675705 0.07487682 -0.07937573 0.07859143 0.02357544 -0.0067130774 -0.015180096 0.035959616
0.08008111 0.060472615 0.011459097 -0.041770298 0.0036436692 0.08260987 -0.010887742 0.025518104
0.04609465 0.051995315 0.05153472 0.04051187 0.0309406 -0.079724334 -0.0557652 -0.063914716
-0.024560489 -0.0177162 -0.061579034 -0.0856456 0.05494409 0.060094513 -0.020694219 -0.015084304
0.04326228 0.005436018 -0.024992302 0.03706447 0.01469145 0.08342945 0.038254716 -0.012920782
-0.0700951 -0.04852827 -0.0154109225 -0.0529672 -0.047992025 -0.079793654 -0.029148959 -0.06568128
0.002989024 -0.059816673 0.0555327 0.07999352 -0.040972438 -0.03542377 0.021443978 0.0785043
0.015603676 0.02248688 -0.049564093 0.07113985 -0.08041297 -0.010145135 -0.021320753 0.019165128
0.07155963 -0.07719191 -0.018323861 -0.01762829 -0.044370357 -0.060485013 0.0012714341 -0.04837163
-0.009274796 -0.061523505 -0.0002368316 -0.04947235 -0.076224 0.07379822 -0.081268124 -0.032403402
0.034778558 -0.02873025 0.076376416 -0.08249221 0.028761707 0.011749469 0.06951695 0.05176311
0.08598334 0.02980864 0.009257764 0.08421392 -0.06916372 -0.023121446 0.042971395 -0.0041369423
-0.020217359 0.016566597 0.03786383 -0.012452863 -0.024623662 -0.06407009 0.011608414 -0.08470769
0.017649248 -0.0031077191 0.06840145 0.006395489 0.031894185 -0.033053096 -0.021718577 -0.017388739
-0.037649527 0.07765678 0.072661676 0.0074425936 0.08430844 -0.07880908 0.04533883 0.0039298534
-0.04763973 -0.03551403 -0.045841936 0.03189724 -0.053078286 0.08569192 0.056384943 0.01809284
5.789846e-05 0.037717618 0.026096798 -0.06157053 0.04322017 0.048613302 -0.05629491 0.016487375
-0.079114765 0.031594492 -0.019244365 0.013982214 -0.0849464 -0.070095636 -0.08803006 0.02424372
0.08687601 -0.072319835 -0.01154276 -0.06498667 0.03080298 0.050763987 0.030147187 -0.037702505
0.02005624 -0.080342114 -0.024498709 -0.005114913 0.029112272 -0.00071760267 -0.031826224 -0.04349952
0.055923693 -0.05272733 -0.019003905 -0.0785004 0.067157544 0.07165346 0.07760707 -0.052695867
0.013234869 -0.024830095 -0.060173444 0.059092678 0.021749593 -0.06452979 0.07006884 0.011712737
0.04006154 0.06187763 0.037569158 -0.07004542 -0.020587765 0.064565755 -0.07454159 -0.022011653
0.02236668 0.019584894 -0.03702118 -0.079263166 0.08344091 0.0075041503 0.03241165 0.009870991

fc3.bias f4 [3]
00000000: c044 21bd 989f 253c 9d27 983d
-0.039372206 0.010108851 0.07429431
