runs/pretrain/2024070701/model.pth (torch, 431456 bytes, 20 tensors)

fc1.weight f4 [256, 17]
-0.21683337 0.2731294 -0.25760114 -0.08489141 0.022094825 0.016505785 -0.0069944416 0.30289036
0.1476681 -0.24840336 -0.18228625 -0.08522703 -0.20489621 -0.15181902 -0.09428096 0.24101804
0.05679272 0.06511576 -0.39521775 0.038238335 -0.05598405 -0.0040234444 0.060604766 0.020742673
-0.05684016 0.06587445 0.07848522 0.036888205 0.41505334 0.14803605 0.20981418 0.11780913
-0.035892174 -0.43785006 0.12745993 -0.31572893 0.14756997 -0.037944287 -0.08224802 0.22440946
0.016995167 -0.12311335 -0.12960915 0.06837616 -0.06523949 0.32201675 0.22867794 0.30140066
0.019303702 -0.14466792 0.095931016 -0.26328143 -0.07184626 0.07074959 -0.020503389 0.01475616
-0.15067464 -0.20741767 0.08875025 0.0014993721 0.18124402 -0.32875317 0.4340377 0.26034358
0.19970767 -0.11042116 -0.15449208 -0.06605524 -0.08844436 0.067889065 0.09541711 0.0045254366
-0.16771472 -0.07656672 0.21871254 -0.35148525 -0.10976372 -0.13281143 0.026245914 -0.13309868
-0.2984637 -0.44490907 0.15728118 -0.102154076 0.087156564 0.2879174 -0.16670167 0.17225295
0.21480106 0.17789726 -0.0051440075 0.157125 -0.263055 0.15483971 0.20784998 -0.1863113
0.013182876 -0.03506449 -0.52515 -0.094547674 0.21141106 -0.24412163 0.07722087 0.06756065
-0.00060357834 -0.23592639 0.19507834 -0.0548974 -0.19762535 0.17665394 0.06402024 -0.0041405046
0.07591282 0.31553477 0.2680248 0.14139642 0.11808242 -0.24586783 -0.11003322 -0.07436897
0.016727127 0.17894404 -0.10781958 0.017384844 -0.20805153 -0.045702092 -0.09030719 0.15179707
0.37347192 0.13833033 -0.1688278 0.2935487 0.65774995 -0.05870598 0.012704538 0.30657196
0.29982752 0.25291696 -0.21109557 -0.11159044 -0.2178754 -0.0668586 0.10786778 0.015749358
-0.063345596 -0.18128169 0.22086246 -0.064048015 -0.23652536 -0.46584848 -0.11593781 -0.056548137
-0.08017624 -0.16842653 0.34860128 0.12389593 -0.20604336 -0.094527274 0.074048 0.14597659
-0.21736644 -0.11320291 -0.08289181 -0.1087402 0.08587816 -0.55500627 -0.061781786 -0.15426786
-0.030308498 -0.34094915 0.32910427 0.03784539 -0.26015174 0.1241521 -0.19932428 -0.30242217
0.010902939 -0.0055630044 -0.23312336 -0.03248217 0.040549736 -0.10702806 -0.4001003 -0.49373323
-0.15035182 0.122441985 0.26489037 0.20325364 -0.055459984 0.017216247 0.111585766 0.094687626
0.226446 0.14537467 0.19885346 0.13775338 -0.09952911 -0.12079059 0.200093 0.19336447
-0.21886675 0.29519784 -0.05732225 -0.2851394 -0.038235303 0.27584285 0.2735933 -0.19692013
0.12822829 0.11223587 0.06749478 0.028498903 0.17045021 0.09328084 -0.33182552 -0.27162796
0.25057095 0.071434155 -0.27150637 0.040874224 0.11590102 -0.11525191 -0.1157732 0.12731755
0.30305853 0.04731507 0.12707122 -0.07531894 0.054875758 -0.23696746 -0.11990473 -0.042824373
-0.15360089 0.20242408 -0.09317298 0.034401078 -0.124443054 0.28782615 0.05476247 0.13449492
-0.06338844 0.10359682 -0.032258973 0.06023277 -0.020572646 0.16730787 0.06913147 0.024620168
-0.08172033 0.30913496 0.23320614 0.3729777 -0.30264226 -0.08805484 -0.18021718 -0.022258392
00000000: 9109 5ebe 9ed7 8b3e 4ce4 83be 8cdb adbd
00000010: 3500 b53c 2437 873c a131 e5bb 7214 9b3e
00000020: 4e36 173e 735d 7ebe 3fa9 3abe 828b aebd
00000030: 50d0 51be 7276 1bbe 6016 c1bd 6fcd 763e
00000040: 7c9f 683d 695b 853d fb59 cabe cd9f 1c3d
00000050: 884f 65bd 19d7 83bb b43c 783d 8aec a93c
00000060: 3ad1 68bd 2fe9 863d dcbc a03d 1618 173d
00000070: df81 d43e c396 173e 87d9 563e ea45 f13d
00000080: ac03 13bd e22d e0be db84 023e 39a7 a1be
00000090: 951c 173e 786b 1bbd a671 a8bd 98cb 653e
000000a0: 7339 8b3c da22 fcbd 43b8 04be cd08 8c3d
000000b0: 489c 85bd 61df a43e 8d2a 6a3e 3051 9a3e
000000c0: cc22 9e3c d423 14be 7b77 c43d d3cc 86be
000000d0: 2224 93bd 29e5 903d b9f6 a7bc d2c3 713c
000000e0: 744a 1abe 4c65 54be b1c2 b53d 9486 c43a
000000f0: 0898 393e 5652 a8be 303a de3e c14b 853e
00000100: 2b80 4c3e 7d24 e2bd 2c33 1ebe f847 87bd
00000110: 5122 b5bd 6c09 8b3d 0c6a c33d 1d4a 943b
00000120: 68bd 2bbe 03cf 9cbd 2ef6 5f3e e0f5 b3be
00000130: cdcb e0bd b8ff 07be ac01 d73c 054b 08be
00000140: 3cd0 98be 1fcb e3be 510e 213e 2836 d1bd
00000150: 247f b23d e969 933e d8b3 2abe 1463 303e
00000160: cff4 5b3e b32a 363e 108f a8bb 60e5 203e
00000170: 25af 86be 4d8e 1e3e a0d6 543e 64c8 3ebe
00000180: fdfc 573c c89f 0fbd 3b70 06bf 36a2 c1bd
00000190: 247c 583e 05fb 79be fa25 9e3d 3d5d 8a3d
000001a0: 7539 1eba b096 71be 9ec2 473e 19dc 60bd
000001b0: 4d5e 4abe c5e4 343e 0b1d 833d 12ad 87bb
000001c0: 2e78 9b3d c68d a13e 8c3a 893e 39ca 103e
000001d0: 32d5 f13d c7c4 7bbe 1959 e1bd c24e 98bd
000001e0: 5407 893c 1b3d 373e 83d0 dcbd a96a 8e3c
000001f0: 760b 55be 1e32 3bbd faf2 b8bd b170 1b3e
00000200: b637 bf3e 77a6 0d3e 32e1 2cbe 044c 963e
00000210: 4d62 283f af75 70bd b226 503c 00f7 9c3e
00000220: fe82 993e 557e 813e 7029 58be 8789 e4bd
00000230: bb1a 5fbe 29ed 88bd c8e9 dc3d cc04 813c
00000240: 56bb 81bd e8a1 39be c529 623e 9b2b 83bd
00000250: b433 72be b183 eebe cd70 edbd 059f 67bd
00000260: 7133 a4bd 0178 2cbe de7b b23e 26bd fd3d
00000270: 08fd 52be 8497 c1bd 7aa6 973d e37a 153e
00000280: 4f95 5ebe edd6 e7bd 2ec3 a9bd 2fb3 debd
00000290: e4e0 af3d e414 0ebf e60e 7dbd 65f8 1dbe
000002a0: 8749 f8bc e390 aebe 5b80 a83e c503 1b3d
000002b0: 9c32 85be 7543 fe3d aa1b 4cbe 14d7 9abe
000002c0: 3ea2 323c dd49 b6bb e4b7 6ebe 060c 05bd
000002d0: 7b17 263d 8731 dbbd f2d9 ccbe 9aca fcbe
000002e0: d4f5 19be ddc2 fa3d b69f 873e b921 503e
000002f0: 022a 63bd 1609 8d3c 1487 e43d 96eb c13d
00000300: 76e1 673e 19dd 143e 3ea0 4b3e 390f 0d3e
00000310: ebd5 cbbd 0f61 f7bd 2ee5 4c3e 5601 463e
00000320: 9b1e 60be 2c24 973e bcca 6abd cbfd 91be
00000330: 9f9c 1cbd 463b 8d3e 6c14 8c3e 6ea5 49be
00000340: 474e 033e ebdb e53d b43a 8a3d 8876 e93c
00000350: 808a 2e3e 060a bf3d 09e5 a9be d212 8bbe
00000360: d64a 803e 124c 923d e202 8bbe bb6b 273d
00000370: 845d ed3d 3209 ecbd 801a edbd 885f 023e
00000380: 7d2a 9b3e 72cd 413d f51e 023e d140 9abd
00000390: 67c5 603d 99a7 72be 9c90 f5bd 9c68 2fbd
000003a0: 8d49 1dbe 4248 4f3e 7ad1 bebd 25e8 0c3d
000003b0: 00dc febd f35d 933e 9d4e 603d 09b9 093e
000003c0: ccd1 81bd 922a d43d fc21 04bd a3b6 763d
000003d0: f787 a8bc c152 2b3e cd94 8d3d 3cb0 c93c
000003e0: fd5c a7bd f046 9e3e 97cd 6e3e eff6 be3e
000003f0: edf3 9abe 1956 b4bd da8a 38be 3b57 b6bc

fc1.bias f4 [256]
-0.1227216 -0.21898481 -0.013814429 -0.18281904 0.07624604 -0.15700942 -0.16451214 0.23585227
-0.02776767 -0.037223116 -0.06250142 0.026378538 0.055848133 -0.04839571 0.081991345 -0.020497978
0.10020558 0.20888595 0.250689 0.23389278 -0.008422423 -0.119101636 -0.17437299 0.049227845
0.2240178 0.067223236 0.055386458 0.1541692 0.21010435 -0.23885942 -0.08058218 0.059205554
0.031927153 0.023438789 0.059450958 0.19511475 -0.18144837 0.006631116 -0.054716654 0.18503109
-0.10093066 -0.20715153 0.23496214 0.16035116 -0.13080297 -0.06348885 0.02790862 0.11134364
0.24200976 0.061652996 0.15648124 -0.06646022 -0.024771607 -0.100183815 -0.13620386 0.08580456
0.017041981 -0.0013899233 -0.18938382 0.2257727 0.11354825 -0.07096042 -0.03382868 0.05725649
0.22671959 0.18177369 0.11025152 -0.23117362 0.08939333 0.24082637 0.08803953 0.04719433
-0.21296403 0.2388764 0.16676143 0.047237646 -0.038067356 0.22464624 0.060413137 0.06122254
-0.1858052 0.2201871 -0.015402077 -0.22077134 -0.22314939 -0.024109244 -0.08470891 0.11632827
0.21031877 -0.015960045 0.14225976 0.15735535 0.03242333 -0.20844173 -0.03371018 -0.24035901
0.10684738 0.014050671 0.12993689 0.20706496 -0.08812049 0.056992322 -0.20427328 -0.064982176
0.21218063 0.2186332 0.06493306 -0.12623206 -0.21263392 -0.122401625 -0.19111004 0.15314698
0.17867386 0.18789351 0.11636779 -0.23367837 0.03905774 -0.21638273 0.04031089 0.18470511
0.12953353 -0.15034443 -0.099850364 -0.17781126 0.03887185 0.02822736 0.17110474 -0.035279084
-0.12372399 0.15004396 -0.16349566 -0.005838933 -0.13824369 -0.11381353 0.18378602 0.107352175
-0.06102901 0.13476498 -0.16491942 0.21659592 -0.09088137 0.13416284 0.17327966 0.0025709963
0.109406285 -0.011506065 0.03219512 -0.071830004 -0.037627395 -0.11958554 0.08902537 -0.19522616
0.14432336 -0.007707937 -0.061963186 -0.13988742 0.11999397 0.056550045 -0.15104531 0.15080203
-0.0841334 -0.08974251 -0.21858525 0.09343386 0.1177644 0.081601724 -0.22110416 -0.068565264
-0.057279553 0.21514568 0.063265465 0.020796569 -0.012767002 -0.021958044 -0.15638371 0.017750653
-0.19015166 0.1426349 0.14171055 -0.18607791 0.000110915535 -0.09372647 -0.20508787 -0.047128625
0.13422602 -0.122400336 0.2347684 -0.052085485 -0.184517 -0.01817901 0.24217954 0.23598726
0.00015734744 0.058960713 -0.14643046 -0.19053747 0.23482716 0.1828295 0.13468301 0.048320744
0.081999876 -0.21482794 -0.060210366 -0.12242533 -0.014547874 0.22044267 -0.10422895 0.14095552
-0.02626627 -0.19570774 -0.14382136 -0.20623386 0.18542054 -0.15267494 0.12584423 0.030562956
0.04252498 -0.11772161 0.25189802 0.04262394 0.06580057 -0.22504035 0.2054183 -0.11039998
-0.05459432 -0.019671751 -0.19746593 -0.039014596 -0.022950627 -0.06272219 -0.19875936 0.023002878
-0.004744399 0.112926 0.16533114 0.14148208 -0.016490582 0.1594192 -0.036254622 -0.084520735
-0.21165113 -0.23131593 0.09563892 0.2266391 -0.11179615 0.18105945 -0.12017042 -0.06065822
-0.24001144 0.19215196 -0.077868424 0.13407768 0.18790178 0.15853067 0.10248518 0.17524199
00000000: 7655 fbbd 8e3d 60be ea55 62bc ea34 3bbe
00000010: e226 9c3d 14c7 20be df75 28be 4283 713e
00000020: 0679 e3bc 4477 18bd bf00 80bd ce17 d83c
00000030: 03c1 643d 943a 46bd 14eb a73d 60eb a7bc
00000040: 9538 cd3d 33e6 553e 4f5a 803e 9781 6f3e
00000050: 34fe 09bc 8feb f3bd d58e 32be 23a3 493d
00000060: ec64 653e 56ac 893d e9dc 623d 88de 1d3e
00000070: 9825 573e 9097 74be 4508 a5bd 8681 723d
00000080: 0cc6 023d b402 c03c d982 733d 29cc 473e
00000090: 9acd 39be d549 d93b 921e 60bd ca78 3d3e
000000a0: bcb4 cebd 881f 54be ea99 703e 1833 243e
000000b0: 37f1 05be 7106 82bd 9ea0 e43c 2208 e43d
000000c0: 68d1 773e da87 7c3d 9e3c 203e 4c1c 88bd
000000d0: d3ed cabc 2c2d cdbd 0679 0bbe 4dba af3d
000000e0: a09b 8b3c 162e b6ba d5ed 41be f530 673e
000000f0: fc8b e83d b253 91bd f18f 0abd c885 6a3d
00000100: 2e29 683e e222 3a3e 8dcb e13d c7b8 6cbe
00000110: da13 b73d 309b 763e 124e b43d d74e 413d
00000120: 3e13 5abe 049c 743e 82c3 2a3e 437c 413d
00000130: 84ec 1bbd aa09 663e c473 773d 7cc4 7a3d
00000140: b843 3ebe ba78 613e fe58 7cbc e211 62be
00000150: 4681 64be c080 c5bc dd7b adbd 843d ee3d
00000160: ce5d 573e a4be 82bc 8bac 113e c321 213e
00000170: 53ce 043d c071 55be b013 0abd ac20 76be
00000180: cdd2 da3d c934 663c 2d0e 053e d608 543e
00000190: 8478 b4bd c870 693d 042d 51be 6015 85bd
000001a0: e145 593e 62e1 5f3e a0fb 843d fa42 01be
000001b0: b5bc 59be b4ad fabd 5ab2 43be 90d2 1c3e
000001c0: 48f6 363e 2867 403e 3c52 ee3d 6249 6fbe
000001d0: 02fb 1f3d 6f93 5dbe 081d 253d 5623 3d3e
000001e0: 70a4 043e e4f3 19be 597e ccbd 2814 36be
000001f0: 1738 1f3d 113d e73c 1536 2f3e cd80 10bd
00000200: 0163 fdbd 20a5 193e 686b 27be 8554 bfbb
00000210: c18f 0dbe 1117 e9bd 6732 3c3e 75db db3d
00000220: 8ef9 79bd d5ff 093e a3e0 28be 52cb 5d3e
00000230: 0320 babd fc61 093e 3970 313e 297e 283b
00000240: 6710 e03d ef83 3cbc 08df 033d 9c1b 93bd
00000250: 2f1f 1abd 43e9 f4bd ef52 b63d 5ee9 47be
00000260: 81c9 133e dd92 fcbb 1ccd 7dbd a63e 0fbe
00000270: 66bf f53d 05a1 673d 9fab 1abe d96b 1a3e
00000280: 224e acbd ecca b7bd d0d4 5fbe 405a bf3d
00000290: 762e f13d ce1e a73d 2169 62be f26b 8cbd
000002a0: f79d 6abd 264f 5c3e 5391 813d 915d aa3c
000002b0: b02c 51bc 5be1 b3bc 0d23 20be d169 913c
000002c0: 1eb7 42be e20e 123e 921c 113e 358b 3ebe
000002d0: 539b e838 aaf3 bfbd 8e02 52be f209 41bd
000002e0: 8c72 093e 07ad fabd 2167 703e 9757 55bd
000002f0: 06f2 3cbe 26ec 94bc eafd 773e a5a6 713e
00000300: a2fd 2439 ca80 713d def1 15be 411c 43be
00000310: 8876 703e a837 3b3e 58ea 093e f9eb 453d
00000320: 8def a73d dbfb 5bbe 259f 76bd 22ba fabd
00000330: 355a 6ebc b9bb 613e fd75 d5bd a556 103e
00000340: 5c2c d7bc 9c67 48be e845 13be f82e 53be
00000350: e2de 3d3e d256 1cbe 4fdd 003e 2a5f fa3c
00000360: ac2e 2e3d 0718 f1bd c7f8 803e 7196 2e3d
00000370: 73c2 863d fa70 66be 2d59 523e 6219 e2bd
00000380: 4b9e 5fbd a726 a1bc 8234 4abe c5cd 1fbd
00000390: f402 bcbc 7e74 80bd 9387 4bbe 8870 bc3c
000003a0: e776 9bbb bf45 e73d 914c 293e aee0 103e
000003b0: 4217 87bc c93e 233e ba7f 14bd 3519 adbd
000003c0: 13bb 58be 15de 6cbe 57de c33d 1514 683e
000003d0: 61f5 e4bd a667 393e e91b f6bd c174 78bd
000003e0: 8fc5 75be 7cc3 443e 7b79 9fbd a94b 093e
000003f0: 5369 403e dd55 223e c0e3 d13d a372 333e

bn1.weight f4 [256]
0.95302385 0.92631584 0.9640795 1.0162798 0.9769001 0.9692131 0.8079791 1.0062617
1.0088452 1.0808104 1.0324454 0.82816994 0.99896944 0.95072955 1.052282 1.0658616
0.99149907 1.2395889 0.8700483 1.0745108 0.96601593 0.7971767 1.0470445 0.851161
1.0005162 1.0178059 1.0014216 1.2078371 1.1276684 0.95966035 0.86208624 1.0479248
0.9571785 0.92654574 0.8698585 1.0359447 0.837508 1.1891282 0.9991753 0.92797744
0.86909384 0.9958368 1.0293924 0.89907336 0.9753676 0.89390206 0.9305568 0.8900723
1.0380373 1.0303987 0.9435955 0.75543636 1.0741688 0.9905345 0.9645068 0.93236226
1.0535845 0.9508768 0.8682077 0.82908404 1.0724026 1.0801785 1.0163538 1.111778
1.0617204 1.1066302 1.0220417 0.9344783 0.9247843 0.9321384 0.9490105 0.8989872
0.89095134 0.93855655 1.0547438 0.87041974 1.1908588 0.8746575 1.0319749 1.0225872
1.1141168 0.83744437 0.8189576 0.877181 1.0760297 0.97422045 1.075613 0.9257838
0.933452 0.9224177 0.94709706 1.1361307 1.07248 1.0898122 0.92199266 0.88947874
0.95707047 1.2021768 0.9113362 0.7340181 1.0033212 0.8693604 0.99470365 1.0286756
0.8480603 0.8658612 0.8507471 0.99831694 0.9598314 0.92549163 0.97717816 1.055047
0.74598324 0.89402217 1.0778415 1.2041897 0.9930614 1.049911 1.0999192 0.9275604
1.0539635 1.0275072 0.9237251 0.84684885 0.9379524 1.0258936 1.0822175 1.0415585
0.99793357 0.9558994 1.012531 0.96775055 1.0103294 1.1758738 0.9143389 1.1700553
0.8636783 1.0463732 0.9061021 1.0192261 0.7323187 0.9009651 0.8845149 0.91563994
1.1079485 1.0058144 0.92205566 1.17678 1.0108002 0.9234222 0.9411222 0.9567627
1.0825238 1.0420934 1.2149391 1.1345742 1.1610605 0.9820394 1.1144967 1.0534614
1.0433217 0.98951936 0.88831633 0.9372966 1.059341 0.9659159 1.2116919 0.90621406
1.0870034 1.0019379 1.1334726 1.0378749 1.0185579 1.0202436 0.9996741 0.9325259
0.7436452 1.1106249 0.9525464 1.0284061 1.0025604 1.0742393 0.93125576 1.0570139
1.0669782 0.9238612 1.0397737 1.0349692 0.7896169 1.0718156 1.0245191 0.8496813
1.0014738 0.9630043 1.0093317 0.9904956 1.3064438 1.0579305 0.96613175 0.98800415
0.99409133 0.8833109 1.1179439 0.90303093 0.898886 1.0538058 0.9360415 0.7128951
0.9384617 0.920103 0.9877327 0.8738904 0.88671494 1.1383494 1.0656681 0.9929487
0.78405195 1.1176438 0.9643444 1.1640582 1.0038147 0.8919785 1.1606855 0.8949065
0.9093625 0.9833491 1.1495707 0.81468785 0.9608365 0.9532545 0.8996443 0.9224597
0.97943187 1.2035706 0.9055154 0.9972424 0.906381 0.81107026 1.1318982 1.0626714
1.0840206 0.91518676 0.9553158 0.8344328 0.9333446 1.1155366 1.0381731 1.2878283
1.0290775 0.9227056 0.9281394 0.9408909 1.0199742 0.98672444 1.105466 1.1117
00000000: 5ff9 733f 0923 6d3f eacd 763f 7515 823f
00000010: 2016 7a3f 5a1e 783f b8d7 4e3f 2fcd 803f
00000020: d721 813f ff57 8a3f 2c27 843f f202 543f
00000030: 76bc 7f3f 0363 733f 2db1 863f 276e 883f
00000040: e2d2 7d3f d9aa 9e3f 7cbb 5e3f 9289 893f
00000050: d24c 773f c613 4c3f 8e05 863f b0e5 593f
00000060: ea10 803f 7747 823f 952e 803f 689a 9a3f
00000070: 7057 903f 4dac 753f afb1 5c3f 6622 863f
00000080: a609 753f 1a32 6d3f 0caf 5e3f d699 843f
00000090: ed66 563f 5a35 983f f4c9 7f3f ee8f 6d3f
000000a0: ef7c 5e3f 29ef 7e3f 21c3 833f ac29 663f
000000b0: b1b1 793f c4d6 643f f838 6e3f c7db 633f
000000c0: 68de 843f 1be4 833f 7a8f 713f 4764 413f
000000d0: 5d7e 893f ab93 7d3f ebe9 763f 4baf 6e3f
000000e0: dbdb 863f a96c 733f dc42 5e3f da3e 543f
000000f0: 7d44 893f 4a43 8a3f e217 823f be4e 8e3f
00000100: 74e6 873f 0fa6 8d3f 43d2 823f f839 6f3f
00000110: aabe 6c3f 9fa0 6e3f 5af2 723f 0624 663f
00000120: 6315 643f 3e45 703f d801 873f d4d3 5e3f
00000130: 106e 983f 8ee9 5f3f c117 843f 23e4 823f
00000140: 619b 8e3f c162 563f 35a7 513f ef8e 603f
00000150: 57bb 893f 8366 793f b0ad 893f 2b00 6d3f
00000160: b6f6 6e3f 9123 6c3f f474 723f bb6c 913f
00000170: 0647 893f f77e 8b3f b607 6c3f e1b4 633f
00000180: 9202 753f eee0 993f 544d 693f 9ce8 3b3f
00000190: d46c 803f 678e 5e3f e6a4 7e3f a4ab 833f
000001a0: 7b1a 593f 14a9 5d3f 90ca 593f b391 7f3f
000001b0: 83b7 753f 05ed 6c3f 5928 7a3f c80b 873f
000001c0: c2f8 3e3f a3de 643f b6f6 893f e322 9a3f
000001d0: 4639 7e3f 7c63 863f 27ca 8c3f 9974 6d3f
000001e0: 47e8 863f 5b85 833f 4079 6c3f 16cb 583f
000001f0: a61d 703f 7b50 833f 1a86 8a3f ca51 853f
00000200: 9378 7f3f d3b5 743f 9e9a 813f 80be 773f
00000210: 7952 813f 0883 963f 1d12 6a3f 5fc4 953f
00000220: 051a 5d3f 8fef 853f 4ff6 673f 0076 823f
00000230: 3d79 3b3f a6a5 663f 926f 623f 6167 6a3f
00000240: 42d1 8d3f 87be 803f d70b 6c3f baa0 963f
00000250: e761 813f 6665 6c3f 62ed 703f 66ee 743f
00000260: 2490 8a3f 5163 853f 2083 9b3f ba39 913f
00000270: a19d 943f ef66 7b3f d4a7 8e3f d3d7 863f
00000280: 918b 853f 2451 7d3f b368 633f acf2 6f3f
00000290: 7c98 873f 4446 773f b818 9b3f a5fd 673f
000002a0: ed22 8b3f 803f 803f a115 913f 16d9 843f
000002b0: 1b60 823f 5897 823f a4ea 7f3f 04ba 6e3f
000002c0: 885f 3e3f f528 8e3f 15da 733f d0a2 833f
000002d0: e653 803f ac80 893f c766 6e3f 3b4c 873f
000002e0: be92 883f 2b82 6c3f 4e17 853f df79 843f
000002f0: 5524 4a3f 4131 893f 7123 833f b784 593f
00000300: 4b30 803f 7387 763f c831 813f 1f91 7d3f
00000310: 8d39 a73f 446a 873f 6954 773f d7ed 7c3f
00000320: c57c 7e3f aa20 623f c918 8f3f 092d 673f
00000330: 651d 663f 1ce3 863f 6aa0 6f3f 4b80 363f
00000340: 073f 703f df8b 6b3f 0ddc 7c3f 48b7 5f3f
00000350: c0ff 623f 6fb5 913f d067 883f e331 7e3f
00000360: a1b7 483f f40e 8f3f 46df 763f dcff 943f
00000370: 007d 803f b458 643f 5891 943f 9818 653f
00000380: fbcb 683f c4bc 7b3f 2225 933f 628f 503f
00000390: 62f9 753f 7d08 743f 174f 663f 5226 6c3f
000003a0: 0cbc 7a3f 9a0e 9a3f dbcf 673f 474b 7f3f
000003b0: 9608 683f 4da2 4f3f 0ae2 903f 9e05 883f
000003c0: 30c1 8a3f ae49 6a3f 948f 743f 639d 553f
000003d0: acef 6e3f e7c9 8e3f dbe2 843f 8fd7 a43f
000003e0: d0b8 833f 6f36 6c3f 8b9a 6d3f 3ade 703f
000003f0: 848e 823f f999 7c3f e97f 8d3f 304c 8e3f

bn1.bias f4 [256]
-0.28673849 -0.32325318 -0.35297164 -0.30260208 -0.21909386 -0.14085603 -0.43454182 -0.1602279
-0.11466808 -0.059475016 -0.24840625 -0.28047645 -0.21484396 -0.26345375 -0.4114727 -0.08688555
-0.21335362 -0.3754569 -0.041504566 -0.2678332 -0.40926993 -0.31749842 -0.11366549 -0.3851017
-0.22485206 -0.3936749 -0.58941364 -0.34574616 -0.4809086 -0.2600305 -0.31170338 -0.28540477
-0.12425918 -0.113401994 -0.35651675 -0.0888333 -0.18956238 -0.50958145 -0.149593 -0.24304743
-0.27561402 -0.15054739 -0.2485138 -0.18498845 -0.1797795 -0.13771673 -0.07849122 -0.28903988
-0.290002 -0.25644234 -0.17773576 -0.1651959 -0.2520619 -0.26547673 -0.121245205 -0.28138822
-0.23707291 -0.20104183 -0.14476174 -0.2733062 -0.31258428 -0.2474882 -0.2380041 -0.23519853
-0.22112036 0.030825065 -0.0041248053 -0.3954676 -0.3668428 -0.18106861 -0.23922811 -0.25578555
-0.17658418 -0.2179814 -0.15122083 -0.056122664 -0.19566888 -0.21784413 -0.35141918 -0.0765572
0.032675356 -0.2516597 -0.21370031 -0.2720193 -0.12938869 -0.28175986 -0.205365 -0.084294535
-0.25831234 -0.3002996 -0.20945992 -0.33287016 -0.1325484 -0.09918935 -0.07146512 -0.0994452
-0.23498006 -0.04701375 -0.31769663 -0.15528624 -0.013010637 -0.5569741 -0.109150894 -0.4492988
-0.20540433 -0.14278731 -0.2124071 -0.19267051 -0.2062465 -0.08476594 -0.46604836 -0.22314994
-0.26059783 -0.3386731 -0.2366767 -0.15089847 -0.23561859 -0.09490458 -0.362612 -0.172346
-0.11096386 -0.2400996 -0.16498205 -0.2681315 -0.23385316 -0.31269658 -0.2180075 -0.20612036
-0.103345074 -0.3567535 -0.07210602 -0.44370204 -0.40406132 -0.10328977 -0.35509795 -0.05874984
-0.40693024 -0.2606683 -0.2908427 -0.19375181 -0.2911153 -0.19146232 -0.013195818 -0.1039448
0.020595198 -0.15898268 -0.17518774 -0.54341125 -0.31205872 -0.3220509 -0.21033077 -0.23584767
-0.19878751 -0.20715581 -0.52791643 -0.15783116 -0.34664336 -0.21054702 0.008817895 0.095831305
-0.33322412 -0.18369615 -0.14367557 -0.16517957 -0.45079902 -0.29481268 -0.2780924 -0.24543738
-0.27694464 -0.39822698 -0.25001624 -0.18773836 -0.14873016 -0.17075177 -0.24045983 -0.19382253
-0.35642293 -0.10518943 -0.16495846 -0.11733322 -0.20020154 -0.28989664 -0.10584658 -0.46831504
-0.10982242 -0.3153786 -0.49767706 -0.53224236 -0.2122927 -0.23217064 -0.17465639 -0.37487924
-0.11530263 -0.15117149 -0.63386685 -0.34001568 -0.21925575 -0.23139285 -0.52058667 -0.35388017
-0.08777338 -0.23854893 -0.23439647 -0.050439704 -0.24135894 -0.058075383 -0.22440617 -0.19237837
-0.17124672 -0.10152331 -0.12939343 -0.014868749 -0.26099586 -0.2594631 -0.14941385 -0.2628802
-0.29465014 -0.12309746 -0.24943185 -0.17433237 -0.24986483 -0.36537936 -0.6548055 -0.43321288
-0.393711 -0.28688663 -0.13582115 -0.2229959 -0.22829442 -0.26474097 -0.28858247 -0.26047915
-0.07641231 -0.46703833 -0.37813336 -0.1466556 -0.5966003 -0.42622396 -0.07381469 -0.1394196
-0.24671824 -0.19134371 -0.38625047 -0.20884126 -0.39383045 -0.21696346 -0.10452328 0.09312331
-0.4281101 -0.24808393 -0.32707813 -0.19999018 -0.04261665 -0.1746709 -0.19130509 -0.25328735
00000000: 63cf 92be 7181 a5be b3b8 b4be a9ee 9abe
00000010: 245a 60be 903c 10be 447c debe c812 24be
00000020: 19d7 eabd 139c 73bd 355e 7ebe 9c9a 8fbe
00000030: 0e00 5cbe 69e3 86be 8dac d2be 0df1 b1bd
00000040: 5f79 5abe e33b c0be b100 2abd 6f21 89be
00000050: d48b d1be 278f a2be 74c9 e8bd 0d2c c5be
00000060: 9e3f 66be c28f c9be d0e3 16bf a405 b1be
00000070: a739 f6be b822 85be 9697 9fbe 9320 92be
00000080: 997b febd 4e3f e8bd 5d89 b6be 3cee b5bd
00000090: a41c 42be ee73 02bf e82e 19be 6de1 78be
000000a0: 481d 8dbe 1829 1abe 677a 7ebe 9d6d 3dbe
000000b0: 1e18 38be 9d05 0dbe 01c0 a0bd 09fd 93be
000000c0: 247b 94be 694c 83be 5d00 36be 1d29 29be
000000d0: 420e 81be 91ec 87be 684f f8bd 1e12 90be
000000e0: 3ec3 72be e9dd 4dbe 6c3c 14be caee 8bbe
000000f0: 0c0b a0be 8c6d 7dbe 59b7 73be e2d7 70be
00000100: 606d 62be d984 fc3c 6029 87bb bb7a cabe
00000110: d2d2 bbbe 0d6a 39be 37f8 74be 53f6 82be
00000120: 7cd2 34be 8436 5fbe a2d9 1abe e1e0 65bd
00000130: 6c5d 48be 8812 5fbe 37ed b3be 05ca 9cbd
00000140: 98d6 053d 8ad9 80be 41d4 5abe 1d46 8bbe
00000150: 787e 04be d442 90be 344b 52be 9da2 acbd
00000160: 8441 84be dfc0 99be a97c 56be f56d aabe
00000170: c5ba 07be c923 cbbd 4e5c 92bd eda9 cbbd
00000180: 9d9e 70be 7d91 40bd 22a9 a2be 5b03 1fbe
00000190: 912a 55bc db95 0ebf 818a dfbd 7e0a e6be
000001a0: 8355 52be d636 12be 3f81 59be 6b4b 45be
000001b0: 4832 53be c499 adbd e49d eebe 6b81 64be
000001c0: 146d 85be 9066 adbe 605b 72be 2185 1abe
000001d0: 0046 71be 555d c2bd 48a8 b9be 787b 30be
000001e0: 0541 e3bd abdc 75be 0ef1 28be 8848 89be
000001f0: 3477 6fbe c419 a0be 5c3d 5fbe 3711 53be
00000200: 95a6 d3bd 65a8 b6be 52ac 93bd ea2c e3be
00000210: 20e1 cebe 9689 d3bd 66cf b5be aca3 70bd
00000220: 2959 d0be 5176 85be 56e9 94be e066 46be
00000230: 110d 95be b30e 44be 4633 58bc 03e1 d4bd
00000240: 43b7 a83c 5bcc 22be 6a64 33be 001d 0bbf
00000250: 29c6 9fbe dbe3 a4be f360 57be 0d82 71be
00000260: f48e 4bbe a720 54be 8825 07bf 7e9e 21be
00000270: 3d7b b1be a399 57be ef78 103c 3443 c43d
00000280: 5a9c aabe d81a 3cbe b01f 13be d524 29be
00000290: 21cf e6be b0f1 96be 2162 8ebe f053 7bbe
000002a0: b0cb 8dbe 68e4 cbbe 2102 80be 7c3e 40be
000002b0: b84c 18be 8dd9 2ebe 1a3b 76be 6a79 46be
000002c0: 117d b6be 8e6d d7bd dfea 28be 664c f0bd
000002d0: a201 4dbe 556d 94be 17c6 d8bd fdc6 efbe
000002e0: 94ea e0bd 4e79 a1be 87cf febe 0941 08bf
000002f0: 4263 59be 24be 6dbe 20d9 32be 2cf0 bfbe
00000300: c923 ecbd b3cc 1abe 1945 22bf 8916 aebe
00000310: 9484 60be 3ff2 6cbe 2b45 05bf c82f b5be
00000320: 88c2 b3bd 2c46 74be a105 70be dd99 4ebd
00000330: cc26 77be 74e0 6dbd bbca 65be d6fe 44be
00000340: 4d5b 2fbe 74eb cfbd b67f 04be 0e9c 73bc
00000350: 40a1 85be 59d8 84be f2ff 18be 3c98 86be
00000360: 62dc 96be 851a fcbd 106b 7fbe 2f84 32be
00000370: 91dc 7fbe 0113 bbbe 55a1 27bf 14ce ddbe
00000380: 7d94 c9be cee2 92be b314 0bbe 0a59 64be
00000390: 03c6 69be 218c 87be 15c1 93be 865d 85be
000003a0: 0f7e 9cbd a61f efbe b29a c1be e32c 16be
000003b0: ccba 18bf 073a dabe 282c 97bd 03c4 0ebe
000003c0: b5a3 7cbe 9bef 43be 9fc2 c5be 7cda 55be
000003d0: 25a4 c9be ab2b 5ebe 4d10 d6bd 6fb7 be3d
000003e0: 3f31 dbbe b709 7ebe c976 a7be 3aca 4cbe
000003f0: cc8e 2ebd eedc 32be 7be5 43be e1ae 81be

bn1.running_mean f4 [256]
-5.8016906 0.49853212 1.298201 -8.1145935 -0.74584013 12.624451 4.5406227 -7.3279476
1.6964377 3.5563197 -5.894819 19.482 2.5899417 1.7357022 3.1497502 -12.775499
1.5565362 -1.0154318 -12.390182 5.634445 -1.7094648 4.2288384 0.7192005 -1.7796806
-4.7339516 9.418963 12.1040325 2.448953 10.339926 1.4585029 -3.506745 8.426635
-8.702311 8.147687 14.144563 2.128276 -2.4978507 -2.656761 -5.2908955 -6.4614086
13.059336 2.736368 0.48894492 -5.9229546 2.2324736 3.7845712 5.170491 4.790175
11.73192 -3.4923444 -6.47252 5.7674875 4.5880184 -1.872025 -9.898291 -8.410086
-4.1041284 -5.708277 -4.2056336 12.885558 2.2014618 -0.4053219 -2.852409 3.950047
4.8135505 -5.716438 2.4769874 6.097229 9.180362 0.10065247 7.249943 -4.79543
6.1449175 1.7734504 -9.864779 -3.7678874 -5.428617 -1.616389 2.3393803 -4.1829605
-5.201257 -1.1694041 -8.404116 7.589939 -6.8782296 1.7647768 8.968018 1.7903228
7.904736 7.6868534 12.114397 4.9872074 11.034889 -3.0791943 2.3715465 -2.3225582
1.2436594 -0.32892603 5.4053583 -7.4443846 -6.2572794 -0.7500013 -5.025583 3.5804505
22.126326 4.3441334 -9.586205 -3.8771307 4.425251 13.272713 -2.5530832 3.6380253
-20.792494 8.479496 -2.7462962 -3.0044332 -0.68080825 -6.934309 8.2375555 1.490146
6.756394 -1.0405971 -6.13617 27.451693 -0.30821815 -7.2401085 -0.6626335 -2.2479606
2.0706568 6.997988 -19.803404 -2.0079858 0.23185618 -5.9777265 -3.7403953 0.2372748
-2.4047618 10.392202 0.0065765744 -5.9716654 -6.9228134 -1.6822617 6.4930964 -6.442529
-2.8649967 6.3998218 8.010727 8.588841 -2.7206132 -2.1641784 -2.6978674 1.7347975
5.061415 4.903919 0.61787266 5.255046 -6.8441668 -3.2426686 -0.20312205 4.9704103
-0.7474227 18.471977 19.230703 3.4108212 1.6113327 -0.28673628 4.8315887 12.365324
10.888499 5.7488246 2.5016558 -13.255677 2.6933317 2.7246232 2.2735915 15.323456
-3.7472491 -2.6240087 -13.796668 0.4080626 -4.291032 2.3018532 -0.42941216 12.40984
-5.8959165 -4.708959 3.1087697 4.111425 19.654512 -2.6017356 3.3391752 4.1474543
-4.0800776 -1.1397623 0.37034574 -2.3078952 1.1845883 8.988928 0.5066482 -3.173738
1.7858748 -0.40418395 7.975479 11.429808 0.9080259 -10.550799 -0.46641567 -6.8672466
-1.2246314 -1.3127646 10.739116 -12.476632 -2.597007 5.3869767 -9.594681 -5.753901
1.8279617 -5.346664 -6.3026977 -1.6179154 2.9221797 -8.108389 6.807849 6.9860554
3.2513728 -3.9054263 3.6424527 -13.185457 -6.8877225 4.497979 -4.8717737 8.749128
-6.7407928 9.847367 9.305092 -10.496771 1.2301522 -0.1751697 -0.35309893 6.5075912
2.162466 13.325609 5.8883924 -5.585659 2.548056 -5.8448834 -2.8201053 -5.938679
3.607544 -2.1951618 2.262297 0.2108874 -11.266752 6.336306 1.4936432 -2.866784
00000000: 73a7 b9c0 9a3f ff3e 732b a63f 60d5 01c1
00000010: 61ef 3ebf c0fd 4941 c84c 9140 8c7e eac0
00000020: df24 d93f be9a 6340 5ba2 bcc0 23db 9b41
00000030: 9bc1 2540 7d2b de3f 8295 4940 7268 4cc1
00000040: 943c c73f abf9 81bf 2f3e 46c1 604d b440
00000050: becf dabf a552 8740 861d 383f 93cc e3bf
00000060: 887c 97c0 13b4 1641 1eaa 4141 a5bb 1c40
00000070: 5670 2541 39b0 ba3f 836e 60c0 7fd3 0641
00000080: aa3c 0bc1 ed5c 0241 2150 6241 ad35 0840
00000090: c9dc 1fc0 5f08 2ac0 044f a9c0 dcc3 cec0
000000a0: 0af3 5041 a720 2f40 fd56 fa3e d888 bdc0
000000b0: d9e0 0e40 6a36 7240 aa74 a540 1d49 9940
000000c0: f2b5 3b41 9282 5fc0 e21e cfc0 428f b840
000000d0: 0cd1 9240 849e efbf 665f 1ec1 b68f 06c1
000000e0: 0555 83c0 35aa b6c0 8d94 86c0 3f2b 4e41
000000f0: c0e4 0c40 5a86 cfbe de8d 36c0 92cd 7c40
00000100: 9b08 9a40 0fed b6c0 f686 1e40 801c c340
00000110: c3e2 1241 e222 ce3d 88ff e740 2a74 99c0
00000120: 2aa3 c440 6c00 e33f 23d6 1dc1 1125 71c0
00000130: 3bb7 adc0 d6e5 cebf 68b8 1540 d0da 85c0
00000140: b370 a6c0 09af 95bf 4277 06c1 c8e0 f240
00000150: 751a dcc0 35e4 e13f 007d 0f41 4c29 e53f
00000160: 99f3 fc40 b4fa f540 92d4 4141 3497 9f40
00000170: e88e 3041 8511 45c0 6bc7 1740 cba4 14c0
00000180: 3b30 9f3f fe68 a8be b2f8 ac40 6638 eec0
00000190: a23b c8c0 1600 40bf 93d1 a0c0 1a26 6540
000001a0: b702 b141 2403 8b40 1861 19c1 e922 78c0
000001b0: a89b 8d40 085d 5441 b765 23c0 68d5 6840
000001c0: 0757 a6c1 04ac 0741 51c3 2fc0 a248 40c0
000001d0: 7349 2ebf dce5 ddc0 07cd 0341 1bbd be3f
000001e0: 6134 d840 4932 85bf 815b c4c0 119d db41
000001f0: c5ce 9dbe f8ae e7c0 59a2 29bf 96de 0fc0
00000200: a485 0440 85ef df40 5f6d 9ec1 d782 00c0
00000210: b56b 6d3e 8949 bfc0 a362 6fc0 2af8 723e
00000220: 9ee7 19c0 7646 2641 4e80 d73b e217 bfc0
00000230: b087 ddc0 5a54 d7bf 72c7 cf40 3329 cec0
00000240: 1b5c 37c0 57cb cc40 f02b 0041 e56b 0941
00000250: 871e 2ec0 e681 0ac0 dca9 2cc0 d80d de3f
00000260: 1df7 a140 e8ec 9c40 e72c 1e3f 5629 a840
00000270: 6a03 dbc0 e287 4fc0 3aff 4fbe 9a0d 9f40
00000280: 1857 3fbf 9cc6 9341 7bd8 9941 e54a 5a40
00000290: 2640 ce3f 19cf 92be 609c 9a40 5ed8 4541
000002a0: 4b37 2e41 5ff6 b740 211b 2040 4117 54c1
000002b0: 8c5f 2c40 3a60 2e40 8682 1140 e02c 7541
000002c0: eed2 6fc0 c2ef 27c0 27bf 5cc1 95ed d03e
000002d0: 2250 89c0 9051 1340 e9db dbbe b48e 4641
000002e0: 59ab bcc0 cbaf 96c0 15f6 4640 cb90 8340
000002f0: 713c 9d41 d682 26c0 0cb5 5540 f2b7 8440
00000300: ff8f 82c0 bbe3 91bf f59d bd3e 8eb4 13c0
00000310: 97a0 973f a6d2 0f41 b2b3 013f 861e 4bc0
00000320: 8c97 e43f 33f1 cebe 2037 ff40 7ee0 3641
00000330: 6374 683f 13d0 28c1 09ce eebe 7cc0 dbc0
00000340: b9c0 9cbf ac08 a8bf 6bd3 2b41 49a0 47c1
00000350: 5d35 26c0 1d62 ac40 d083 19c1 f51f b8c0
00000360: a6fa e93f df17 abc0 b3af c9c0 da17 cfbf
00000370: fe04 3b40 f6bb 01c1 e6d9 d940 c48d df40
00000380: 7e16 5040 81f2 79c0 f21d 6940 a2f7 52c1
00000390: 3968 dcc0 72ef 8f40 92e5 9bc0 6efc 0b41
000003a0: 93b4 d7c0 d18e 1d41 a8e1 1441 c6f2 27c1
000003b0: a175 9d3f b05f 33be 62c9 b4be 303e d040
000003c0: d865 0a40 b235 5541 b66d bc40 b8bd b2c0
000003d0: 5913 2340 4909 bbc0 9b7c 34c0 a909 bec0
000003e0: 00e2 6640 887d 0cc0 79c9 1040 def2 573e
000003f0: 9e44 34c1 05c3 ca40 b32f bf3f 6479 37c0

bn1.running_var f4 [256]
7.9444513 21.902418 14.275855 19.66185 7.3753357 17.046299 15.215357 7.609725
7.4048867 11.586256 5.754792 54.69151 25.702055 8.579886 8.528326 6.1539226
13.936288 9.975648 13.597699 12.925851 11.408565 19.087196 6.3524117 13.472561
13.361288 8.2409725 8.317762 8.696787 7.747787 14.423641 9.579589 15.864505
53.49389 37.31651 55.65606 10.18544 6.717944 13.871898 8.92138 7.9722977
24.294844 8.600817 16.060835 14.735589 12.525926 11.332166 27.61982 12.08636
14.577267 6.9307394 38.173668 22.575636 13.093488 9.828467 14.614629 6.46061
8.692628 8.212753 35.023262 52.44972 11.413404 11.2505245 14.366851 4.007228
6.813198 11.724308 13.746147 18.467606 9.935697 19.275234 11.787776 8.747639
15.998666 5.615486 9.9165125 23.491018 4.1614585 17.19788 6.926747 21.653618
3.6643877 23.02423 11.423703 8.250303 5.065034 4.3949327 8.250178 19.341063
15.59706 32.08568 9.734162 14.473325 9.665853 5.9143686 22.173964 10.950932
12.080034 7.4367824 32.4891 27.185568 8.652902 6.557388 9.789052 10.477906
53.630806 23.616238 21.114119 6.000478 9.873021 40.428883 15.720128 10.695949
91.68678 19.347967 4.713401 6.7888327 10.155467 7.4753146 9.245089 16.40695
14.214835 13.178806 16.349398 72.24113 8.347041 10.247119 5.1201143 11.135634
7.6587834 7.578796 4.692248 12.059095 9.432424 5.283979 28.34552 14.185676
27.591759 7.288609 5.5050097 13.052862 24.486603 6.6539493 13.239613 10.377909
8.028323 6.378524 16.75423 14.441123 43.420868 14.51756 24.959763 11.925554
14.732426 8.785265 7.2260814 13.7293415 7.2920384 5.359953 10.767043 11.676498
12.07787 29.868277 42.3599 5.142981 7.657746 2.0385697 4.4695225 30.822552
8.332354 12.994319 6.7578063 6.8975816 19.65519 4.580763 16.787157 16.387556
15.833128 6.633837 48.72445 9.593082 11.129973 10.292188 36.069893 13.052558
16.025545 14.321658 10.740671 14.795582 42.63505 31.567091 9.9862 9.187824
8.883513 9.782751 14.508434 4.1924787 9.389694 8.036593 16.73189 19.872007
8.2455225 23.024836 13.293958 24.525597 26.328966 16.104256 15.314959 20.504559
10.9594345 8.1529045 17.039127 35.04058 17.522915 7.99014 9.739498 4.776366
8.681091 16.964535 15.980405 8.931515 16.875362 7.7292414 8.051813 15.177499
3.2895465 13.412201 10.6066475 19.375362 11.934838 10.948638 21.583302 8.490272
30.217314 18.820742 21.797718 10.280791 11.239814 31.992931 7.2172866 6.096827
7.3889847 18.277325 5.2740054 14.623394 6.4582143 11.6896925 3.7716882 4.8021784
6.888439 18.645695 12.219595 23.561623 13.1106825 17.864437 4.9726305 9.260071
00000000: f238 fe40 2738 af41 e769 6441 784b 9d41
00000010: c002 ec40 d25e 8841 1a72 7341 de82 f340
00000020: d5f4 ec40 4e61 3941 4227 b840 1bc4 5a42
00000030: cf9d cd41 3747 0941 0674 0841 efec c440
00000040: 09fb 5e41 419c 1f41 2d90 5941 49d0 4e41
00000050: 7b89 3641 94b2 9841 f546 cb40 9c8f 5741
00000060: d6c7 5541 06db 0341 8e15 0541 0a26 0b41
00000070: dfed f740 3cc7 6641 ff45 1941 03d5 7d41
00000080: bef9 5542 1b44 1542 ce9f 5e42 90f7 2241
00000090: 66f9 d640 4bf3 5d41 f9bd 0e41 101d ff40
000000a0: d75b c241 f29c 0941 977c 8041 f9c4 6b41
000000b0: 316a 4841 8d50 3541 64f5 dc41 bb61 4141
000000c0: 7c3c 6941 9ec8 dd40 d6b1 1842 e79a b441
000000d0: ed7e 5141 6741 1d41 85d5 6941 51bd ce40
000000e0: 0115 0b41 7067 0341 d217 0c42 83cc 5142
000000f0: 4e9d 3641 2602 3441 9fde 6541 363b 8040
00000100: b805 da40 c496 3b41 38f0 5b41 a8bd 9341
00000110: 9df8 1e41 ae33 9a41 bb9a 3c41 54f6 0b41
00000120: 89fa 7f41 10b2 b340 09aa 1e41 9bed bb41
00000130: ab2a 8540 4295 8941 e9a7 dd40 9c3a ad41
00000140: 5485 6a40 9f31 b841 7dc7 3641 3e01 0441
00000150: c214 a240 4aa3 8c40 bb00 0441 7fba 9a41
00000160: 8f8d 7941 bc57 0042 21bf 1b41 bd92 6741
00000170: 55a7 1a41 8242 bd40 4764 b141 0437 2f41
00000180: d247 4141 1ffa ed40 d7f4 0142 0b7c d941
00000190: 4972 0a41 1fd6 d140 f59f 1c41 81a5 2741
000001a0: f285 5642 0eee bc41 b7e9 a841 ea03 c040
000001b0: e5f7 1d41 2db7 2142 a585 7b41 9b22 2b41
000001c0: a25f b742 a3c8 9a41 2ed4 9640 1e3e d940
000001d0: cb7c 2241 c735 ef40 e2eb 1341 6f41 8341
000001e0: f76f 6341 64dc 5241 91cb 8241 757b 9042
000001f0: 7b8d 0541 33f4 2341 fad7 a340 8f2b 3241
00000200: c114 f540 7f85 f240 e526 9640 0ef2 4041
00000210: 35eb 1641 5b16 a940 a0c3 e241 87f8 6241
00000220: ecbb dc41 493c e940 0a29 b040 86d8 5041
00000230: 90e4 c341 27ed d440 74d5 5341 ea0b 2641
00000240: 0374 0041 de1c cc40 aa08 8641 d70e 6741
00000250: f8ae 2d42 ed47 6841 98ad c741 12cf 3e41
00000260: 04b8 6b41 7290 0c41 0f3c e740 62ab 5b41
00000270: 6158 e940 bc84 ab40 cf45 2c41 f0d2 3a41
00000280: f53e 4141 3bf2 ee41 8a70 2942 4d93 a440
00000290: 410c f540 ed77 0240 5406 8f40 9694 f641
000002a0: 5251 0541 bbe8 4f41 f33f d840 fdb8 dc40
000002b0: d43d 9d41 9c95 9240 194c 8641 b719 8341
000002c0: 7e54 7d41 6548 d440 d6e5 4242 447d 1941
000002d0: 5f14 3241 cdac 2441 9247 1042 47d7 5041
000002e0: 5134 8041 8325 6541 cad9 2b41 b4ba 6c41
000002f0: 4b8a 2a42 6789 fc41 7ac7 1f41 5401 1341
00000300: df22 0e41 2686 1c41 8c22 6841 c928 8640
00000310: 303c 1641 e395 0041 e9da 8541 dff9 9e41
00000320: a9ed 0341 dd32 b841 0db4 5441 6c34 c441
00000330: b9a1 d241 84d5 8041 120a 7541 5609 a441
00000340: d859 2f41 4c72 0241 2250 8841 8e29 0c42
00000350: ee2e 8c41 3aaf ff40 fcd4 1b41 fed7 9840
00000360: c0e5 0a41 5eb7 8741 bdaf 7f41 7ce7 0e41
00000370: be00 8741 f255 f740 3ad4 0041 09d7 7241
00000380: ee87 5240 6098 5641 d4b4 2941 be00 9b41
00000390: 19f5 3e41 9f2d 2f41 9aaa ac41 27d8 0741
000003a0: 0fbd f141 e190 9641 ba61 ae41 1f7e 2441
000003b0: 47d6 3341 86f1 ff41 03f4 e640 3519 c340
000003c0: 9072 ec40 f637 9241 a7c4 a840 6cf9 6941
000003d0: b1a9 ce40 fb08 3b41 5763 7140 72ab 9940
000003e0: 186e dc40 622a 9541 7683 4341 347e bc41
000003f0: 5bc5 5141 5eea 8e41 ca1f 9f40 4029 1441

fc2.weight f4 [256, 256]
-0.07792115 -0.0015237135 0.15385333 0.0082347635 -0.054389786 -0.0048694694 -0.041629825 0.06260955
-0.123052314 -0.07244274 0.039067775 -0.035638098 0.020342365 0.10837027 0.0531658 0.043986253
0.03513661 0.1479829 0.0030701957 0.02896172 0.003295118 0.0020301815 -0.043715097 -0.11412808
-0.006383181 -0.14341865 0.006080229 -0.16373941 -0.054041844 0.09856562 0.04567433 -0.23994212
0.07056111 -0.08367894 -0.007451392 0.0542644 -0.05733815 0.17996348 -0.057972383 0.16635416
0.042100586 0.05391061 0.07689573 0.008998102 0.049676176 0.035959955 0.07465297 0.017472474
0.014322826 0.024196913 0.057917442 0.050420914 -0.07134483 0.1286593 0.012457996 0.06463318
-0.009608046 0.090861425 0.040024698 0.13268305 0.025502965 0.09703908 -0.0037368513 0.029345464
0.17305061 0.07852912 0.1174 -0.06365078 0.17533198 -0.046648443 0.032703917 0.021429166
0.0100231655 -0.057868112 0.04883277 -0.03439913 0.07498393 -0.07155409 -0.051007133 -0.02084777
0.06628045 -0.040744398 -0.14061856 -0.041663278 0.043442193 0.020626 -0.17103219 0.03731271
0.010606823 -0.0033626533 -0.18262663 -0.024743734 -0.1507368 0.042748198 -0.051661823 0.0030748495
-0.077464126 -0.13041544 -0.08017612 -0.05172891 -0.12929548 0.060932994 0.020142868 0.025045808
0.10025077 0.0055164034 0.081062496 0.032176837 0.051088173 -0.016452406 -0.021596493 0.03078812
-0.0053775967 -0.09341639 -0.08018524 0.17764053 -0.0031700947 0.073373556 0.12688497 -0.07837859
0.03281239 -0.01735583 0.036748957 0.04714139 -0.09979489 0.09539275 0.09886264 0.08645579
0.109779105 -0.037728906 0.06822195 0.015094427 -0.045785703 0.08061555 0.1492467 0.039453927
0.028976625 -0.051677343 0.054634586 0.032356285 0.024120439 0.07464967 0.12793308 0.09574374
0.00750846 0.14669895 0.032955017 -0.009385507 0.006174102 -0.043456227 -0.09526734 -0.13427223
0.009921853 0.036495063 -0.093583465 0.20110202 0.068737715 0.10222359 0.11253747 -0.020059036
0.21845387 -0.011459589 -0.027128192 0.13658936 -0.10362373 -0.077334315 0.06738602 -0.064123094
-0.16062714 0.033099677 -0.035797514 0.18650442 0.10323723 0.005542393 -0.037556026 0.015018718
0.008439987 0.20934059 -0.024281096 0.1174892 0.18143064 0.069342725 0.027460087 0.048977345
0.012472991 0.0077744923 -0.10234213 -0.01655506 0.07416565 0.024621323 0.052346185 0.010517947
-0.020227069 -0.018601356 0.09928927 0.19097224 0.10156421 -0.0037710946 0.19761011 -0.013228162
0.13102701 0.044480667 0.02091295 -0.03476264 -0.002562167 0.0600727 -0.007410718 0.029449914
0.06500363 0.06749102 -0.1653758 -0.11962493 -0.039298117 -0.0708519 0.03521553 0.023562863
-0.0034865455 0.11927792 -0.063987136 0.048018172 0.054303005 -0.020966563 -0.072761185 -0.11718072
0.06577134 -0.007364966 0.1188818 -0.018328214 0.11943369 -0.0788823 0.015128228 0.006243174
-0.015216972 0.077584915 -0.061383694 0.039704975 0.11314711 0.016696919 0.106247984 -0.12677944
0.0354253 -0.117202 0.01281291 -0.059392262 -0.036771733 0.1537538 0.09770436 0.162452
0.07700786 -0.035295594 -0.11017173 -0.065284565 0.04471209 -0.059947044 0.049115527 0.17572305
00000000: 2095 9fbd 57b7 c7ba ba8b 1d3e 1aeb 063c
00000010: d3c7 5ebd 1290 9fbb 0984 2abd 7039 803d
00000020: da02 fcbd dc5c 94bd 8805 203d 41f9 11bd
00000030: 08a5 a63c 3bf1 dd3d 62c4 593d ee2a 343d
00000040: 68eb 0f3d d488 173e 5635 493b 2141 ed3c
00000050: e8f2 573b cb0c 053b 9a0e 33bd fcbb e9bd
00000060: 012a d1bb 57dc 12be a83c c73b 4eab 27be
00000070: fb5a 5dbd c6dc c93d 0215 3b3d 63b3 75be
00000080: 5882 903d dd5f abbd ce2a f4bb 5944 5e3d
00000090: 68db 6abd 5948 383e 7374 6dbd bf58 2a3e
000000a0: aa71 2c3d 5fd1 5c3d 827b 9d3d c66c 133c
000000b0: 3f79 4b3d bf4a 133d a8e3 983d 6f22 8f3c
000000c0: 49aa 6a3c 9b38 c63c d73a 6d3d 2986 4e3d
000000d0: 3d1d 92bd 43bf 033e 9f1c 4c3c 675e 843d
000000e0: 116b 1dbc 8e15 ba3d f0f0 233d 11de 073e
000000f0: 98eb d03c 6dbc c63d f6e5 74bb e665 f03c
00000100: 2e34 313e e0d3 a03d 696f f03d 575b 82bd
00000110: 3a8a 333e 7012 3fbd 8bf4 053d 388c af3c
00000120: 3438 243c 1d07 6dbd df04 483d 1ae6 0cbd
00000130: 2d91 993d f38a 92bd dbec 50bd f1c8 aabc
00000140: 0bbe 873d 99e3 26bd 50fe 0fbe 1da7 2abd
00000150: 71f0 313d dbf7 a83c 1023 2fbe 36d5 183d
00000160: 3dc8 2d3c f65f 5cbb 7a02 3bbe 5fb3 cabc
00000170: bf5a 1abe bc18 2f3d 599b 53bd 6a83 493b
00000180: 83a5 9ebd a08b 05be 6133 a4bd b2e1 53bd
00000190: 0966 04be e094 793d a802 a53c de2c cd3c
000001a0: 4750 cd3d f2c2 b43b 1804 a63d dccb 033d
000001b0: d541 513d 32c7 86bc 21eb b0bc 5e37 fc3c
000001c0: 8d36 b0bb 1851 bfbd 2938 a4bd 66e7 353e
000001d0: 5dc1 4fbb e044 963d 22ee 013e f484 a0bd
000001e0: 4966 063d d02d 8ebc 1386 163d 5517 413d
000001f0: 4361 ccbd 465d c33d 7f78 ca3d bc0f b13d
00000200: ded3 e03d a089 1abd f3b7 8b3d 9e4e 773c
00000210: ca89 3bbd c419 a53d 20d4 183e 719a 213d
00000220: 6360 ed3c 9fab 53bd 84c8 5f3d 0688 043d
00000230: 3a98 c53c ede1 983d e400 033e 4b15 c43d
00000240: 8709 f63b 4038 163e d7fb 063d abc5 19bc
00000250: 1f50 ca3b 28ff 31bd 861b c3bd a97e 09be
00000260: 458f 223c d97b 153d b0a8 bfbd b0ed 4d3e
00000270: 5cc6 8c3d 9a5a d13d 0c7a e63d d952 a4bc
00000280: 5fb2 5f3e 00c1 3bbc f13b debc 15de 0b3e
00000290: ae38 d4bd 7461 9ebd af01 8a3d f852 83bd
000002a0: 717b 24be 8793 073d 6aa0 12bd 04fb 3e3e
000002b0: 0a6e d33d f69c b53b 59d4 19bd 1211 763c
000002c0: df47 0a3c 615d 563e 26e9 c6bc 2d9e f03d
000002d0: f4c8 393e 8f03 8e3d faf3 e03c 789c 483d
000002e0: 845b 4c3c 2bc1 fe3b c098 d1bd 7a9e 87bc
000002f0: 29e4 973d a8b2 c93c f468 563d 7853 2c3c
00000300: 3db3 a5bc df61 98bc 2c58 cb3d 3a8e 433e
00000310: e600 d03d 7824 77bb 4e5a 4a3e efba 58bc
00000320: f22b 063e 5c31 363d a351 ab3c 4563 0ebd
00000330: 07ea 27bb cb0e 763d 9cd5 f2bb f240 f13c
00000340: a020 853d bb38 8a3d 4658 29be eafd f4bd
00000350: 10f7 20bd cd1a 91bd 293e 103d e806 c13c
00000360: 877e 64bb fb47 f43d b00b 83bd b4ae 443d
00000370: d46c 5e3d 12c2 abbc d103 95bd 72fc efbd
00000380: 20b3 863d d055 f1bb 4d78 f33d 0d25 96bc
00000390: a799 f43d 0b8d a1bd 63dc 773c 8a93 cc3b
000003a0: 9b50 79bc d7e4 9e3d 786d 7bbd afa1 223d
000003b0: acb9 e73d fac7 883c 8b98 d93d 78d2 01be
000003c0: 1f1a 113d 9a07 f0bd 3ded 513c 4d45 73bd
000003d0: f59d 16bd a371 1d3e 3919 c83d d159 263e
000003e0: 4cb6 9d3d 1d92 10bd b7a1 e1bd eab3 85bd
000003f0: 0624 373d 088b 75bd 5d2d 493d bef0 333e

fc2.bias f4 [256]
0.044041667 -0.08073458 0.056655977 0.03939745 0.035847988 -5.489978e-05 -0.02643464 -0.062204838
-0.057413906 -0.011499129 -0.066599175 0.00051510666 -0.0071548433 -0.037860963 -0.042666413 -0.029115813
-0.0467221 0.047617126 0.055945113 -0.035357572 -0.025120512 -0.0027473248 -0.036680523 0.049202185
-0.04737723 0.035587307 -0.06238094 -0.041066002 0.045637242 -0.031759422 0.0009235616 -0.05919517
0.043598343 0.06741311 0.06918667 0.042113308 0.04691936 -0.06883684 0.04174315 -0.06479691
0.037137493 0.056545783 0.00033199004 0.053895712 0.013399172 -0.041287225 0.034000956 0.0534522
0.008361484 -0.03141229 -0.00079392735 -0.042414967 0.018737586 0.047349744 0.035406787 -0.0032064982
0.02505796 -0.040894043 -0.034844764 -0.03612564 0.035397805 0.07608068 0.0076201595 0.04064196
-0.04042267 -0.025916124 0.024427794 0.025590982 -0.030261133 0.00861449 -0.044600513 -0.02212317
-0.01701451 0.054561358 0.027969375 0.025641365 0.04494271 -0.035651095 0.0067118406 -0.03895239
-0.048786305 -0.037312564 0.043441493 -0.03469527 -0.04059717 -0.025454313 0.0596345 0.0033999889
0.054876465 -0.04822928 -0.019943701 0.018853355 -0.03882006 -0.009981741 -0.025129963 -0.03786497
-0.029753346 0.00075966335 0.0061415886 -0.0471277 -0.06456849 -0.0017257191 0.013899502 0.015395623
-0.046156853 0.05412421 0.004129966 -0.06718092 -0.008257249 -0.059733402 0.0009136758 -0.04604462
0.06540534 -0.013097478 -0.023492055 0.050245628 0.03318172 -0.059864827 0.046954922 -0.026974866
-0.057053167 -0.040205885 0.0070340317 -0.03022247 0.019603556 0.0667132 0.0487752 -0.026361918
0.037152372 -0.059533257 -0.059015065 -0.03426899 0.03965637 -0.023646189 -0.055835176 0.026705448
-0.0314085 -0.029068012 0.058503177 -0.003957682 0.054265574 -0.035777625 -0.0312929 -0.059958298
-0.004341418 -0.033616696 0.02520826 0.057629067 -0.05000643 0.017555576 0.057040773 -0.034428716
0.0018635088 0.061897162 -0.0183652 -0.022401476 -0.05298361 -0.04790808 0.03388633 -0.065352306
-0.031037789 -0.015643874 -0.052107986 0.039344262 -0.011578581 0.011984682 -0.048609465 -0.0054676454
0.047017727 -0.024616202 0.023318993 -0.011705759 0.014889617 0.041664504 -0.049447622 -0.040481355
-0.029164992 0.020529406 0.0054872306 0.041883353 0.012848541 0.026498588 0.021065678 -0.014452425
0.060773525 -0.0033673644 -0.03441154 -0.020876333 -0.046485126 -0.014458428 0.011699876 -0.053710993
0.009303718 0.014931022 0.022398524 -0.054373126 -0.060177464 -0.045829926 -0.008517277 0.02150616
-0.016743604 -0.02420928 -0.03412386 0.026169352 0.04904949 0.04099199 -0.016619693 0.055030696
-0.050729085 0.029851904 0.043430366 0.055030435 -0.05488237 0.027410276 0.03184289 0.030237425
-0.025039269 0.044041123 0.048345763 -0.020280592 0.059755567 0.023699172 -0.05237076 -0.0038830603
0.05455593 0.01838428 -0.054011982 -0.04824396 0.051233955 -0.02334124 0.074496515 -0.014150262
0.035775464 -0.0015576569 -0.05048524 -0.01715542 -0.04040254 -0.0074278726 0.026060924 -0.0048962147
-0.025806526 0.041318025 -0.009146325 0.044268433 -0.06314119 -0.0060418486 0.049260594 -0.005617403
0.01579611 -0.045763418 0.055646773 -0.04714802 0.019507045 -0.04248858 0.028850628 0.06512727
00000000: 0965 343d 2c58 a5bd 1910 683d 385f 213d
00000010: 57d5 123d 3144 66b8 758d d8bc 80ca 7ebd
00000020: d82a 6bbd d866 3cbc 2665 88bd 3908 073a
00000030: 2d73 eabb 1914 1bbd fac2 2ebd 4984 eebc
00000040: ac5f 3fbd 2d0a 433d b426 653d 1ad3 10bd
00000050: 88c9 cdbc 760c 34bb 513e 16bd 3b88 493d
00000060: a00e 42bd ffc3 113d 2883 7fbd d334 28bd
00000070: 1eee 3a3d 2b16 02bd 2b1b 723a a276 72bd
00000080: 2d94 323d e20f 8a3d beb1 8d3d 017f 2c3d
00000090: 842e 403d 54fa 8cbd defa 2a3d 3eb4 84bd
000000a0: 7c1d 183d 8d9c 673d f30e ae39 c0c1 5c3d
000000b0: 3388 5b3c cb1c 29bd 9644 0b3d b2f0 5a3d
000000c0: 9bfe 083c 2caa 00bd 901f 50ba 51bb 2dbd
000000d0: 917f 993c cef1 413d b506 113d 1d24 52bb
000000e0: 5a46 cd3c 8380 27bd 62b9 0ebd 7bf8 13bd
000000f0: 4afd 103d 30d0 9b3d 88b2 f93b 2f78 263d
00000100: 3e92 25bd 0d4e d4bc cc1c c83c 2ea4 d13c
00000110: 32e6 f7bc ca23 0d3c 07af 36bd a63b b5bc
00000120: 0462 8bbc bb7b 5f3d 0820 e53c d70d d23c
00000130: d915 383d e206 12bd 00ef db3b 8b8c 1fbd
00000140: 26d4 47bd 0fd5 18bd b5ef 313d a11c 0ebd
00000150: 3849 26bd 9085 d0bc 4e43 743d 59d2 5e3b
00000160: 25c6 603d 118c 45bd f960 a3bc 5a72 9a3c
00000170: c901 1fbd 758a 23bc 5add cdbc 4c18 1bbd
00000180: 4abd f3bc 2524 473a 613f c93b fa08 41bd
00000190: 7c3c 84bd 8631 e2ba bdba 633c ec3d 7c3c
000001a0: f80e 3dbd 59b1 5d3d aa54 873b 2696 89bd
000001b0: 6a49 07bc 03ab 74bd bf83 6f3a 4999 3cbd
000001c0: 3cf3 853d ce96 56bc 6972 c0bc 5cce 4d3d
000001d0: 8ee9 073d d234 75bd ce53 403d 65fa dcbc
000001e0: 95b0 69bd edae 24bd bc7d e63b 1d95 f7bc
000001f0: a397 a03c eea0 883d 81c8 473d f3f4 d7bc
00000200: 162d 183d 25d9 73bd c8b9 71bd a45d 0cbd
00000210: b86e 223d a7b5 c1bc 6db3 64bd 62c5 da3c
00000220: 33a6 00bd 0a20 eebc 07a1 6f3d 71af 81bb
00000230: 9445 5e3d 8f8b 12bd fc2c 00bd d596 75bd
00000240: 7442 8ebb a9b1 09bd 8e81 ce3c 750c 6c3d
00000250: 8bd3 4cbd b6d0 8f3c 96a3 693d 2005 0dbd
00000260: fb40 f43a e187 7d3d 9e72 96bc 4d83 b7bc
00000270: 5805 59bd 433b 44bd 64cc 0a3d 6ed7 85bd
00000280: f642 febc 9527 80bc 2f6f 55bd 7327 213d
00000290: 17b4 3dbc 665b 443c b81a 47bd ef29 b3bb
000002a0: a995 403d eba7 c9bc 7907 bf3c 83c9 3fbc
000002b0: 95f3 733c 66a8 2a3d 9789 4abd c7cf 25bd
000002c0: 6ceb eebc 492d a83c 3ace b33b e18d 2b3d
000002d0: b082 523c 9113 d93c ee91 ac3c ddc9 6cbc
000002e0: a9ed 783d 00af 5cbb 1df3 0cbd d804 abbc
000002f0: 3067 3ebd 0be3 6cbc d6b0 3f3c 0f00 5cbd
00000300: 9f6e 183c 3fa1 743c 1c7d b73c 5bb6 5ebd
00000310: a57c 76bd 29b8 3bbd 0d8c 0bbc b02d b03c
00000320: e229 89bc 8a52 c6bc 76c5 0bbd 1c61 d63c
00000330: 1ee8 483d 38e7 273d 0626 88bc de67 613d
00000340: 4dc9 4fbd fb8b f43c 0ae4 313d 9867 613d
00000350: 56cc 60bd 848b e03c b16d 023d 7ab4 f73c
00000360: 271f cdbc 7764 343d 3506 463d 7c23 a6bc
00000370: 41c2 743d c424 c23c b982 56bd f17a 7ebb
00000380: 0a76 5f3d a19a 963c ab3b 5dbd 759b 45bd
00000390: b2da 513d 2136 bfbc a191 983d 80d6 67bc
000003a0: 4b89 123d 4b2a ccba 9cc9 4ebd 8689 8cbc
000003b0: 227d 25bd 8365 f3bb b87d d53c 6d70 a0bb
000003c0: 3568 d3bc 173d 293d 78da 15bc d152 353d
000003d0: 2b50 81bd b3fa c5bb 7ac5 493d 3112 b8bb
000003e0: d866 813c 6c72 3bbd dfed 633d 481e 41bd
000003f0: 3dcd 9f3c 8108 2ebd 2758 ec3c 7261 853d
