runs/pretrain/2024070702/model.pth (torch, 431200 bytes, 20 tensors)

fc1.weight f4 [256, 17]
000000 6f ba 78 bc 6c 5e 46 be 14 25 cd 3d ee 5c 18 be
       -0.015181168 -0.19371957 0.10016838 -0.148792
000010 1f 1f 5a 3d 35 77 d1 bd ab e1 5e bc 54 4e a4 3c
       0.053252336 -0.10227815 -0.013603608 0.020056881
000020 d3 40 5c be e7 e8 a1 3d ce e8 34 be 95 4f fa 3d
       -0.21509103 0.07905751 -0.17666933 0.1222221
000030 2b d4 78 bd a3 4b 5a 3b 31 04 ac bb e4 a8 17 be
       -0.060749214 0.0033309243 -0.005249523 -0.1481052
000040 1f 3a 88 3d 1d 60 19 be 6a 0a 17 3e 39 16 90 3c
       0.06651711 -0.1497807 0.14750066 0.017588722
000050 77 86 3b 3e 28 b8 15 3d a7 93 46 be d2 ff 4f bd
       0.18313013 0.03655258 -0.19392262 -0.05078108
000060 d4 0c f6 bd 90 3b f6 3c 3e 04 c3 3d a5 a1 de 3d
       -0.120141655 0.030057698 0.095222935 0.10870675
000070 89 8b 22 3d 07 ee a6 3d 08 8a 62 be 7e 00 5d 3e
       0.039683852 0.08150869 -0.22122967 0.21582219
000080 41 a6 83 bd 7b 8d 8f 3d 59 96 53 bc 4b f7 4e 3e
       -0.06428195 0.07009407 -0.012914264 0.20211522
000090 b4 a2 6f be 0a fc c3 bd b5 d9 31 be 1a 3f 76 be
       -0.2340191 -0.09569557 -0.17368205 -0.24047509
0000a0 3e 6a 7b 3d 4c 24 3a be 79 82 3b 3e 1a 14 7d be
       0.061380617 -0.18177909 0.1831149 -0.247147
0000b0 02 77 fb 3d 85 51 f8 bd 73 5d 25 be ee 56 66 be
       0.12278558 -0.121249236 -0.1614893 -0.22494099
0000c0 00 ca 29 3e c9 b4 b9 bd f4 f0 13 3e 2f 83 9a bd
       0.16580963 -0.09067685 0.14447385 -0.075445525
0000d0 82 9b f5 bd 4c b7 44 be dd da 4e be dd 84 90 bd
       -0.119925514 -0.19210547 -0.20200677 -0.07056592
0000e0 ac cd 46 3e e5 de fe 3d 66 d9 2e be df 0c 1c be
       0.19414395 0.124448575 -0.17075118 -0.15239285
0000f0 4f 4b e5 bc f3 5a 53 bc da 9b 8a bc 40 2b d1 bc
       -0.027990011 -0.012900102 -0.016920019 -0.025533319
000100 80 b3 d8 bd 82 64 b4 3d df 5a 33 3e a4 b5 16 3e
       -0.10581112 0.08808233 0.17515133 0.14717728
000110 11 5e 49 be e9 ae 08 be 92 cd 3b be a5 9b 24 be
       -0.1966479 -0.13347973 -0.18340138 -0.16074999
000120 22 e9 9d bc 3c e6 12 be f2 32 26 be a7 a2 46 3e
       -0.019276205 -0.1434564 -0.16230372 0.19397984
000130 52 36 02 be f1 99 6f be 08 46 0e bd bb 4c 5a 3e
       -0.12716034 -0.23398568 -0.034734756 0.21318333
000140 a5 4f 40 be 12 14 ff bc 84 d6 0b be 27 f7 46 be
       -0.18780382 -0.0311375 -0.1365605 -0.19430219
000150 35 93 08 be 92 68 98 3d 6a 4c e4 3d e1 ef 74 3e
       -0.13337405 0.0744182 0.11147387 0.23919632
000160 49 29 54 3e 1b ca 74 3d 33 f0 f1 3d d9 c3 59 be
       0.20718874 0.059763055 0.118133925 -0.21266116
000170 47 ee 4c 3e 6e 44 73 3e c5 8f 4b 3e ea 5d 21 be
       0.2001277 0.23756573 0.19879062 -0.15758482
000180 d0 00 4c be 87 5a 23 3e 78 02 78 3e 12 b5 72 be
       -0.19922185 0.15952502 0.24219692 -0.23701885
000190 5f ba 1d bd b6 8e 4a be ac 1a a8 bd 74 fa c1 3d
       -0.038507815 -0.19781002 -0.08208212 0.09471598
0001a0 47 5c df bd e5 d2 60 bd 10 fe b7 bd 1f 13 55 3e
       -0.109062724 -0.054888625 -0.089840055 0.20808075
0001b0 85 a2 62 be 1f f0 46 be 36 3d ab 3d c3 3c 2c bd
       -0.22132309 -0.19427536 0.083612844 -0.042050134
0001c0 b2 85 1d be 14 b3 a5 3d b8 e2 b9 bd 0f c2 56 be
       -0.15383032 0.08090797 -0.09076446 -0.20972465
0001d0 cb 91 22 3e a0 3a ad 3d 64 ed 1c 3e e5 21 77 be
       0.15875928 0.084584475 0.15324932 -0.24134023
0001e0 45 77 09 3e fd 5d 4a bd e2 18 d9 bb 7a 1d e3 bd
       0.13424404 -0.04940604 -0.0066252807 -0.110896066
0001f0 7a 64 c3 3d 05 f5 64 3e d8 6a 28 be 40 8e 65 3d
       0.09540649 0.22359093 -0.16447008 0.056043863
000200 d3 65 14 3e 9b dc 2d be 57 eb d1 3b 0e 58 18 3c
       0.14491968 -0.16978686 0.0064062285 0.009298338
000210 8a 40 64 3e 03 af 54 be a3 7a 61 3e 98 cb 9b bd
       0.22290245 -0.20769887 0.22019438 -0.07607192
000220 3a d1 14 3d 2a fd 04 3e af d6 25 be 9f 4f 22 be
       0.036332346 0.129872 -0.16195177 -0.15850686
000230 7a 8b dd bd 3e 9e 57 3d 61 a8 97 3d a6 2f cf bc
       -0.10817619 0.052641146 0.074051626 -0.025291275
000240 fd 70 15 3e a0 b0 06 be 96 ed fb bd be 41 53 3b
       0.14593883 -0.13153315 -0.12301175 0.003223523
000250 aa 8b 3b be d8 1b fb bd 98 13 1a 3e 1f ac b4 bb
       -0.18314996 -0.1226117 0.15046537 -0.0055136825
000260 df ba 0c 3e 35 70 83 3c d2 d2 fa 3d 2f a5 ee 3d
       0.1374316 0.016044715 0.12247242 0.116526
000270 2b 78 25 be 8c 02 aa 38 61 76 ac 3d 2c 80 a7 bd
       -0.16159122 8.106706e-05 0.084210165 -0.08178744
000280 90 15 b7 bd 7d d3 3c 3e b6 a3 1a 3d 16 60 00 be
       -0.089396596 0.18440051 0.037753783 -0.12536654
000290 58 21 42 3e 32 e0 26 3e 95 c3 16 3e cf dc 54 bd
       0.18958032 0.16296461 0.14723046 -0.051968392
0002a0 8a fa d7 3a c8 f4 72 bb fd a5 23 be 56 34 cf 3d
       0.0016477865 -0.003707217 -0.15981288 0.10117404
0002b0 5c 37 06 3d 73 44 04 3e 9e e4 57 be 8f 2f ed b9
       0.03276764 0.12916736 -0.21083304 -0.00045239597
0002c0 60 70 62 3d 5c 8d 10 be 2d f3 71 3e 94 14 e8 bd
       0.05528295 -0.14116424 0.2362792 -0.1133205
0002d0 f5 fe 0d 3e b7 69 72 be 6d b2 5a be c9 dc ce 3c
       0.1386679 -0.2367314 -0.21357127 0.025251763
0002e0 af 24 84 3c a6 dc 34 3e 97 78 fd 3d 7b d0 36 3e
       0.016130773 0.17662296 0.12376516 0.17852966
0002f0 b4 ea bb 3c d5 2b 43 3e 02 01 60 3d 0c a1 5d 3e
       0.022939064 0.1905969 0.05468846 0.21643466
000300 17 c2 24 be 18 a0 08 be ef 5d 7d 3e a4 ec 62 be
       -0.16089664 -0.13342321 0.24742864 -0.22160584
000310 62 de b8 bc 7b 2b a0 bc a6 aa 9b bd ae bc 06 3e
       -0.022566978 -0.019551983 -0.07600908 0.13157913
000320 56 b5 c7 bd 53 3f 54 3e 12 cc 76 be 31 61 6b be
       -0.09751384 0.20727281 -0.24101284 -0.22986294
000330 02 87 8a bd 7f 93 02 3e 07 a2 51 be e2 2a bf bd
       -0.06764032 0.12751578 -0.20471965 -0.09334351
000340 b4 2b 69 3d 38 f3 8c 3d b7 f7 6d 3e 88 ad 48 be
       0.056926444 0.06882328 0.23239027 -0.19597447
000350 af f4 ce bc fe 74 3d be 82 8a 72 3e f7 42 64 be
       -0.025263159 -0.1850166 0.23685649 -0.2229117
000360 27 be d3 bc dc d4 af 3d d3 81 1c 3e 07 b0 43 3e
       -0.025847508 0.085855216 0.15283899 0.19110118
000370 16 ba ec bc b3 f1 28 be 6c e6 7e 3d 1b 2a f4 bc
       -0.028897326 -0.16498451 0.062231466 -0.029805234
000380 2c cb 99 ba a2 2a d9 3c 20 92 04 be 3e 7a 25 3e
       -0.0011733524 0.026509587 -0.12946367 0.16159913
000390 9d e1 c6 3d 48 1b 3f be a6 06 2d 3d 2a df 79 be
       0.09711001 -0.1866275 0.04224267 -0.24401537
0003a0 f9 25 01 3e 2b 06 f3 bd fe f1 05 3e ef 6a a7 bc
       0.12612142 -0.11866411 0.13080594 -0.020436732
0003b0 59 d0 b6 3d f1 30 f1 bd 85 b7 4d 3e 44 33 4e 3e
       0.08926458 -0.11776913 0.20089538 0.20136744
0003c0 49 02 00 3e 37 52 70 3e 5a de b1 3d dc 86 99 bb
       0.12500872 0.23468862 0.08684988 -0.004685266
0003d0 67 0c 36 3e 7c da b3 3c c5 4b 25 be c3 cb 37 3e
       0.17778169 0.021954767 -0.16142185 0.17948823
0003e0 ed 45 9c bd c3 19 ef bd 9a b2 af 3d 3f ad 08 be
       -0.07630525 -0.116748355 0.085789874 -0.13347338
0003f0 9b f1 2e 3e cd 32 3a 3e 15 7e 62 3e ca b5 be 3c
       0.17084353 0.18183441 0.22118409 0.023280043

fc1.bias f4 [256]
000000 2d 0c f5 bc 7e 0f ff 3d 2e a7 9a bd 1a 87 95 bd
       -0.029913032 0.12454127 -0.07551418 -0.07301159
000010 d4 d9 61 be 53 86 9e 3d 8d 3f 73 3e 39 f8 86 bd
       -0.22055751 0.07740464 0.23754711 -0.065903135
000020 36 40 67 be 36 42 27 bd 9c 66 9e 3d 1e 6b 4f 3e
       -0.22583088 -0.040834628 0.07734415 0.20255706
000030 55 25 93 3d aa 90 62 be 61 37 91 3c b6 04 36 3c
       0.07184855 -0.22125497 0.017726602 0.011109522
000040 e6 9e b0 bc 4a c9 29 3e 0b 0a 3c bd 85 58 81 bd
       -0.021560144 0.16580692 -0.045908015 -0.06315712
000050 d8 30 ad bd 98 95 6e 3e a0 76 99 bd 00 1c bb bd
       -0.08456582 0.23299253 -0.07493329 -0.091362
000060 b6 a4 2c bc 7f 12 3b 3e 44 4a 79 3c 2a be 33 be
       -0.010537317 0.18268774 0.01521546 -0.1755301
000070 dc 06 4b bd 38 ce aa 3d bf 19 3b be 95 51 5f be
       -0.04956709 0.08340114 -0.1827154 -0.21808465
000080 26 be e1 3c 59 57 eb bc 9a 22 b6 3d 54 4a 07 3e
       0.02755649 -0.028728174 0.088933185 0.13211948
000090 88 fc 5a be 2a ee 04 be 70 64 6e be 5e ca 44 3d
       -0.21385396 -0.12981477 -0.23280501 0.048044555
0000a0 a6 d5 81 3d 3b 84 f2 3d 71 bd 26 3e ba 26 14 be
       0.06339578 0.11841627 0.16283204 -0.14467898
0000b0 f9 1b f4 bb be cb d3 bd 4e b0 63 3e d8 21 44 bc
       -0.0074496237 -0.10341595 0.22235224 -0.01197096
0000c0 45 a2 01 be c4 ac e6 bd e6 6d 52 be ea 85 ea bd
       -0.12659557 -0.11263421 -0.20549735 -0.11451323
0000d0 aa 3f 02 3e 8c 30 68 3e c9 bd bb 3d f7 ae 53 3e
       0.12719598 0.22674769 0.09167058 0.20672213
0000e0 e0 7d a9 bd cf 64 03 be b0 c6 30 be 40 c3 72 bd
       -0.08275962 -0.12831424 -0.17263293 -0.059268236
0000f0 88 fd af bd 14 b1 92 3c 17 2c c6 3d d6 45 65 3e
       -0.08593279 0.017906703 0.09676378 0.22389922
000100 3b 10 56 3e 41 e1 16 3e f2 7f 57 3e 8a 32 02 3d
       0.20904629 0.14734365 0.21044901 0.03178648
000110 ee a5 15 3e cf 97 15 be cc 43 65 be f8 6d 3e be
       0.14614078 -0.14608692 -0.22389144 -0.18596637
000120 ba de 36 3e da 21 4c be 16 84 fe 3d f8 93 e6 3d
       0.17858401 -0.19934788 0.12427537 0.112586915
000130 b7 4e 5e be f3 be 63 be fe f2 1f 3e cb 2a 43 bd
       -0.21709715 -0.2224081 0.15620038 -0.047648232
000140 57 4d b3 bb 29 14 5f be aa f9 8f bd 6a d3 b4 bd
       -0.005471866 -0.21785034 -0.070300415 -0.088293865
000150 8e b8 d8 3d 62 0e 29 be 74 ea 5f 3c c4 d2 19 3e
       0.10582076 -0.16509393 0.013666738 0.15021807
000160 38 9a d8 3d e4 c8 64 3e 2f ec b0 bd f7 e7 94 3d
       0.1057629 0.22342259 -0.086387984 0.07270806
000170 4a 18 65 3c 25 91 fd bc 7f f0 04 3d e0 02 10 3e
       0.013982842 -0.030953 0.032455917 0.14063597
000180 4b 2c 6b 3e 39 d2 29 3e 72 8e d6 bb 0e 9b 44 be
       0.22966115 0.165841 -0.0065477425 -0.19199774
000190 49 93 68 3d 71 96 07 bd 31 6c 08 3d 30 ea 8f bd
       0.056781087 -0.033102456 0.033306304 -0.070270896
0001a0 79 a3 21 be 85 ed c2 3d fb ee 6e be 94 9f 2c 3e
       -0.15785016 0.095179595 -0.23333351 0.16857749
0001b0 69 85 20 3e 15 dc 4a 3e e5 ec 77 3e 86 53 91 3d
       0.15675892 0.19810517 0.24211462 0.07096009
0001c0 be b7 16 be 11 25 78 3e 17 81 b7 3d 39 8f 4f 3d
       -0.1471853 0.2423289 0.08960169 0.050673697
0001d0 3a da 26 3e f7 c0 73 3e cc 51 1a 3e 24 54 f9 3c
       0.16294184 0.23804079 0.15070266 0.03043563
0001e0 7e b9 4c bd d7 4e 4d be 87 e8 59 3e 55 c0 5d 3d
       -0.049981587 -0.20049606 0.21280108 0.0541385
0001f0 33 bf 2a be b1 47 b6 3c 15 0f 64 ba 04 b7 73 3e
       -0.16674499 0.022250982 -0.0008699757 0.23800284
000200 fb 19 c7 3d 69 31 b1 bd 0a fa e6 bc 0e b7 08 3e
       0.09721752 -0.08652002 -0.0281954 0.1335108
000210 b5 e8 f6 3d e3 75 ac bd c8 c2 bd bc 6f 3a 35 3d
       0.12056104 -0.084209226 -0.023164168 0.04424518
000220 0e 19 c5 bb 8c 27 ae 3b 44 1f 0a bd 4c ff 12 be
       -0.0060149496 0.005314773 -0.033721223 -0.143552
000230 a7 7d 84 bd 38 49 fd bc ef d1 2a be c7 2d 12 bd
       -0.06469279 -0.030918702 -0.16681646 -0.035688188
000240 24 6f 33 be 90 51 a5 3c b7 6f 15 3e 1a dc 67 be
       -0.17522866 0.020180494 0.14593397 -0.22642556
000250 0b 8e e2 3d 67 f2 27 3d 2f 13 f1 bd 8f 28 82 3d
       0.11062249 0.041002657 -0.11771237 0.06355392
000260 7e 6e a7 3d 0a cc 52 be 26 fb ca bd 9c fb 5e 3e
       0.081753716 -0.20585647 -0.09911184 0.21775669
000270 02 bb 61 3e 77 d4 5a 3e 83 6d ca 3c 46 37 45 3e
       0.22043994 0.21370111 0.024710422 0.19259366
000280 a4 08 38 3e 3a 39 ba 3d 52 71 6d 3e d3 80 5b be
       0.17972046 0.09092946 0.2318776 -0.21435861
000290 ef 43 77 3e 09 b9 1b 3d a5 fd d7 bd 69 37 96 bd
       0.24147008 0.03801826 -0.10546426 -0.073347874
0002a0 fd 4e 67 3e 91 1f 3f 3e 4c d6 65 be dd 5b bf 3c
       0.22588725 0.18664385 -0.22445029 0.023359234
0002b0 c5 c1 c3 3d 8f 38 60 bc e2 0f bf 3d af 24 45 3e
       0.09558443 -0.01368536 0.09329201 0.19252275
0002c0 c7 dd 29 3e d3 55 dd bc 41 aa cb bc 6e 53 cd bd
       0.16588508 -0.027018463 -0.024861457 -0.100256786
0002d0 1d 62 32 3d 10 37 2e 3e 45 40 a3 bd 05 f0 cf 3d
       0.0435506 0.17013192 -0.07971243 0.10153202
0002e0 13 51 c7 bd 1d d6 07 3e b4 6b 0e 3e c0 7f 32 3e
       -0.097322606 0.13265271 0.13908273 0.17431545
0002f0 c4 31 89 3d af 3d 99 3d 4f bb 80 bd bb d9 97 bd
       0.06698945 0.07482468 -0.06285726 -0.07414576
000300 d9 e2 20 3e 53 8e 8d bd be d7 21 be 77 8c 0e 3e
       0.15711536 -0.06911912 -0.15804955 0.1392077
000310 8a 91 99 3d e5 7c fd bd b4 dc 26 3e 2e 81 de 3d
       0.074984625 -0.12377337 0.16295129 0.10864483
000320 8d 3c 1b 3e c3 d0 28 be 6d 13 41 be 6a 0c 7c bc
       0.15159817 -0.16485886 -0.18855067 -0.015383819
000330 6e 46 03 be 87 15 3d be 6d c2 5f bd ce eb 19 be
       -0.12819836 -0.18465243 -0.05462878 -0.15031359
000340 3d e5 be bd df ce 34 3e 04 2e 23 3e 4e e3 b4 bd
       -0.093210675 0.1765704 0.15935522 -0.088324174
000350 0e 71 5b 3e f4 da 33 be ba 86 da 3d 9b 8f 1c 3e
       0.21429846 -0.17563993 0.10670228 0.15289156
000360 64 9b 99 3c c8 7b b0 3b cd 5d eb 3d 7c 00 35 3e
       0.018750854 0.0053858496 0.114925005 0.17675966
000370 b0 e2 73 bd 54 dd 0e be 23 d0 5a 3e 56 0e b9 bc
       -0.059542358 -0.13951617 0.2136846 -0.022589844
000380 23 d1 1e 3e 42 f3 75 be 0c d1 e2 bd 31 07 57 3e
       0.15509467 -0.24018577 -0.11075029 0.20998837
000390 24 1e 49 be bf 8c 85 3d 8f 1f 38 3e 89 33 2d 3e
       -0.19640404 0.06520986 0.17980789 0.1691419
0003a0 69 6f 41 be 34 5f 28 be f5 13 e2 3b 7f d8 3c be
       -0.18890156 -0.16442567 0.0068993517 -0.18441962
0003b0 18 c1 2a bd b9 0c 69 be e6 a6 51 be 27 f7 06 be
       -0.041688055 -0.2275876 -0.20473823 -0.13180219
0003c0 4e 3b e7 3d b4 81 dd 3d 4b 80 25 be 9c 63 1f be
       0.11290608 0.108157545 -0.16162221 -0.15565342
0003d0 50 4a 43 be 8f 0e 37 bd 54 60 24 3e d6 45 39 3e
       -0.19071317 -0.04469162 0.16052371 0.18093047
0003e0 a6 44 0e 3e ec 18 d7 3d 89 f9 c9 bd 41 dc 09 bd
       0.13893375 0.105028 -0.09862048 -0.033657316
0003f0 88 b6 3b be 84 6b 9d bd d3 8e a1 bd 57 8c 5b be
       -0.18331349 -0.076865226 -0.0788857 -0.21440254

bn1.weight f4 [256]
000000 71 43 81 3f 80 6e 7e 3f 6f 3d 81 3f cd af 80 3f
       1.0098706 0.9938736 1.0096873 1.005365
000010 cd 8c 80 3f e1 68 7e 3f 2c 53 80 3f 6d f5 7e 3f
       1.0042969 0.9937878 1.0025382 0.9959324
000020 59 fc 80 3f 94 0c 80 3f 8b 9f 7e 3f 19 5e 80 3f
       1.007701 1.0003839 0.99462193 1.0028716
000030 5f 9d 7e 3f 3c 50 80 3f dd c3 80 3f 89 cf 80 3f
       0.9945888 1.0024486 1.0059773 1.0063335
000040 6a bc 80 3f ba 10 7f 3f e7 66 80 3f 16 88 7f 3f
       1.00575 0.996349 1.0031403 0.99817026
000050 8c 09 80 3f 8a d4 7f 3f e6 f7 7d 3f 25 59 81 3f
       1.0002913 0.99933684 0.9920639 1.010533
000060 d6 9f 80 3f 60 e2 80 3f eb 1d 81 3f 70 b0 7e 3f
       1.0048778 1.0069084 1.0087255 0.9948797
000070 c1 02 80 3f c4 9a 7e 3f 82 86 80 3f c5 84 7e 3f
       1.000084 0.99454904 1.0041049 0.9942134
000080 48 ca 80 3f 0b 7b 80 3f 46 b1 7e 3f 7d 2d 81 3f
       1.0061731 1.003755 0.9948925 1.0092007
000090 62 04 80 3f dc 3d 80 3f 52 b1 80 3f a9 40 80 3f
       1.0001338 1.0018878 1.0054114 1.0019733
0000a0 e5 49 7f 3f a0 15 80 3f 3b 8c 80 3f cd ad 7e 3f
       0.9972213 1.00066 1.0042795 0.9948395
0000b0 2e 84 80 3f cb ea 7f 3f 1f 7a 80 3f d3 5e 81 3f
       1.0040338 0.9996764 1.0037268 1.0107063
0000c0 36 38 80 3f 0f d9 80 3f 65 b3 80 3f c1 9d 80 3f
       1.0017154 1.0066241 1.0054747 1.0048143
0000d0 0b 7f 7e 3f 28 21 80 3f 77 b7 7f 3f c0 a8 7f 3f
       0.994126 1.0010118 0.9988932 0.9986687
0000e0 26 3b 7e 3f 64 c7 7d 3f a9 6b 80 3f cd 9a 80 3f
       0.99309003 0.9913237 1.0032855 1.0047241
0000f0 a1 79 7e 3f 48 55 80 3f c2 5c 80 3f e2 07 81 3f
       0.9940434 1.0026026 1.0028307 1.0080531
000100 63 65 80 3f 64 b5 7f 3f cf 01 80 3f 0a fc 7f 3f
       1.0030941 0.99886155 1.0000552 0.99993956
000110 d5 2b 80 3f ee 3f 81 3f f3 81 80 3f 00 ad 7f 3f
       1.0013376 1.0097635 1.0039657 0.9987335
000120 49 86 80 3f 52 42 80 3f 27 b7 80 3f 30 76 80 3f
       1.004098 1.0020239 1.0055894 1.0036068
000130 85 b2 80 3f 55 a0 80 3f da 6e 7f 3f 9a 6d 7f 3f
       1.005448 1.004893 0.9977852 0.99776614
000140 3b a8 80 3f b9 d7 80 3f 8f 26 80 3f f7 80 80 3f
       1.005134 1.0065833 1.0011767 1.0039357
000150 98 76 80 3f 68 e2 80 3f 05 df 80 3f af cd 80 3f
       1.0036192 1.0069094 1.006806 1.006277
000160 62 6b 80 3f 08 c0 80 3f 55 de 7e 3f 62 20 7f 3f
       1.0032771 1.0058603 0.99558 0.9965879
000170 48 6e 80 3f 63 27 80 3f d0 15 7e 3f f7 4a 80 3f
       1.0033655 1.001202 0.99252033 1.0022877
000180 13 7f 80 3f 01 98 7f 3f 00 9d 7d 3f 38 62 80 3f
       1.003878 0.99841315 0.9906769 1.0029974
000190 86 05 7f 3f 68 a5 80 3f 9e 4d 7f 3f 6f 48 80 3f
       0.99617803 1.0050478 0.9972781 1.0022105
0001a0 f6 de 7d 3f f4 bc 80 3f 8b ef 7e 3f d2 07 80 3f
       0.99168336 1.0057664 0.99584264 1.0002387
0001b0 94 d4 7d 3f 80 1a 80 3f 9f cd 80 3f c6 6b 7f 3f
       0.99152493 1.0008087 1.006275 0.99773824
0001c0 82 c5 80 3f 3a 3c 80 3f 43 6e 81 3f f3 85 80 3f
       1.0060275 1.001838 1.0111774 1.0040878
0001d0 33 76 7f 3f e9 33 80 3f 44 c6 7f 3f 10 97 7e 3f
       0.9978973 1.0015842 0.99911904 0.99449253
0001e0 e1 76 7d 3f 0a 50 80 3f ae cd 80 3f cb 47 7f 3f
       0.9900952 1.0024426 1.0062768 0.9971892
0001f0 75 47 80 3f 6d f5 80 3f 94 43 81 3f 6f 99 7f 3f
       1.0021807 1.0074898 1.0098748 0.99843496
000200 d6 dd 7f 3f d6 8d 80 3f 06 32 7e 3f 4a 4e 7f 3f
       0.9994787 1.0043285 0.9929508 0.99728835
000210 0e b7 7f 3f c8 98 7d 3f e6 9a 80 3f 8f 39 7f 3f
       0.99888694 0.9906125 1.0047271 0.996972
000220 18 68 80 3f ee af 80 3f 7b e3 7e 3f e9 44 80 3f
       1.0031767 1.005369 0.9956586 1.002103
000230 76 55 7f 3f fe 34 81 3f ed 0b 80 3f 2d 05 7f 3f
       0.9973978 1.0094297 1.000364 0.9961727
000240 2f ef 80 3f 96 6b 80 3f ef f6 80 3f 39 e6 80 3f
       1.0072993 1.0032833 1.0075358 1.0070258
000250 8e a9 7f 3f 75 01 80 3f ff de 7d 3f c8 c7 7d 3f
       0.99868095 1.0000445 0.9916839 0.99132967
000260 cf 79 80 3f ab d5 80 3f 47 4f 80 3f 12 d6 80 3f
       1.0037173 1.0065206 1.0024194 1.0065329
000270 7d f4 7f 3f 2c c1 7e 3f be b3 7f 3f 95 a3 80 3f
       0.99982435 0.99513507 0.9988364 1.0049921
000280 30 34 7f 3f 65 31 7e 3f 3a 20 7e 3f 8e b1 7f 3f
       0.99689007 0.9929412 0.99267924 0.998803
000290 03 ba 80 3f 74 03 7f 3f 51 61 7e 3f 73 cc 7f 3f
       1.0056766 0.99614644 0.99367243 0.9992134
0002a0 4e 5b 80 3f 0d 64 7f 3f 54 4e 80 3f d0 69 7f 3f
       1.0027864 0.9976204 1.0023904 0.9977083
0002b0 6a c2 80 3f f8 b1 7e 3f 6e 0c 81 3f 1e db 7f 3f
       1.005933 0.9949031 1.0081918 0.9994372
0002c0 a8 6e 7d 3f 6a 28 7f 3f 21 0c 80 3f 2f ae 7f 3f
       0.98996973 0.9967104 1.0003701 0.9987516
0002d0 33 dc 7f 3f f9 30 80 3f 0b 9e 80 3f cf 8f 7e 3f
       0.9994537 1.0014945 1.0048231 0.99438184
0002e0 76 cc 80 3f 82 a7 80 3f 46 02 7f 3f fc 11 7f 3f
       1.0062397 1.0051119 0.99612844 0.99636817
0002f0 98 d6 7e 3f f4 6e 80 3f b3 b5 7f 3f 06 88 80 3f
       0.99546194 1.003386 0.99886626 1.0041511
000300 ab 0a 80 3f 11 fb 7d 3f a6 c6 7f 3f fe 86 7e 3f
       1.0003256 0.9921122 0.9991249 0.9942473
000310 01 38 80 3f 67 67 7f 3f f7 51 80 3f 4b bc 7f 3f
       1.0017091 0.99767154 1.0025014 0.9989669
000320 8a bb 7f 3f be 13 80 3f 3f aa 80 3f 75 21 7e 3f
       0.99895537 1.0006025 1.0051955 0.992698
000330 b5 04 7f 3f 57 fc 7f 3f 2d 6d 80 3f 6e fd 7d 3f
       0.9961656 0.99994415 1.0033318 0.9921483
000340 83 ac 7f 3f ef 87 7f 3f 64 94 80 3f cc 36 80 3f
       0.99872607 0.99816793 1.0045285 1.0016723
000350 35 4c 7f 3f 9a 44 80 3f 6c 4b 80 3f 59 39 80 3f
       0.9972566 1.0020936 1.0023017 1.0017501
000360 b0 90 7f 3f 2e 05 7f 3f e2 03 80 3f 51 a0 7e 3f
       0.9983015 0.9961728 1.0001185 0.99463373
000370 35 85 7f 3f 34 18 80 3f 71 46 80 3f 2b 71 7d 3f
       0.9981263 1.0007386 1.0021497 0.99000806
000380 fa c1 7f 3f 96 c7 7e 3f 75 7a 80 3f 74 31 80 3f
       0.9990536 0.99523294 1.0037371 1.0015092
000390 98 9b 7f 3f 76 5b 80 3f ee 0f 7f 3f e7 22 7e 3f
       0.9984679 1.0027912 0.9963368 0.99272007
0003a0 a6 de 80 3f 52 f1 7e 3f b2 60 80 3f 4f b5 7f 3f
       1.0067947 0.99586976 1.0029509 0.9988603
0003b0 69 c7 80 3f 64 e2 7d 3f 8b 35 80 3f 9a cf 7f 3f
       1.0060855 0.9917357 1.001634 0.9992615
0003c0 14 70 7e 3f 27 57 7e 3f 4e 38 80 3f 27 0b 80 3f
       0.9938977 0.99351734 1.0017183 1.0003403
0003d0 5c 37 80 3f a7 01 81 3f 4f 46 80 3f 37 3d 80 3f
       1.0016894 1.0078629 1.0021456 1.0018681
0003e0 17 09 7e 3f 37 bc 7e 3f 36 09 80 3f c7 43 7f 3f
       0.9923262 0.99505943 1.0002811 0.99712795
0003f0 06 92 80 3f 26 cd 7f 3f e2 7f 7f 3f fd 39 81 3f
       1.0044563 0.99922407 0.9980451 1.0095822

bn1.bias f4 [256]
000000 1a d7 c3 3b af 97 40 bb 95 cd f7 3b f3 e4 c3 ba
       0.00597657 -0.0029387285 0.007562349 -0.0014945552
000010 3b 13 cf 3a b8 47 1f bb e6 5c 3d 3b 36 70 9f bb
       0.0015798578 -0.0024304222 0.0028894483 -0.0048656715
000020 c4 99 0c 3c a6 ef 71 bb cb 2f b5 bb 7a 31 81 ba
       0.008581582 -0.0036916523 -0.005529379 -0.0009856664
000030 da 9d ba bb 0a 2c af bb f2 ff b1 bb ba bd ce 3b
       -0.005695087 -0.005345826 -0.0054321224 0.0063092383
000040 6a 77 c9 3b 65 d3 ae bb 60 66 a4 3a 12 27 e1 3a
       0.0061482685 -0.005335259 0.0012542717 0.0017177782
000050 b3 24 2c 39 67 ab 85 bb ee 47 92 bb b5 97 c9 3b
       0.0001641687 -0.0040792706 -0.004464141 0.006152118
000060 cc 61 fc 3b f8 4b ae 3b 32 be 1e 3c b8 89 15 bb
       0.007702088 0.005319115 0.009688901 -0.0022817682
000070 d2 01 ce 3a 09 1c ff ba c0 33 f1 3b 6f 6a de bb
       0.0015717095 -0.0019463311 0.0073609054 -0.00678759
000080 05 c7 e8 3b 28 0b 54 3a 1c 9d 0d 3c 63 5f 19 3c
       0.007103803 0.00080888206 0.008643415 0.009361121
000090 5a 1e ae 3b 84 09 05 bb ce f4 0a bb 4a e8 cc bb
       0.005313677 -0.0020299861 -0.0021203044 -0.006253277
0000a0 41 68 60 3b da 8c 69 3b 91 d5 6e 3a b4 d4 b4 bb
       0.0034241828 0.0035636933 0.00091108034 -0.0055185203
0000b0 f6 35 b3 b9 06 12 e4 39 db 8e 86 3a f8 65 15 3c
       -0.00034181745 0.00043500977 0.0010265963 0.0091185495
0000c0 14 32 04 bb 20 0d c1 3b 91 b4 de 39 a2 ba 3e b8
       -0.002017145 0.005891457 0.00042477672 -4.5473345e-05
0000d0 eb a6 ba bb 3b 32 99 3a bc 1b 76 bb 34 58 84 3a
       -0.0056961677 0.0011687943 -0.0037553152 0.0010097087
0000e0 da 3e 6d bb 1d 20 b3 bb 05 82 eb 39 76 34 4d bb
       -0.0036200793 -0.0054664747 0.00044919565 -0.0031311787
0000f0 48 24 93 bb 10 59 8a 3b a9 6a 25 3b 25 0f b4 3b
       -0.004490409 0.004222043 0.0025240576 0.0054949694
000100 9c e8 80 b9 7a 9b f5 ba 66 4b 9a 3b 15 f8 cf 3b
       -0.0002458737 -0.0018738352 0.004708695 0.0063467124
000110 bc fe f5 ba 8f d2 22 3c 22 72 0a 3c 49 9d 20 3b
       -0.0018767933 0.009937896 0.008450063 0.0024507812
000120 25 43 99 3b c3 ea 1f bc 0e 67 2c b8 2b 0f b9 3b
       0.0046771937 -0.009760561 -4.1103973e-05 0.00564756
000130 af 66 f9 3b 60 a1 39 3b ec 26 11 ba 27 9d 46 bb
       0.007611118 0.0028324947 -0.0005537111 -0.0030306072
000140 a8 b0 27 3c 1e 75 84 bb 38 aa 92 b7 09 ac bf 3b
       0.010234989 -0.004042282 -1.748382e-05 0.0058493656
000150 11 2c b1 39 f2 1b 32 3a 33 4d 9c 3b 10 cd f3 3a
       0.00033792903 0.00067943253 0.004769945 0.0018600542
000160 bc 87 3e ba 8e b0 fb 3b 3a 10 17 ba 82 62 89 b8
       -0.0007268151 0.007680959 -0.0005762611 -6.5510176e-05
000170 30 bc 9d ba 46 80 2a 3b 3a 02 56 ba a9 93 04 3c
       -0.0012034234 0.0026016398 -0.0008163784 0.008091846
000180 40 e2 0e bb 31 3a ba bb bf 52 20 bc ed 34 4a 3b
       -0.0021802336 -0.0056832065 -0.009785353 0.00308543
000190 c5 d6 34 bb 61 50 81 3b ea 0a b2 b9 19 ec 9e 3b
       -0.0027593833 0.0039463495 -0.00033958937 0.0048499224
0001a0 7c 2e 1a bc 86 15 cf 3b 54 d0 4e bb 98 1f 6a bb
       -0.009410497 0.0063197045 -0.0031557279 -0.0035724398
0001b0 29 03 09 bc 47 7b 09 3b 21 22 95 3b cc 19 81 3b
       -0.00836257 0.002097802 0.0045511876 0.003939843
0001c0 72 7f 91 3b 87 30 1a 3c fe 8d cf b9 e9 51 b9 3b
       0.0044402415 0.009410984 -0.0003958791 0.0056555164
0001d0 6c a1 98 bb ba 52 35 3b 17 f4 49 bb dd 3d 88 bb
       -0.004657915 0.0027667717 -0.0030815655 -0.0041577653
0001e0 a5 7b 1b bc cf b8 56 3b 78 4c 9d 3b 39 be 11 bb
       -0.009489928 0.0032763963 0.0048003756 -0.0022238626
0001f0 e2 16 1f bb 5f 02 87 bb 6b bd 1d 3c 32 86 3a bb
       -0.0024275114 -0.0041201557 0.00962768 -0.0028461334
000200 c4 89 79 3b a0 79 fc 3b 68 db d6 bb 5c 98 8c bb
       0.00380765 0.0077049285 -0.006556917 -0.0042906236
000210 12 16 f3 b8 eb 83 a8 bb 81 1d 3c bb cc ee 09 ba
       -0.00011591254 -0.005142679 -0.002870411 -0.0005261719
000220 11 a7 7a bb 9b c1 aa 3b 18 48 79 bb 6c b6 14 3b
       -0.0038246552 0.005211068 -0.0038037356 0.002269174
000230 b6 b5 0b bc da 00 14 3c 17 ac 10 ba e1 85 ac ba
       -0.00852721 0.009033406 -0.00055188074 -0.0013162458
000240 58 5e 3b bb d3 ca a9 3b 2b 7c ad 3b 5a ef a9 3b
       -0.0028590169 0.0051816492 0.005294343 0.0051860036
000250 d7 d1 6d bb 38 f2 06 b8 0c 29 03 bc 2e b5 13 bc
       -0.0036288404 -3.2173673e-05 -0.008005392 -0.009015365
000260 50 c4 1e 3a 89 d5 a0 3a 8b 63 6e bb 90 41 82 3a
       0.00060564745 0.001227067 -0.003637525 0.0009937752
000270 4f ea 0c bb 93 4d fc bb 0a c3 9b b9 61 e9 a7 3b
       -0.0021501963 -0.0076996773 -0.0002970922 0.0051242565
000280 73 85 75 b9 58 62 1e bb 86 f9 a8 bb ee ce 0f 3c
       -0.00023414734 -0.0024167504 -0.0051566986 0.008777363
000290 1d 2c 8d bb 0e 59 6a bb df 67 c9 bb 36 41 55 bb
       -0.004308237 -0.0035758647 -0.0061464156 -0.003254009
0002a0 0f e1 04 3a 04 e5 4d bb 9e 95 02 3a 92 0f 19 bc
       0.0005068937 -0.0031417022 0.0004981401 -0.009342091
0002b0 49 6a d2 3a 3d 9f 0a 39 04 db 0f bb 73 6d 54 3a
       0.0016053404 0.00013220026 -0.0021950612 0.00081034674
0002c0 98 b1 0a bc d2 11 9c 3b a2 a9 f1 ba 9e 56 7d 3a
       -0.008465193 0.0047628665 -0.0018437395 0.0009664091
0002d0 8c d9 c6 ba 3a 7e e9 ba c8 55 6d 38 9c ca 93 bb
       -0.0015171035 -0.0017814108 5.6585093e-05 -0.004510237
0002e0 7a 48 d7 3b 00 77 9a 3b e3 a2 9e bb 74 0d 11 bb
       0.006569919 0.004713893 -0.004841195 -0.0022133263
0002f0 08 ed 6b bb d1 02 ec 3a 8c 5b 06 bb 03 72 f3 3b
       -0.0035999436 0.001800621 -0.0020501344 0.0074293627
000300 5f 8d c7 ba 53 69 b6 bb 62 96 ea ba 8d 26 d9 bb
       -0.0015224627 -0.005566755 -0.0017897601 -0.00662691
000310 dd a7 81 3a 0f b3 14 bb 35 d6 b0 ba f6 de dd ba
       0.0009891946 -0.0022689735 -0.0013491573 -0.001692741
000320 bd 15 1d bc 91 18 81 3b 97 ea 9e 3b 20 51 da bb
       -0.009587702 0.003939696 0.0048497426 -0.006662503
000330 f3 cd 91 bb 03 89 81 bb aa 72 50 3b 8f 05 0a bb
       -0.0044496 -0.0039531006 0.0031806626 -0.0021060442
000340 20 06 90 ba c2 b5 a9 bb d4 b1 b5 ba 07 db 82 3b
       -0.0010988154 -0.005179138 -0.0013862201 0.0039933953
000350 c3 a2 91 bb 76 fe 40 3a 0b 02 f6 3a 74 cd 75 3a
       -0.0044444515 0.00073621364 0.0018768919 0.0009376623
000360 5e 43 df ba b2 2a 45 3b a7 ec f7 ba 29 7e f3 bb
       -0.0017033627 0.0030085263 -0.0018915132 -0.007430811
000370 27 07 49 bb 09 d1 0f 3b 43 e0 91 3b e2 16 4d bc
       -0.003067443 0.0021944663 0.004451783 -0.012517663
000380 58 e4 46 ba 08 37 12 bb 94 8a cf 3b 4c 98 bc 3b
       -0.00075871265 -0.0022310633 0.0063336585 0.00575546
000390 b0 d6 cd ba 8a f6 56 ba 32 0b c1 bb cb 21 d4 bb
       -0.0015704241 -0.00082001893 -0.005891227 -0.006473755
0003a0 69 19 08 bc 5b f9 e4 ba 34 73 48 ba 8f 09 b9 3a
       -0.0083068395 -0.0017469333 -0.0007646561 0.0014117229
0003b0 d5 13 21 3b 99 12 00 bc 4f 4d 99 bb 72 49 9a 3a
       0.0024578471 -0.007816934 -0.0046784054 0.0011771156
0003c0 e4 69 18 bb 60 75 ed bb 20 3d 95 39 51 0d 44 bb
       -0.0023256475 -0.007246658 0.00028465036 -0.0029915164
0003d0 a5 cf 30 3a c5 14 b3 3b 5a cb f5 3b 6a 27 56 3b
       0.00067448086 0.0054651224 0.007501048 0.0032677301
0003e0 25 4b 06 bc 75 37 b2 bb bc 27 b7 3a dd 8f e3 bb
       -0.008196627 -0.00543874 0.0013973634 -0.00694464
0003f0 c8 cf 6e 3b 03 25 10 bc 7f 6c c6 ba b1 6b f1 3b
       0.0036439765 -0.008797887 -0.0015138536 0.007367574

bn1.running_mean f4 [256]
000000 4f 94 14 c0 32 87 31 c0 a7 81 d3 c0 1e 7a 99 c0
       -2.321552 -2.7738767 -6.6095767 -4.796157
000010 d2 9d ac c0 97 01 26 41 25 16 db bf 33 06 a4 bf
       -5.394265 10.375388 -1.7116133 -1.2814392
000020 d0 df 19 c0 1e ed ab 3f ed f4 98 bf f3 f9 6a 40
       -2.4042854 1.3431737 -1.1949745 3.6715057
000030 13 f7 47 c0 02 6e 83 c0 f4 f8 3b 40 2b 45 96 3f
       -3.1244552 -4.1071787 2.93707 1.1739858
000040 0d 96 fa 40 a3 80 34 c0 fe b0 a0 c0 1e 7c e4 40
       7.8308167 -2.8203514 -5.0216055 7.140151
000050 f9 f7 4e c0 ff 09 a4 c0 5d a4 75 bf 62 ef 7a c0
       -3.233885 -5.12622 -0.95953923 -3.9208608
000060 06 7a 5a 40 cb b1 f1 3f 70 a9 ee 3f 6e d3 1a c1
       3.4136977 1.8882383 1.8645458 -9.676619
000070 e0 26 61 be 28 de 1b 3f 0e 23 20 c1 80 41 bc 3f
       -0.21987486 0.6088586 -10.008558 1.4707489
000080 7e 64 b4 c0 33 24 f7 bf ce 94 9b 40 31 f1 cd 3f
       -5.637267 -1.9307922 4.8619146 1.6089231
000090 3e 2e f9 3f e1 04 2b 3f 9f 2e 23 40 f9 f9 21 c0
       1.9467237 0.6680432 2.5497205 -2.5308821
0000a0 0f 6c 2f c0 95 48 17 40 1d 25 70 c0 64 2f 9c 3f
       -2.7409704 2.363805 -3.7522652 1.2201962
0000b0 b2 ae a1 c0 f0 c6 a1 40 c2 f8 76 40 a0 31 93 3d
       -5.052575 5.0555344 3.858933 0.071871996
0000c0 52 4f 83 c0 b1 7e c8 c0 da 35 4a bd f8 da 29 40
       -4.1034327 -6.2654653 -0.049367763 2.6539898
0000d0 b8 0f b4 bf a2 fe d1 3e 77 09 48 c0 cf 46 9c 40
       -1.4067297 0.41014582 -3.1255777 4.8836436
0000e0 a0 fb d6 40 fc 4b c4 3f 31 6a 53 40 34 57 ca c0
       6.718216 1.5335689 3.3033564 -6.323145
0000f0 90 d9 4b bf 35 d2 a5 c0 ad 23 10 3f 05 c5 1e c1
       -0.7962885 -5.18191 0.56304437 -9.9231
000100 8f b0 ce 3f 66 67 12 c0 11 81 b6 bf 6c af 12 40
       1.6147631 -2.287561 -1.4258138 2.291957
000110 ae 1a b1 c0 7c 75 bb 40 b4 12 9d 40 64 0c 33 c0
       -5.534507 5.8580914 4.908533 -2.7976313
000120 de b3 10 c0 0d aa 8c c0 2f 5c ab 40 55 a7 d1 40
       -2.2609782 -4.395758 5.355003 6.5516763
000130 20 0e b0 40 29 5b 9a c0 d0 a0 06 40 db ec 74 40
       5.5017242 -4.823628 2.1035652 3.8269565
000140 dc 0c c7 c0 9c 1c 1d 3f 4f 14 f5 3f 25 db 58 40
       -6.2203197 0.6137178 1.9146823 3.3883755
000150 80 4f be bf bf ee 38 40 d7 67 71 c0 86 fd 3c c0
       -1.4868011 2.889572 -3.771963 -2.9529738
000160 75 bb ac 40 31 02 55 40 99 66 2c c0 5e 39 34 40
       5.397883 3.3282588 -2.693762 2.8160014
000170 84 3b ee be 32 1c 76 40 44 f9 8f be 02 82 b7 40
       -0.46529782 3.845471 -0.28119862 5.73462
000180 2f 8b f3 bf d2 dc 0b c0 d5 e4 9a 40 ed e0 ad 40
       -1.902685 -2.1853528 4.8404336 5.4337068
000190 3a 6d 75 c0 84 b4 73 40 dc ea bd 3f 81 41 b7 bf
       -3.8347917 3.8078928 1.4837298 -1.4316865
0001a0 3a fe 97 c0 c1 5e e1 bf 76 5f 1b c0 13 7a f1 40
       -4.7497835 -1.7607042 -2.4277015 7.5461516
0001b0 ae 8f 35 c1 1f 47 11 41 78 5c b8 40 a7 ea 8f 40
       -11.347578 9.079864 5.7612877 4.497394
0001c0 72 4d b0 bd d1 3b 44 c0 bf a0 d6 c0 87 67 b2 40
       -0.086085215 -3.066151 -6.7071223 5.5751376
0001d0 ee 86 b3 c0 cc 79 1a c0 60 2c c6 3f c6 1a 1d c0
       -5.610221 -2.413684 1.5482292 -2.4547591
0001e0 bc 5f 7f 40 ef 3c 3f 40 7e 43 34 c0 d4 f1 b7 40
       3.9902182 2.988094 -2.8166194 5.74827
0001f0 1b a0 d2 be 87 fe 8d c0 92 8b 53 3f e8 e8 0a 40
       -0.41137776 -4.43732 0.8263484 2.1704655
000200 94 a3 63 c0 68 46 0e c1 84 47 34 be 82 75 2a bd
       -3.556859 -8.892189 -0.17605406 -0.04161597
000210 c4 48 21 c0 ae a0 76 c0 78 3f fc c0 32 24 b9 bf
       -2.5200663 -3.853557 -7.8827477 -1.4464171
000220 a7 4c 65 40 e2 80 3e bd 3b fe ff 3f e9 48 f5 bf
       3.5828035 -0.04650963 1.999946 -1.9162875
000230 7d e6 82 c0 89 82 0e c0 5c ae 2b c0 12 a3 c9 c0
       -4.090636 -2.2267172 -2.682517 -6.301156
000240 11 29 27 c0 49 a1 8a 40 a1 55 0b c0 fe 25 51 41
       -2.6118815 4.332188 -2.1771014 13.071775
000250 36 1d 0a 40 06 ff 45 c0 32 54 9d c0 f6 5c 20 40
       2.158033 -3.0936904 -4.9165277 2.505674
000260 8a 9f fc bf 54 e3 d9 c0 5a 5b 78 c0 fc 66 0b 40
       -1.9736187 -6.809 -3.8805757 2.1781607
000270 a7 cf cc 3f d9 3d 3c c0 46 48 9a bf 3d c6 e3 3f
       1.600087 -2.941275 -1.2053306 1.7794873
000280 58 9e e3 bf 5f a9 3e c0 1e ee 21 c0 bb 46 45 bf
       -1.7782698 -2.9790876 -2.5301585 -0.7706105
000290 b4 4e d0 c0 71 65 07 40 9f 14 e7 40 b4 bc 7a c0
       -6.5096073 2.1155665 7.221267 -3.9177675
0002a0 e0 c3 0e 40 f0 46 10 c0 ae cc b5 c0 26 74 f0 3f
       2.2307053 -2.2543297 -5.6812353 1.8785446
0002b0 1f 9a ef bf 42 d9 af c0 e6 d5 22 bf 01 a9 1b 3e
       -1.8718909 -5.4952707 -0.63607633 0.15201189
0002c0 70 55 92 c0 6f 12 ab 3e b5 44 92 3e 1a 1c 91 3f
       -4.5729294 0.334125 0.28568044 1.1336701
0002d0 40 73 b0 40 21 4f 27 bf 5e 4c e8 3e e4 ec 9d 3e
       5.5140686 -0.65355116 0.45370764 0.30844796
0002e0 03 5f 29 40 34 eb d2 40 10 72 ea 3e 3a f6 b7 3f
       2.646424 6.5912113 0.45790148 1.4372017
0002f0 0a b2 00 3f 64 8c 02 3f cd 5f 02 41 14 35 69 c0
       0.50271666 0.5099547 8.148389 -3.6438646
000300 97 51 5f 3f 0f cd a7 bb 75 35 4e be db da c6 c0
       0.8723387 -0.0051208804 -0.2013758 -6.2142158
000310 a6 60 65 3e 8a 1f 2c 40 33 d9 7a 40 0d 74 48 3f
       0.2240015 2.689425 3.9195068 0.7830208
000320 db e5 d6 c0 ea b1 6f 3e 30 31 6d 40 87 97 94 40
       -6.7155585 0.23407713 3.7061272 4.643497
000330 f3 97 3e bf 93 59 13 41 04 ef 0b 40 b4 06 23 40
       -0.74450606 9.209369 2.1864634 2.5472841
000340 f5 d9 45 c0 ef 9b 16 40 a7 7b c6 bf cd b9 17 c0
       -3.091428 2.3532674 -1.5506486 -2.3707154
000350 be a6 59 c0 3e d7 da 3f c5 fd 60 c0 fe ed d7 3f
       -3.4008021 1.7096937 -3.5154889 1.6869504
000360 1d 53 22 40 a8 1d a2 40 1a 9b 31 40 bc fc 37 c0
       2.5363228 5.06612 2.7750916 -2.8748007
000370 58 31 a3 40 9f f0 5c c0 02 e9 d1 40 a0 6c c4 bf
       5.0997734 -3.4521863 6.5596933 -1.534565
000380 42 16 df bf 06 e2 c5 3c 0e 97 12 40 4a c7 d9 40
       -1.7428668 0.024155628 2.2904696 6.8055773
000390 27 85 ef 3d 26 83 bd 3d d8 f6 5f 3d 74 51 ad c0
       0.11695319 0.0925353 0.054678768 -5.416193
0003a0 71 7c b0 c0 45 0c 77 40 2a 87 fa bf 86 b9 39 bf
       -5.5151906 3.8601239 -1.9572499 -0.7254871
0003b0 19 81 30 bf 35 81 71 bf 74 05 d6 c0 f1 ee c6 3f
       -0.6894699 -0.9433778 -6.6881657 1.5541669
0003c0 80 5e 14 40 98 28 fe bf d4 72 b8 bf c3 28 1a c0
       2.3182678 -1.9856138 -1.4410043 -2.408738
0003d0 15 f6 3d c0 70 5e b5 bf 28 8b 04 c0 61 14 e8 3f
       -2.9681447 -1.4169445 -2.0709934 1.8131219
0003e0 01 ad 2f c0 e1 a1 f2 3f 7e 3a d7 bf 25 af 2b 3c
       -2.7449343 1.8955652 -1.6814725 0.010478769
0003f0 74 1b 2c c0 00 da 9f 40 a9 9a de c0 43 bc ed c0
       -2.6891756 4.9953613 -6.9563794 -7.429231

bn1.running_var f4 [256]
000000 d8 fc ec 3f af 9c b9 3f fa c6 c7 40 ab 76 0a 41
       1.8514662 1.4500941 6.243039 8.653972
000010 b7 19 49 41 ed 97 40 41 cf dc cf 3f b1 3c 26 40
       12.568778 12.037091 1.623926 2.5974543
000020 23 09 2d 40 27 8a 14 40 0f 91 33 40 ed c6 24 41
       2.7036827 2.3209321 2.8057287 10.298566
000030 fd 89 15 40 ad 2b 97 3f 9a 54 7a 41 de 3b d7 40
       2.3365471 1.1810204 15.645655 6.726058
000040 ea 40 cd 40 9e 4a 20 41 bc 8a ac 40 f9 3f a7 40
       6.414174 10.018217 5.3919353 5.226559
000050 ed ec 5f 3f 1e 01 d5 3f ad 5a 26 40 81 7e 1a 40
       0.87470895 1.6640966 2.5992844 2.4139712
000060 7c 7d 14 40 2b f6 fd 40 eb 35 85 40 8a 6c b4 40
       2.320159 7.9363 4.162832 5.6382494
000070 0a da 47 40 62 04 93 3f a1 ae 15 41 73 b3 d0 3f
       3.122683 1.1485713 9.355134 1.6304764
000080 7f e0 07 40 6e b4 22 40 e8 d2 ad 40 72 ee e7 3f
       2.1230772 2.5422626 5.4319954 1.8119643
000090 b8 4f 85 3f 0d c4 b7 3f d1 06 a5 3f 1e ab 82 3f
       1.0414953 1.4356705 1.2892705 1.0208471
0000a0 ac 56 6e 3f c7 c7 96 3f 32 ef eb 3f 92 69 b0 3f
       0.93101 1.1779717 1.8432372 1.3782218
0000b0 4d 2e b8 40 ed 5c 15 41 75 38 99 40 6f 80 8e 3f
       5.755652 9.335187 4.7881417 1.1132945
0000c0 14 9b 88 3f cd 42 59 40 fb ec df 3f 55 31 27 40
       1.0672326 3.3947022 1.7494196 2.612386
0000d0 35 eb 22 40 d3 79 6b 40 92 a8 95 40 38 9a 82 40
       2.545606 3.6793106 4.6768274 4.0813255
0000e0 32 3f be 40 bc c9 1e 3f 92 03 44 3f 5b 82 46 40
       5.9452143 0.6202657 0.7656795 3.1017063
0000f0 4d 14 66 40 98 c6 bc 40 20 d1 f0 3f cc 56 da 40
       3.594989 5.8992424 1.881382 6.8230953
000100 e4 7e c3 40 fa ca 94 3f 12 95 e9 3e 16 98 18 3f
       6.1092396 1.1624444 0.45621544 0.59607065
000110 fb 54 8d 3f 1f ad fe 3f f6 a2 87 3f 00 7a 6e 3f
       1.1041559 1.9896582 1.0596607 0.9315491
000120 db ce a5 3f 37 b7 73 3f ee 9b 34 40 39 72 b7 3f
       1.2953752 0.9520144 2.8220172 1.4331733
000130 b2 2d b4 40 2e 27 50 40 c2 f9 1f 40 ed c2 98 40
       5.630578 3.2523913 2.499619 4.7737947
000140 96 c2 12 40 bd 35 de 3f ec 69 6e 40 e5 28 bd 40
       2.2931266 1.736015 3.725215 5.911242
000150 cc 97 54 40 bb f8 85 3f 9d 36 01 40 8c d0 11 41
       3.321765 1.0466532 2.0189583 9.113415
000160 92 a8 dc 3f c8 e9 ba 3f 88 50 1b 40 ea 9e a2 3f
       1.7238944 1.4602594 2.4267902 1.2704747
000170 b7 88 80 3f d1 3d 8d 40 da ed 99 3f 36 c1 f0 40
       1.0041722 4.413796 1.2025712 7.5235853
000180 b4 dc a6 3f 77 a1 db 3f e3 34 68 40 06 20 f1 40
       1.3036103 1.715865 3.628228 7.535159
000190 82 46 3f 40 ee 4b 4b 40 37 d7 64 3f ba 81 f2 3f
       2.9886785 3.1765094 0.8939089 1.894584
0001a0 1c 8d ab 40 a1 c2 96 40 c6 f2 90 40 0b f1 61 3f
       5.3609753 4.7112584 4.5296354 0.8825843
0001b0 20 ef 78 41 8b e4 9c 40 2a e0 ab 3f 67 f0 19 40
       15.55838 4.9028983 1.3427784 2.405298
0001c0 66 b0 bb 40 b6 a9 bb 3f 1d e7 c2 3f bc 87 0c 40
       5.865283 1.4661167 1.522678 2.1957846
0001d0 d6 66 bc 3f 25 d1 f7 3f 6d 0c 1b 40 3b 7f 27 40
       1.4718883 1.9360701 2.4226334 2.6171405
0001e0 c4 77 9c 40 8c c8 08 40 ce 6d 0c 41 14 f2 2f 41
       4.88962 2.1372404 8.776808 10.996601
0001f0 b7 be b6 3f b2 54 c0 3f 67 a0 ec 3f 5c 0b 2f 40
       1.4276952 1.5025847 1.8486451 2.7350683
000200 b5 ce b0 3f 9b 81 84 40 c1 0d 30 40 41 c9 1b 3f
       1.3813082 4.140821 2.7508395 0.60853964
000210 54 4b 89 3f 71 cc b7 3f ae fc 9a 40 38 15 bd 40
       1.0726113 1.4359266 4.8433447 5.90884
000220 ba d8 5a 40 4e 22 bb 3f 50 1d b6 3f 4a fe 68 3f
       3.419478 1.4619844 1.4227695 0.91013014
000230 c2 63 54 3f bf ed 2b 41 72 7f 37 3f ed 1e 6b 40
       0.8296472 10.7455435 0.7167884 3.6737626
000240 ce d3 1a 40 9d 53 d8 40 09 0e 4a 3f 3e 00 9f 41
       2.4191775 6.7602067 0.78927666 19.875118
000250 4b 47 a9 3f dc 5b 03 40 7f 31 6a 3f 40 a3 ef 3f
       1.3224882 2.0524817 0.91481775 1.8721695
000260 e7 f9 07 3f 72 ba 95 3f 6c 1c 8a 3f cc ea 73 3f
       0.53115696 1.1697524 1.0789924 0.95280147
000270 2e b5 4e 3f 90 a1 c3 3e 93 7d 08 40 8b 62 7c 40
       0.8074521 0.382092 2.1326644 3.9435146
000280 a0 7e 8d 3f 2a bb ba 40 b4 bc 88 3f 96 cd b8 3f
       1.1054268 5.835347 1.0682588 1.443774
000290 e6 60 a1 3f e0 58 1b 40 7a c5 3e 41 01 b6 d5 3f
       1.2607696 2.4272995 11.923212 1.6696168
0002a0 a4 f1 a8 3f 99 8b 02 41 2d 19 f1 3f 01 06 5d 40
       1.3198743 8.159081 1.8835808 3.4534914
0002b0 01 f3 f9 3f 4c 35 6c 40 62 3c d0 3f 1f 74 94 40
       1.9527284 3.690753 1.6268427 4.639175
0002c0 2c 51 ba 3f 31 b0 4a 40 ba 6d d1 3f 5d 39 6b 3f
       1.4556022 3.1670039 1.6361611 0.91884404
0002d0 6b 81 dd 3f 6b 05 a9 3f 71 e5 7b 3f cb 7f 52 3f
       1.730512 1.3204778 0.98396975 0.82226247
0002e0 eb 16 ba 3f fa 32 a8 40 9e 31 e2 3f 71 93 e0 40
       1.4538244 5.2562227 1.7671392 7.017998
0002f0 ff 3e 6d 3f 4f 73 9b 3f 86 43 40 40 63 90 e0 3f
       0.9267425 1.2144564 3.0041213 1.7544063
000300 e2 77 8f 40 d1 84 73 40 36 d1 21 3f 92 cd 04 41
       4.483384 3.8049815 0.63209856 8.300188
000310 71 1b 45 40 2d c9 b9 3f 0f 7f cd 3f 43 87 b0 3f
       3.0798 1.4514519 1.60544 1.3791279
000320 78 0c a9 3f 3c ea a3 3f 60 f8 07 40 ad df 83 3f
       1.320693 1.2805858 2.1245346 1.0302635
000330 43 a4 15 40 8f 64 67 40 c1 8c 5a 40 58 74 0d 40
       2.3381507 3.6155126 3.414841 2.210226
000340 f0 0d cb 40 c1 c7 32 40 f7 6c 0b 40 fe 55 cd 3f
       6.3454514 2.793442 2.1785257 1.6041868
000350 f2 8a 82 40 9c cf bb 40 e7 87 39 40 55 00 67 40
       4.079461 5.869093 2.8989198 3.6093953
000360 6b 96 92 3f 65 f8 d8 40 97 d7 d8 3f 5e 55 12 40
       1.1452154 6.7803216 1.6940793 2.2864604
000370 e3 6d c1 40 99 49 d7 40 b2 74 62 41 43 d0 a2 40
       6.044664 6.727734 14.15349 5.0879226
000380 62 34 37 40 f9 94 ab 40 ee 4f 45 40 f2 64 b6 40
       2.8625722 5.361935 3.0830035 5.6998224
000390 32 f0 0c 41 cd 32 05 40 a7 45 05 40 eb dc e9 40
       8.808641 2.0812256 2.0823762 7.3082175
0003a0 a8 d3 5b 40 9a 9d de 40 98 dd a4 40 57 91 9a 40
       3.4347935 6.9567385 5.15205 4.8302417
0003b0 07 86 04 40 3d fe 0f 40 ba 29 fd 3f d4 66 f3 3f
       2.0706804 2.2498925 1.9778359 1.9015756
0003c0 c8 59 13 40 89 30 32 40 90 f0 02 40 30 e3 32 40
       2.3023548 2.7842124 2.0459328 2.7951164
0003d0 3d 91 08 40 88 5a 9e 3f 25 01 8e 3f 9d 34 66 40
       2.1338646 1.2371378 1.1094099 3.5969613
0003e0 77 9f 1b 40 8a 39 12 40 3d c7 68 40 4c f9 cd 40
       2.431608 2.284762 3.6371605 6.4366817
0003f0 57 40 7a 3f a9 75 d0 3f 26 8f 9d 3f 94 d0 3d 40
       0.97754425 1.6285907 1.230931 2.9658556

fc2.weight f4 [256, 256]
000000 96 be 46 bd 18 bf ba 3c ae 53 5a bd 75 d2 29 bd
       -0.0485216 0.022796199 -0.05330246 -0.041460473
000010 b5 3d 27 bd d0 ff e4 bc e8 08 71 3d 61 a4 18 bd
       -0.040830333 -0.027954012 0.058846384 -0.03726614
000020 3f d4 a9 bb 16 09 6b bd 96 7f 9d 3c 1e 37 2f bd
       -0.0051827724 -0.057381712 0.019225877 -0.042777173
000030 9e 10 03 bd ad 2a 4e bd 11 4a e6 3b 96 4e 6c 3d
       -0.03199827 -0.050333668 0.0070278724 0.057692133
000040 7a 84 87 3c 80 4e 6a bd a1 a5 db bc 96 c9 80 bd
       0.016542662 -0.05720377 -0.026812376 -0.062884495
000050 8e ce 7a 3d 09 dd 6e 3b 8a c5 09 3c fd b5 bf 3b
       0.061232142 0.0036447665 0.008408913 0.005850552
000060 51 eb d6 3c 45 a9 95 bc a2 31 b5 bc ab 2c 79 3d
       0.026235254 -0.01826919 -0.022118393 0.060833614
000070 50 a6 2e bd e7 63 1c 3d fb ed 0c 3d 8c d7 51 bd
       -0.042639077 0.03818121 0.034406643 -0.051230952
000080 2f 0e 47 3d b5 f9 df 3c cf 4d 12 bd 6f ab 7d bd
       0.04859751 0.02734075 -0.035718735 -0.06193107
000090 c3 d7 3b bb ff e5 63 3c 34 62 82 3d 27 d2 46 bc
       -0.002866254 0.013909816 0.06366387 -0.012135065
0000a0 2b 16 2b 3d f6 62 5b 3d 15 0f 65 3c f2 73 32 3d
       0.041769188 0.053561173 0.013980647 0.043567605
0000b0 5e 9a f6 bc 57 9f 3b bc f9 e4 74 bd c3 a8 33 bd
       -0.030102905 -0.011451564 -0.059788678 -0.043862116
0000c0 e9 13 ce 3c 90 19 83 3d e6 25 9e 3c cb 49 70 3d
       0.025155978 0.0640136 0.01930518 0.058664124
0000d0 85 53 e6 bc 1e 48 42 bd 59 8f 51 3d 80 d7 3d 3c
       -0.028115997 -0.047432058 0.051162098 0.011587024
0000e0 35 50 cb bc df c3 22 bd 69 ba 36 bd a9 e4 37 bd
       -0.02481852 -0.03973758 -0.04461137 -0.0448958
0000f0 2b c4 7f bd 93 c4 56 bc 00 c1 8d 3c 42 3d 9a 3c
       -0.06244294 -0.01310839 0.017303944 0.018828038
000100 1b 6f 2b bd b9 0e a2 bc a6 c6 2c bc e6 a5 2d bd
       -0.041854005 -0.019782411 -0.010545408 -0.04239454
000110 c2 38 e4 ba 4c d8 7c bd 1e e9 84 bd 40 a0 26 3c
       -0.0017411935 -0.061729714 -0.06489776 0.0101700425
000120 70 52 44 bd 31 85 5d bd 78 26 1f 3d ab 3c ce 3c
       -0.04793018 -0.0540821 0.038855046 0.025175413
000130 61 10 cb bc d4 bf 88 3d 1d ee 84 3d 16 0e c6 bc
       -0.024788084 0.06677213 0.06490729 -0.024176639
000140 98 9d af bb 93 d2 b5 3b a8 fe 63 3d ab 0c 6f bc
       -0.005359363 0.005548784 0.05566278 -0.014590423
000150 52 13 57 3d 6d cd 88 bd 6f 6e e4 3c eb 3e 0d bd
       0.05250866 -0.06679807 0.02788469 -0.03448383
000160 e2 83 10 3d 75 45 37 bd 30 24 91 3c 73 7a f3 3b
       0.035282023 -0.044743974 0.01771745 0.0074303686
000170 b5 58 0e 3d b4 83 c0 bc c8 33 6c 3d 31 f1 45 bd
       0.034752566 -0.023500301 0.05766657 -0.04832572
000180 3a 03 2f bc d2 94 cb bc 18 05 59 bd 3d d5 55 3d
       -0.010681922 -0.024851236 -0.052983373 0.052205313
000190 49 69 11 bc cc a0 26 3b 6f b7 1f 3d ac 91 f3 bc
       -0.0088752 0.0025425432 0.038993295 -0.029732548
0001a0 25 0a 51 bd 3f 7b cb bc ee 30 13 bd 33 88 7a 3d
       -0.051035065 -0.024839042 -0.035935335 0.061165046
0001b0 7a a3 18 3a 20 1e 81 3d 58 2c 5b bd 86 94 14 bd
       0.00058227 0.06304574 -0.053509086 -0.036274455
0001c0 9f ed 89 3d ef f5 30 bd 95 c2 04 3a 36 9f e3 3c
       0.06734776 -0.04320329 0.00050643954 0.027785879
0001d0 be 60 a6 3b 20 df 78 bc b3 7c 37 bd 0f ac f7 3c
       0.0050774505 -0.015189916 -0.044796657 0.030233411
0001e0 62 3e 48 3d 02 12 be bc 5d b2 51 bd 31 68 01 bd
       0.048887618 -0.023201946 -0.05119549 -0.031593505
0001f0 1b de 4a bd b6 5a 23 3d 5b 6d 50 bd dd d8 89 bd
       -0.049528223 0.03988143 -0.05088554 -0.067308165
000200 5b 2d 4c 3d 3e 6f 21 3d 71 79 24 bd 3d 51 f7 bc
       0.04984794 0.03941273 -0.040154878 -0.030190105
000210 59 7d 10 3d ef 71 49 3d 78 45 c9 3c d0 34 1d bc
       0.03527579 0.04918092 0.024569258 -0.009595111
000220 50 7c 08 bb 86 6b 09 bd 46 b9 25 3d 22 ae 0c bd
       -0.002082605 -0.033549808 0.040459894 -0.034345753
000230 e4 f5 a5 ba 30 dc f0 3c 2c d0 02 bd 4a a4 8c 3b
       -0.0012661782 0.029401869 -0.03193681 0.0042920457
000240 c2 24 01 3d 68 6d ea 3c bd 84 81 bd 3c 7b 70 3d
       0.031529196 0.028616622 -0.06324146 0.058711275
000250 ec 76 24 3d c5 86 82 3d 0f fe bf 3b 43 3c 88 bd
       0.040152475 0.063733615 0.0058591436 -0.06652119
000260 0d 8b 48 bd 7a 98 87 bd 76 96 2e bb 5b d9 1d bd
       -0.048960734 -0.066208795 -0.0026639975 -0.038537364
000270 2b 1b 87 3c 4c e8 3d 3d 1a 3a 04 bd cf c2 c1 3c
       0.016492447 0.046364114 -0.032281972 0.023652462
000280 bc b6 33 3c 21 e1 55 3d 4c ba c1 3c 88 92 a9 39
       0.01096886 0.052216653 0.023648404 0.00032343366
000290 96 8b c6 bc 33 ee 8b bc 1a 5f 4c bc 01 81 d3 bc
       -0.024236482 -0.017081356 -0.012473846 -0.02581835
0002a0 45 20 b5 ba 86 1a 59 3d 32 17 32 3d e4 15 20 3d
       -0.0013818821 0.05300381 0.043479152 0.039083377
0002b0 87 9e 31 bc 2d 7f 60 bd 79 0c 5c 3c 6e 03 48 3d
       -0.0108410185 -0.054808784 0.013430708 0.048831396
0002c0 10 05 56 ba 8d 71 ba 3c 0a 1a 0a bc bb 89 a3 bc
       -0.00081642065 0.022759223 -0.00842906 -0.019963136
0002d0 27 6c 26 bd c8 4d 2d 3d 42 21 7f 3d ac bb 72 3d
       -0.040630486 0.042310506 0.062287576 0.05926101
0002e0 8a 75 16 3d dc cb 90 bc 7a 0f 45 bd de e3 5e 3d
       0.036733188 -0.017675333 -0.048110463 0.05441653
0002f0 8c e1 0a 3d a5 97 69 bd 97 dd 5c bd f5 ea 7d 3c
       0.033906505 -0.057029385 -0.053922262 0.015497913
000300 5d e5 53 3c b1 34 15 3d ef 5b ca 3b a3 9d 35 3d
       0.012933102 0.036427204 0.00617551 0.044339787
000310 d5 d6 0a 3d 02 ab 07 3d fa f9 42 bd c1 a5 2f bd
       0.033896286 0.03312207 -0.047601677 -0.042882685
000320 fc d5 43 3d 14 71 50 bc ee b1 57 bd 53 4d 8b 3d
       0.047811493 -0.012722272 -0.05265992 0.06801858
000330 14 f1 15 3d ec 5e 06 bd c5 ac ad bb 0f c1 b2 3b
       0.036606863 -0.03280537 -0.0053001367 0.0054551433
000340 64 58 4f 3d 09 9a cb bc 17 df 6a 3d e6 f8 13 bd
       0.050621405 -0.024853723 0.05734166 -0.03612604
000350 27 84 aa bc e3 9c 81 bb 18 4e 60 3d c7 69 39 bd
       -0.020814968 -0.00395547 0.054761976 -0.045266893
000360 20 59 b9 3c 1e 1a bb bc 7a 8b 33 bd e0 a0 64 bd
       0.022625506 -0.022839602 -0.043834187 -0.055817485
000370 e2 e6 4a bd 81 c3 be bc dd a5 56 bd 40 83 39 b9
       -0.049536593 -0.023286583 -0.052404273 -0.0001769187
000380 97 a7 fe bb cc 24 c2 3c 08 41 39 3d ac 60 18 3d
       -0.007771443 0.023699187 0.045228034 0.03720157
000390 90 e0 92 bc e6 ef 5f bd 24 cb c0 3c b2 e2 28 bc
       -0.017929345 -0.054672144 0.023534365 -0.010307955
0003a0 28 a4 b2 bc 19 96 0e bd 2a ff 39 3c 0a 37 1e 3d
       -0.021806791 -0.034811113 0.01135234 0.038626708
0003b0 13 49 12 bd 6e ff 1a 3d e3 4d 28 bc 57 7f 42 3d
       -0.03571422 0.037841253 -0.010272476 0.047484722
0003c0 ba 30 59 3d 5d e3 51 3d a3 19 4c 3d 14 b3 59 bc
       0.053024985 0.05124222 0.049829137 -0.013287324
0003d0 bc 22 ab bc 66 01 67 bc 90 b6 20 bd f4 fe 20 bc
       -0.020890586 -0.0140994545 -0.039236605 -0.009826411
0003e0 03 b1 99 3c a8 44 3b 3d 99 b2 1e 3d d6 61 cb 3c
       0.018761164 0.045719773 0.038744543 0.024826925
0003f0 52 df 6f 3d a8 10 86 3d 8a 5e 52 3d a5 ed 5a 3d
       0.058562584 0.06546146 0.05135969 0.05344929
